models/ppo_trading_model_hd.pt (torch, 40430 bytes, 9 tensors)

shared.0.weight f4 [64, 7]
0	0x3db6d67c	0.089276284
1	0x3eb6aaa5	0.35677066
2	0xbd9b34a3	-0.07578399
3	0x3ee3d33d	0.444971
4	0x3d656fb7	0.056014743
5	0x3dbd086b	0.09230121
6	0xbd19065c	-0.03735958
7	0x3f1492c3	0.5803644
8	0x3f222a72	0.63346016
9	0xbe7fc445	-0.24977215
10	0x3ebaf220	0.36512852
11	0x3e027ddf	0.12743329
12	0x3d8c1ab8	0.06841034
13	0x3e350407	0.17677318
14	0x3e5d03b5	0.21583445
15	0x3e103126	0.14081249
16	0x3ed7c2b9	0.4214075
17	0x3e9a9ff5	0.30200163
18	0xbecdf735	-0.40227666
19	0x3d51d1af	0.05122536
20	0xbe578c29	-0.2104956
21	0x3e208563	0.15675883
22	0x3ea04f22	0.31310374
23	0x3f21ebf7	0.6325068
24	0xbf248b16	-0.6427473
25	0xbea0220e	-0.31275982
26	0x3e21de8a	0.15807548
27	0xbc9f6fed	-0.01946255
28	0xbecbfcd2	-0.39841324
29	0xbf4653be	-0.7747153
30	0x3e54e2b2	0.20789602
31	0xbe1dd291	-0.15412356
32	0x3e8f3e7a	0.27977353
33	0x3d2c3acb	0.042048257
34	0x3cefa9ca	0.029255766
35	0x3e705b62	0.2347236
36	0x3e4ec4cc	0.2019226
37	0x3f570aaa	0.8400065
38	0x3ea0d82e	0.31414932
39	0x3e9860fc	0.29761493
40	0xbd4e9f4d	-0.05044489
41	0x3e42ad0f	0.19011329
42	0x3ea184bb	0.31546578
43	0x3f51d6e2	0.8196851
44	0x3f8504ae	1.0392053
45	0x3defc620	0.11707711
46	0x3f49acaa	0.7877909
47	0xbe4ccaed	-0.19999285
48	0x3e102e33	0.14080124
49	0xbe26a310	-0.16273141
50	0xbe6d2414	-0.23158294
51	0x3d86b08c	0.065766424
52	0xbe84ce7e	-0.2593879
53	0x3f02c211	0.5107737
54	0xbb994974	-0.0046779457
55	0x3e395875	0.1810015
56	0x3dbfda42	0.09367801
57	0x3e4361bb	0.1908025
58	0x3ef369a8	0.47541547
59	0xbe8c5d2a	-0.2741483
60	0xbe897c9b	-0.2685288
61	0xbe3e837d	-0.18604846
62	0xbc5c9658	-0.013463579
63	0xbe90605b	-0.28198513
64	0x3e4fd4cb	0.20296018
65	0x3d80003c	0.06250045
66	0x3ea152fb	0.31508622
67	0xbe09d838	-0.13461387
68	0xbdb5823a	-0.08862729
69	0xbe1ab80b	-0.1510927
70	0xbd03bf66	-0.032164954
71	0x3dbab202	0.091159835
72	0x3ebe09b7	0.37116787
73	0xbf47df2b	-0.780749
74	0xbf094263	-0.53616923
75	0x3e0aecf1	0.13566948
76	0xbe3220bc	-0.173953
77	0x3eb6616a	0.35621196
78	0x3ed8c688	0.42338967
79	0x3f1359fc	0.5755918
80	0xbe95902b	-0.29211554
81	0xbebd620a	-0.3698886
82	0xbdb65571	-0.089030154
83	0xbcede030	-0.029037565
84	0x3e057a50	0.1303494
85	0xbdc2cf82	-0.09512235
86	0x3edb369d	0.42815104
87	0xbec418de	-0.38300222
88	0xbe3ec85b	-0.18631117
89	0xbe2cba8a	-0.16868034
90	0x3e08a930	0.1334579
91	0x3d21618f	0.03939968
92	0x3ee73380	0.4515648
93	0x3f48fa37	0.785068
94	0xbdca473b	-0.098768674
95	0x3e5b6b96	0.2142776
96	0x3cdd10be	0.026985522
97	0xbea77b75	-0.32711378
98	0xbed31942	-0.41230208
99	0xbe69a8e2	-0.2281833
100	0xbb7cb3d2	-0.003855933
101	0xbe96b562	-0.2943526
102	0xbde2feae	-0.110837325
103	0xbf0a17ff	-0.53942865
104	0x3b6a69f7	0.0035768726
105	0xbebf6236	-0.37379616
106	0xbebc6764	-0.3679763
107	0xbedd5aab	-0.43233237
108	0xbe7e34c8	-0.24824822
109	0xbf04eaeb	-0.51920956
110	0x3ecef068	0.4041779
111	0x3c623f72	0.013809072
112	0x3e9bab76	0.30404252
113	0xbed3b407	-0.41348287
114	0xbe4b1157	-0.19830833
115	0xbee83600	-0.453537
116	0x3e289475	0.16462882
117	0xbdb83288	-0.08994013
118	0xbea1f293	-0.31630382
119	0xbf0808d5	-0.53138477
120	0xbe2c3352	-0.16816452
121	0xbf04d0e0	-0.5188122
122	0x3c866d6c	0.016409598
123	0xbf374183	-0.7158434
124	0xbd1e8ef0	-0.038710535
125	0xbe50218b	-0.20325296
126	0xbd96d2af	-0.073644035
127	0xbeb3e05e	-0.35132116
128	0x3ea7b135	0.32752386
129	0xbd985e6f	-0.07439887
130	0x3e8978e8	0.26850057
131	0xbebf614d	-0.37378922
132	0xbe49e746	-0.1971713
133	0xbc781c64	-0.015143488
134	0xbe176f85	-0.14788635
135	0xbe385ab8	-0.18003356
136	0xbe763646	-0.24044141
137	0xbf0a744e	-0.54083717
138	0x3ea6273b	0.32451805
139	0xbe354844	-0.17703348
140	0x3dc0725f	0.093968146
141	0xbe95c083	-0.29248437
142	0x3eadc5aa	0.33939868
143	0xbe642743	-0.22280602
144	0x3dba0848	0.09083611
145	0x3d294d1e	0.04133331
146	0x3e7b2faf	0.24529909
147	0x3e8bb476	0.27286118
148	0x3ee71f63	0.45141134
149	0xbdf5fd73	-0.12011232
150	0x3deab478	0.11460203
151	0xbec9405e	-0.3930692
152	0x3d6b7e7e	0.05749368
153	0xbe821cc8	-0.25412583
154	0x3e6ffc41	0.23436071
155	0xbea0673c	-0.31328762
156	0x3e83a7c6	0.25713938
157	0x3d95c449	0.07312829
158	0x3e5d39bc	0.21604055
159	0xbe410aec	-0.18851823
160	0x3eb58abd	0.3545741
161	0xbe1e90be	-0.15484902
162	0xbc73e08c	-0.014885079
163	0xbe9d980c	-0.30780065
164	0xbe172509	-0.14760222
165	0xbd4c50bb	-0.049881678
166	0x3dd2ca66	0.10292511
167	0x3ecd3b33	0.40084228
168	0xbbc71c54	-0.006076375
169	0xbe33b2e8	-0.17548716
170	0xbd843dff	-0.06457137
171	0xbdc63094	-0.09677234
172	0x3eae9851	0.34100583
173	0x3c807c23	0.015684193
174	0xbd6ac3b9	-0.057315562
175	0xbeb177b0	-0.34661627
176	0xbd96007b	-0.073243104
177	0xbdd9df61	-0.10638309
178	0x3ebee275	0.37282148
179	0xbf762367	-0.9614777
180	0xbd000b8b	-0.03126101
181	0x3e4a53f5	0.1975859
182	0x3c1bbf39	0.00950604
183	0xbd5091e5	-0.050920386
184	0xbd67e9f7	-0.05661961
185	0x3f20d722	0.62828267
186	0xbec7959a	-0.38981324
187	0x3c88bd7c	0.016691916
188	0x3e11cf37	0.14239202
189	0xbe5d0542	-0.21584037
190	0xbd94b088	-0.07260233
191	0xbd2bd801	-0.041954044
192	0x3e8e1b63	0.2775527
193	0x3efdb20a	0.49549896
194	0xbe185911	-0.14877726
195	0x3b1611ae	0.0022898722
196	0xbea10b20	-0.314538
197	0x3e3da908	0.18521512
198	0x3cec989d	0.028881365
199	0x3eaebf88	0.34130502
200	0xbf4af92d	-0.7928646
201	0x3c9456a7	0.018107725
202	0x3edb1ed7	0.42796966
203	0xbe16083c	-0.14651579
204	0xbc9e4234	-0.019318677
205	0xbf232e55	-0.6374257
206	0x3e0ad493	0.13557653
207	0xbf6dbce6	-0.9286636
208	0x3cbee454	0.023302235
209	0x3e1975be	0.14986321
210	0x3e6596f7	0.2242087
211	0x3d43eb4e	0.047831826
212	0xbf20f220	-0.62869453
213	0xbda671aa	-0.081271484
214	0xbdd96a2c	-0.10615954
215	0x3f1dc002	0.61621106
216	0xbd53b712	-0.05168826
217	0xbea6e971	-0.32599977
218	0x3b98da9c	0.004664732
219	0xbe812625	-0.25224414
220	0xbeb0a9e2	-0.3450461
221	0x3e060ec6	0.13091573
222	0xbe96c609	-0.29447964
223	0xbd605d2c	-0.054776356
224	0xbedab105	-0.4271318
225	0x3ea2f521	0.31827644
226	0x3ec397f0	0.38201857
227	0x3e84b1e8	0.25916982
228	0x3ca7cff4	0.020484902
229	0xbe39658e	-0.18105146
230	0xbe0640fd	-0.13110729
231	0x3eb8ec0c	0.3611759
232	0x3edaf980	0.42768478
233	0x3f073bb0	0.5282545
234	0x3e5970cb	0.21234433
235	0xbe4469dc	-0.19181007
236	0x3d554203	0.052064907
237	0xbea3735d	-0.31923953
238	0xbf1ae16d	-0.6050022
239	0xbee6a298	-0.45045924
240	0xbdf46adf	-0.119344465
241	0xbd9a4e65	-0.07534484
242	0xbed691ff	-0.4190826
243	0xbd56acaf	-0.052410778
244	0xbe93ca81	-0.28865436
245	0xbeafb550	-0.34318018
246	0xbe895e1b	-0.2682961
247	0x3e1d90a4	0.15387207
248	0xbe2b2f81	-0.1671734
249	0x3e14de6e	0.14537975
250	0x3d88a658	0.066723526
251	0xbe4fc5b7	-0.20290266
252	0xbeac8770	-0.3369708
253	0xbcab4e3d	-0.02091133
254	0x3e1d1e47	0.15343581
255	0xbf2d3ec6	-0.6767391

shared.0.bias f4 [64]
0	0x3f1f415a	0.62209094
1	0xbed71470	-0.4200778
2	0xbee7c352	-0.45266205
3	0xbeed27ae	-0.46319336
4	0x3cd48bf7	0.025945647
5	0xbe079da3	-0.13243727
6	0x3e0cab37	0.13737188
7	0x3f2fe819	0.6871353
8	0xbf472c1c	-0.7780168
9	0x3f4e8c35	0.8068269
10	0xbdcccb51	-0.09999717
11	0xbf593509	-0.8484655
12	0x3ed5c89f	0.41754624
13	0x3efd090d	0.49420968
14	0x3ed00c3a	0.40634328
15	0xbe6c07f7	-0.23049913
16	0x3f0e9653	0.55698127
17	0xbe86052f	-0.2617583
18	0xbf01fbeb	-0.5077502
19	0xbd5e21bc	-0.05423139
20	0x3f622fcc	0.8835418
21	0x3f34c05f	0.70606035
22	0x3f43f905	0.7655185
23	0x3f30063e	0.68759525
24	0x3f4b7394	0.79473233
25	0xbdae7825	-0.085190095
26	0xbea93752	-0.3305002
27	0x3eeca45e	0.46219152
28	0xbc5f0357	-0.013611636
29	0xbdf2b771	-0.11851395
30	0x3e1179d2	0.14206627
31	0x3efa76bd	0.48918715
32	0x3f3fd4ac	0.74933887
33	0xbf03c85a	-0.5147759
34	0xbe81be8b	-0.25340685
35	0x3f0768b3	0.52894133
36	0xbe9ab1e1	-0.30213836
37	0xbed2dd99	-0.4118469
38	0x3f11ed15	0.57002383
39	0xbe553fc9	-0.20825113
40	0x3f4fc5a2	0.8116094
41	0x3f60db0b	0.87834233
42	0x3f11b6d8	0.5691962
43	0x3f35b7cc	0.70983577
44	0x3ec9738f	0.39345977
45	0xbe9f86bc	-0.31157482
46	0x3d5fa299	0.054598425
47	0x3edf78ad	0.43646756
48	0x3f17818b	0.5918204
49	0x3f415e0f	0.7553415
50	0xbdeb91da	-0.11502428
51	0xbe985011	-0.29748586
52	0x3e5de2d5	0.21668561
53	0x3cbeadf3	0.023276305
54	0x3f13bb49	0.5770765
55	0x3f3c4015	0.7353528
56	0x3f208e70	0.6271734
57	0x3f00cd65	0.5031341
58	0xbeb656a0	-0.35612965
59	0xbe5a5f48	-0.2132541
60	0xbe4143da	-0.1887354
61	0x3e0ce985	0.13760956
62	0x3ec16fff	0.3778076
63	0xbedf0d9f	-0.4356508

actor.0.weight f4 [64, 64]
0	0xbe1cdfc7	-0.1531974
1	0xbf4bd42e	-0.79620636
2	0xbe8f17bc	-0.27947795
3	0xbeed1a4e	-0.4630913
4	0x3e86294a	0.26203376
5	0xbdb15ffe	-0.08660887
6	0x3e716a16	0.23575625
7	0x3e06f3c1	0.13178922
8	0xbdc51fcd	-0.09625206
9	0xbc210795	-0.009828468
10	0xbe3fac77	-0.18718134
11	0xbe18be12	-0.14916256
12	0xbbe27f02	-0.006912113
13	0xbe3a05f0	-0.18166327
14	0x3da78846	0.08180289
15	0x3e201b7d	0.15635486
16	0x3d138602	0.03601647
17	0x3d1e0a1d	0.038583864
18	0x3e4c1f4d	0.19933815
19	0x3d9d46cf	0.07679521
20	0x3d9670e6	0.073457524
21	0xbd4e740d	-0.050403643
22	0x3d5d4f73	0.054030847
23	0x3c132eea	0.008983353
24	0xbdd134c1	-0.1021514
25	0xbcb4d265	-0.02207298
26	0xbee8f33a	-0.45498067
27	0x3dbee5a3	0.093211435
28	0xbd96de8e	-0.07366668
29	0xbc0c455e	-0.00856146
30	0xbd502434	-0.050815776
31	0x3e17f8c1	0.14840986
32	0x3d3a080d	0.045417834
33	0xbe0d1d2b	-0.13780658
34	0x3decab8e	0.11556159
35	0x3e46718a	0.19379249
36	0x3e26bb8d	0.16282482
37	0xbe070633	-0.13185959
38	0x3da69f05	0.08135799
39	0xbd8429a4	-0.06453255
40	0x3d187938	0.03722498
41	0xbd336aa5	-0.043802876
42	0x3c86173d	0.016368503
43	0x3d67cd80	0.056592464
44	0x3db39f9f	0.0877068
45	0xbe82a29e	-0.25514692
46	0xbcd215ca	-0.025645155
47	0x3d92ed5f	0.07174181
48	0x3d995d3e	0.07488488
49	0x3de11b12	0.109914914
50	0xbe629313	-0.22126417
51	0xbe70e4b8	-0.2352475
52	0xbda3be47	-0.07995277
53	0xbd473d7c	-0.04864262
54	0xbd6cd842	-0.057823427
55	0xbe249bcf	-0.16075061
56	0xbdcae283	-0.09906485
57	0xbdac59d6	-0.08415572
58	0x3d910306	0.07080655
59	0xbf0ab458	-0.5418143
60	0xbe9d7bcc	-0.30758512
61	0x3e0881ec	0.13330811
62	0x3db1c141	0.086794384
63	0xbe610dd4	-0.21977931
64	0xbd863d89	-0.06554706
65	0x3bcb239e	0.0061993143
66	0xbd1f75fe	-0.038930885
67	0xbd0533e7	-0.0325202
68	0xbcb540a7	-0.022125555
69	0xbd72c4d1	-0.05926973
70	0x3dba338b	0.09091862
71	0x3e4737d8	0.19454896
72	0x3e01bd31	0.12669827
73	0x3c653a47	0.013990945
74	0xbdab21a4	-0.08356026
75	0x3da9d557	0.082926445
76	0x3d88543d	0.06656692
77	0x3dc8c2f3	0.098028086
78	0xbd6f02df	-0.058352347
79	0x3d6bd8ad	0.057579685
80	0xbc65d94f	-0.014028861
81	0xbd8dbdad	-0.069209434
82	0xbdfcfa50	-0.12352431
83	0xbe93d090	-0.28870058
84	0x3c820abb	0.015874257
85	0xbe0a43ab	-0.13502376
86	0x3e06415f	0.13110875
87	0x3de6ac05	0.11263279
88	0xbcbcf178	-0.02306436
89	0x3c2bc0a6	0.010482943
90	0xbe2d8dee	-0.16948673
91	0xbd01f687	-0.031729247
92	0xbe161440	-0.14656162
93	0xbe165e18	-0.14684331
94	0xbd0a3b96	-0.03374823
95	0xbd57c616	-0.052679144
96	0x3dfeec2e	0.124473915
97	0x3e1a10d3	0.1504548
98	0xbcdc2039	-0.026870834
99	0xbe83c367	-0.25735018
100	0xbe90ae72	-0.2825809
101	0x3c493722	0.012281211
102	0x3e0775d3	0.1322854
103	0x3d8935ea	0.066997364
104	0xbe3649b6	-0.17801556
105	0xbdb00891	-0.08595384
106	0x3b185009	0.0023241064
107	0x3e126128	0.14294875
108	0xbd8cad7f	-0.06869029
109	0x3d0e341e	0.03471767
110	0xbe750402	-0.2392731
111	0xbd756e70	-0.059919775
112	0x3d541d4e	0.05178576
113	0xbde9dd50	-0.11419165
114	0xbdd426d2	-0.10358967
115	0xbe2caee7	-0.16863595
116	0xbe3bbe4a	-0.18334308
117	0xbdfc2751	-0.123121865
118	0xbc957d3d	-0.018248195
119	0xbdac4660	-0.084118605
120	0x3d95bf94	0.07311931
121	0xbe077e90	-0.13231874
122	0xbe25705a	-0.1615614
123	0x3de35687	0.11100488
124	0xbe922f4d	-0.28551713
125	0xbd02d583	-0.031941902
126	0xbe89eff8	-0.26940894
127	0xbd353a61	-0.044245128
128	0xbdda49e5	-0.106586255
129	0xbef72f9a	-0.48278505
130	0x3d162c55	0.036663372
131	0xbe62650b	-0.22108857
132	0xbd2833b9	-0.04106495
133	0x3da3afe1	0.079925306
134	0x3e7a7084	0.24456984
135	0x3de52267	0.11188202
136	0xbc40cac3	-0.011767092
137	0xbdfa0a2b	-0.12208971
138	0xbd2e0747	-0.04248741
139	0xbde5bdda	-0.11217852
140	0xbb9255ae	-0.00446578
141	0x3b157aaf	0.002280872
142	0x3cadd271	0.02121851
143	0x3e465448	0.19368088
144	0x3cbddc1a	0.023176242
145	0xbda7b019	-0.08187885
146	0x3cfd16d8	0.030894682
147	0x3e37f48f	0.17964385
148	0xbd23ed01	-0.040020946
149	0xbdbbe18e	-0.091738805
150	0xbe1f1dfd	-0.15538783
151	0x3d97fd5c	0.07421371
152	0x3dae7d64	0.0852001
153	0xbd0489c3	-0.032357942
154	0xbeae640c	-0.34060705
155	0x3c90329e	0.017602261
156	0x3c7d8d98	0.015475653
157	0xbe0c071b	-0.13674586
158	0xbd64d46e	-0.05586665
159	0x3e262db3	0.1622837
160	0x3def6f3c	0.11691138
161	0x3ca6e939	0.020374881
162	0xbdba2968	-0.09089929
163	0x3e50c090	0.20385957
164	0x3cc9ecff	0.024649141
165	0xbe87bbf1	-0.26510575
166	0xbcb087ef	-0.021549193
167	0xbc0cdda7	-0.008597768
168	0x3e1c57ae	0.15267822
169	0xbcf73a1e	-0.03017908
170	0xbd360ede	-0.044447772
171	0x3e2ba84a	0.16763416
172	0xbd752049	-0.059845243
173	0x3e1366e1	0.14394714
174	0xbe344e69	-0.17608036
175	0xbe02c9aa	-0.12772241
176	0xbdaa3229	-0.083103485
177	0xbd384ae5	-0.0449933
178	0xbe24887e	-0.16067693
179	0x3c4b8b92	0.012423413
180	0xbc5af242	-0.013363423
181	0x3dd35a3a	0.10319944
182	0x3c5db636	0.013532212
183	0x3c9c2b98	0.019063756
184	0x3dc2d0bf	0.095124714
185	0x3e095261	0.13410331
186	0x3d1e027e	0.038576595
187	0xbcacc51d	-0.021090085
188	0xbdb92261	-0.090397604
189	0xbc4483b0	-0.011994287
190	0xbda997ac	-0.08280882
191	0xbed1f041	-0.41003612
192	0x3c88fde9	0.016722636
193	0x3d285b4f	0.041102704
194	0x3dcb4515	0.09925286
195	0x3dfbf14b	0.12301882
196	0xbccc1fcc	-0.024917506
197	0x3c0ee1da	0.008720839
198	0xbd6a3af0	-0.057185113
199	0x3c46b2d6	0.012127599
200	0xbd5bef1a	-0.053694822
201	0xbdac3a14	-0.08409515
202	0x3dcd2770	0.10017288
203	0x3d8ac05b	0.0677497
204	0x3dd21863	0.10258558
205	0x3d13334d	0.035937596
206	0x3d280b11	0.04102618
207	0xbbb98104	-0.005661132
208	0xbd89de63	-0.0673187
209	0x3e2b939d	0.16755529
210	0xbda1dc44	-0.079033405
211	0x3e10e367	0.14149247
212	0x3d0715dc	0.03297983
213	0xbcb21f98	-0.02174358
214	0xbcb03792	-0.021510873
215	0xbd9afe52	-0.07568039
216	0xbdf9d6b3	-0.12199154
217	0x3d433396	0.047656618
218	0x3e87589b	0.26434788
219	0xbe15acc8	-0.14616692
220	0x3dd960d2	0.1061417
221	0x3e4cf67c	0.20015901
222	0x3d647903	0.05577947
223	0x3dbea48a	0.09308727
224	0xbdd9c164	-0.106325895
225	0xbd17f846	-0.037102006
226	0x3e35b039	0.17743005
227	0x3e2dc3ab	0.16969173
228	0xbd7869e7	-0.06064787
229	0xbe1a0651	-0.15041472
230	0xbd1addc9	-0.037809167
231	0x3e603097	0.21893536
232	0xbcb1e34a	-0.021714825
233	0xbe3f51c7	-0.1868354
234	0x3e0002b8	0.12501037
235	0xbdda1b89	-0.10649783
236	0x3de6476a	0.1124409
237	0xbb45b681	-0.0030168595
238	0x3ddd1d70	0.107966304
239	0x3e57eac0	0.21085644
240	0x3b390e0c	0.0028237132
241	0x3c8ccd63	0.01718778
242	0x3e69a6c5	0.22817524
243	0xbdeeefd3	-0.116668366
244	0x3de9862f	0.114025466
245	0x3e01ebb6	0.12687573
246	0x3dc1b388	0.09458071
247	0x3e0665ab	0.13124721
248	0xbb08b9bf	-0.0020862666
249	0x3e1d3b0c	0.15354556
250	0xbc1ba9e3	-0.009500953
251	0xbe84e949	-0.25959232
252	0xbdf1bce3	-0.118036054
253	0x3e407f4c	0.1879856
254	0x3e10024c	0.14063376
255	0xbec8d39a	-0.3922394

actor.0.bias f4 [64]
0	0xbcabb373	-0.020959591
1	0xbdc867b1	-0.097854026
2	0x3c5507ee	0.013002379
3	0xbdb46bd9	-0.08809633
4	0xbd4ff972	-0.050775
5	0x3dd3effb	0.10348507
6	0x3e15bcc9	0.14622797
7	0xbb2432cd	-0.0025054694
8	0xbdb88d88	-0.0901137
9	0xbcc6af22	-0.024253432
10	0x3c3f2195	0.011665721
11	0xbd82795d	-0.063708045
12	0x3de7b9b3	0.11314716
13	0xbd624c59	-0.055248592
14	0x3d99dc0c	0.07512674
15	0x3c199d4c	0.009375881
16	0xba82b263	-0.0009971376
17	0x3da0f91f	0.07860016
18	0x3d411b5a	0.047145225
19	0x3d1ead4f	0.0387395
20	0xbe06a701	-0.13149644
21	0xbcc09b97	-0.023511691
22	0x3cff6077	0.031173928
23	0x3dc4ea44	0.09614995
24	0x3904f720	0.00012680562
25	0xbd08e092	-0.033417292
26	0xbd8644f7	-0.06556123
27	0x3e32a887	0.174471
28	0x3e163d67	0.1467186
29	0x3e166fa8	0.14691031
30	0xbd272386	-0.040805362
31	0x3da4f1cc	0.080539316
32	0x3d3ebb23	0.046565186
33	0x3dd3d2df	0.10342955
34	0x3d8e9f77	0.06964009
35	0xbd823cdc	-0.06359264
36	0x3bc1769e	0.005904033
37	0x3dd4748d	0.10373793
38	0x3c04f849	0.008115836
39	0x3d9b80a8	0.075928986
40	0x3e27955a	0.16365567
41	0x3d6c1d8d	0.05764537
42	0x3b27536b	0.0025531899
43	0xbc9d7fba	-0.019225944
44	0xbdaa5159	-0.08316297
45	0x3dbfb902	0.09361459
46	0xbc3e5f08	-0.011619337
47	0x3dc6eaab	0.09712728
48	0x3d72f13a	0.059312083
49	0x3c9bdcdd	0.019026214
50	0xbc8bb78d	-0.017055297
51	0x3ccd4739	0.025058376
52	0x3e26c67e	0.16286656
53	0x3d48808c	0.048950717
54	0xbd1fea79	-0.03904197
55	0x3ce329a1	0.027729811
56	0x3ba670db	0.0050793714
57	0xbdbec9fa	-0.09315868
58	0x3db1aef1	0.086759456
59	0x3d93c6a6	0.072156236
60	0xbd78c411	-0.06073386
61	0xbb3bb5b2	-0.0028642234
62	0xbd60fb57	-0.054927196
63	0x3e3982c1	0.18116285

actor.2.weight f4 [3, 64]
0	0x3cc1b6d9	0.023646759
1	0x3d3c59b8	0.045984
2	0xbd960fcc	-0.07327232
3	0xbdb1371f	-0.08653092
4	0x3cb9ebbf	0.02269542
5	0x3decdf9b	0.11566087
6	0xbdb65a74	-0.08903971
7	0xbd63317f	-0.055467125
8	0xbd8324b3	-0.06403484
9	0xbe0e65e2	-0.13906053
10	0xbe178a3f	-0.1479883
11	0xbc81b713	-0.015834367
12	0xbd8c212e	-0.06842266
13	0xbde54708	-0.11195189
14	0x3d22ecc7	0.03977659
15	0xbd8973ff	-0.067115776
16	0xbe6fb437	-0.2340859
17	0xbddd7a24	-0.10814312
18	0xbde435b8	-0.111430585
19	0xbe025b99	-0.12730254
20	0x3d313fd7	0.043273773
21	0xbd74124b	-0.059587758
22	0x3c71c817	0.014757178
23	0xbd52baab	-0.05144755
24	0x3e36cca9	0.17851509
25	0xbdfccb62	-0.1234348
26	0xbcdaf315	-0.026727239
27	0x3e058adc	0.13041252
28	0x3e02a8ef	0.12759756
29	0x3dcb9251	0.09940017
30	0x3c9e1ba0	0.019300282
31	0x3ca858bd	0.020550126
32	0xbc180cfa	-0.009280438
33	0xbb8ce32b	-0.0042995415
34	0x3c04500b	0.008075724
35	0x3e46ca21	0.19413044
36	0xbe00d9ac	-0.12583035
37	0xbda72a73	-0.081623934
38	0x3d5a1193	0.053239416
39	0x3d239f30	0.039946735
40	0xbe37553d	-0.1790361
41	0xbd205ef3	-0.03915305
42	0xbe92838d	-0.2861599
43	0xbd936c20	-0.071983576
44	0xbcf5ecd8	-0.030020162
45	0x3e0aa49c	0.13539356
46	0xbd12e16e	-0.035859518
47	0x3e2588b3	0.16165428
48	0x3db0fca1	0.08641935
49	0x3df959a3	0.121753
50	0xbe8fb194	-0.2806517
51	0xbb5bd9d1	-0.0033546577
52	0x3c5c46e1	0.013444633
53	0x3e079ec8	0.13244164
54	0xbd0c7159	-0.034287784
55	0xbd99b6de	-0.07505582
56	0xbde3770d	-0.111066915
57	0xbe5efbde	-0.21775767
58	0xbe1cea9a	-0.15323868
59	0x3e04cc06	0.12968454
60	0x3b0fcfaf	0.0021943857
61	0x3e9ccbea	0.30624324
62	0xbe8c4121	-0.2739344
63	0xbdf20d35	-0.11818925
64	0x3ed75511	0.42057088
65	0xbe0dcb97	-0.13847195
66	0x3e68b461	0.22725059
67	0xbe0a9435	-0.13533099
68	0x3ee414b0	0.44547033
69	0xbf11cfd2	-0.56957734
70	0xbe98d50b	-0.2985004
71	0xbe09bd41	-0.13451101
72	0xbed32b86	-0.41244143
73	0xbe5d4046	-0.2160655
74	0x3e8f1c4d	0.2795128
75	0xbeb4aac2	-0.35286528
76	0x3e3ec530	0.18629909
77	0x3e8bdbea	0.2731622
78	0xbeca6242	-0.3952809
79	0x3ec9bb69	0.39400795
80	0xbe54b385	-0.20771606
81	0x3eaf92a2	0.3429156
82	0x3e5db6c0	0.21651745
83	0xbe905617	-0.2819068
84	0xbd4c8cc5	-0.049938936
85	0x3e1f7dd7	0.15575348
86	0xbeb1b2c9	-0.34706715
87	0xbedfe569	-0.43729714
88	0x3e4954fb	0.19661324
89	0xbde1aa12	-0.110187665
90	0x3eb5d582	0.35514456
91	0x3e645a19	0.22299995
92	0x3e8fdb81	0.28097156
93	0x3e3ea5a5	0.18617876
94	0xbe219dee	-0.15782902
95	0xbe82b418	-0.25528026
96	0x3ec5c64e	0.38627857
97	0x3ea863c8	0.32888627
98	0xbe865bc3	-0.26241884
99	0xbd3d1480	-0.04616213
100	0xbf00fb67	-0.5038361
101	0x3b69610d	0.0035610825
102	0x3ee4ed37	0.4471223
103	0xbe0514cb	-0.12996213
104	0xbdf0c457	-0.11756199
105	0x3e3d0e50	0.18462491
106	0xbe241b59	-0.16026057
107	0x3e862dd5	0.26206842
108	0x3e8ee521	0.27909186
109	0x3ea6d2cc	0.325827
110	0x3eaabe27	0.333482
111	0xbf2a4f2a	-0.66527045
112	0xbd3600e8	-0.044434458
113	0x3d111058	0.035415977
114	0x3e35bccb	0.177478
115	0xbe94066e	-0.28911155
116	0x3e59e099	0.21277083
117	0xbf0c4905	-0.5479892
118	0xbda34b39	-0.07973332
119	0xbe6470b7	-0.22308622
120	0x3ea78dcd	0.32725373
121	0x3ed1211f	0.40845582
122	0xbc6058dc	-0.013693061
123	0xbe8f33b1	-0.27969125
124	0xbd1300d5	-0.035889465
125	0xbf141b15	-0.57853824
126	0xbe8e398d	-0.27778283
127	0x3edfbb20	0.43697453
128	0xbed16efe	-0.40904993
129	0x3e3ee836	0.18643269
130	0xbe34a9c8	-0.17642891
131	0x3e55ae8e	0.20867369
132	0xbe4ccb28	-0.19999373
133	0x3f00f69f	0.50376314
134	0x3ec4bdaa	0.38425952
135	0x3e532fd2	0.20623711
136	0x3eb2e2b9	0.349386
137	0x3ea4979d	0.32146922
138	0xbedd2281	-0.43190387
139	0x3ef72f3f	0.48278233
140	0xbe793b18	-0.24338949
141	0xbe1ba650	-0.15200162
142	0x3f0b978e	0.5452813
143	0xbe60005b	-0.21875136
144	0x3ec73524	0.3890773
145	0xbea25f8e	-0.31713527
146	0xbe0f36ff	-0.13985823
147	0x3ec676fe	0.3876266
148	0xbd819dba	-0.06328912
149	0x3dcbeebd	0.09957645
150	0x3f06875b	0.52550286
151	0x3f09c55a	0.5381676
152	0xbe9e832a	-0.30959445
153	0x3de8c074	0.113648325
154	0xbed4ec7e	-0.4158668
155	0xbf02ea07	-0.5113835
156	0xbeb189a9	-0.3467534
157	0xbedbc4ea	-0.4292367
158	0x3e92b9f1	0.28657487
159	0x3e89efbc	0.26940715
160	0xbea962f8	-0.3308332
161	0xbe9d0f4f	-0.30675742
162	0x3ea22ced	0.316749
163	0xbd98fd30	-0.07470167
164	0x3f14afdc	0.5808084
165	0x3e6792e9	0.22614636
166	0xbeb54ef5	-0.35411802
167	0xbdb75cd5	-0.08953253
168	0x3eac8921	0.3369837
169	0xbe378072	-0.17920092
170	0x3eaac01c	0.33349693
171	0xbeb3c1ed	-0.3510889
172	0xbdd3fb76	-0.10350697
173	0xbe8fb516	-0.28067845
174	0xbeb84a43	-0.35994157
175	0x3f34e414	0.7066052
176	0xbdc6a8f5	-0.09700195
177	0xbe00ef49	-0.1259128
178	0xbd3c4512	-0.045964308
179	0x3ec41ddd	0.38304034
180	0xbd78dcec	-0.060757563
181	0x3f1b55f9	0.6067806
182	0x3e5d04a5	0.21583803
183	0x3ec60c32	0.3868118
184	0xbe91ded3	-0.28490314
185	0xbe6d27b0	-0.23159671
186	0x3d613e84	0.05499126
187	0x3ea1432d	0.31496564
188	0xbd2f10c9	-0.042740617
189	0x3ec2c617	0.38041756
190	0x3ea3658c	0.31913412
191	0xbe96b54d	-0.29435197

actor.2.bias f4 [3]
0	0x3d726fc8	0.059188634
1	0x3da95ea5	0.08270005
2	0x3da3fbfd	0.08007047

critic.0.weight f4 [64, 64]
0	0x3e2cd7f7	0.16879259
1	0xbe656f91	-0.2240584
2	0x3c0dd835	0.008657505
3	0xbe72cb14	-0.2371028
4	0xbe02ed37	-0.12785803
5	0x3e701d21	0.23448612
6	0x3e6c15d5	0.23055203
7	0x3d871691	0.06596101
8	0xbe932eda	-0.28746682
9	0x3ea307c8	0.31841874
10	0x3ca484f3	0.020082926
11	0xbe8fa702	-0.28057104
12	0x3e2c0dc3	0.16802125
13	0x3ecc809f	0.3994188
14	0x3d098883	0.033577453
15	0x3e245b7d	0.16050525
16	0x3cadcb78	0.021215186
17	0x3dd84e78	0.10561842
18	0xbf04818c	-0.5176017
19	0xbd131a25	-0.035913605
20	0x3e9dcf5f	0.30822274
21	0x3ec0d55d	0.37662783
22	0x3dd94232	0.10608329
23	0x3e2f2dd5	0.17107327
24	0x3ea3729e	0.31923383
25	0x3e1156df	0.14193295
26	0x3f0dad16	0.55342233
27	0x3e879dbb	0.26487526
28	0x3e2006f7	0.15627657
29	0x3e5b2d91	0.21404101
30	0x3e30e940	0.17276478
31	0x3e800263	0.2500182
32	0x3ec503af	0.38479373
33	0xbe1424db	-0.14467184
34	0x3d842487	0.064522795
35	0x3df2d42e	0.11856876
36	0xbc098b97	-0.008395097
37	0xbe126fb1	-0.1430042
38	0x3e0e1ef3	0.13878994
39	0x3d91dd1e	0.07122253
40	0x3e4e4ac6	0.20145711
41	0x3e8f772e	0.28020614
42	0x3dc10162	0.09424092
43	0x3e4f387c	0.20236391
44	0x3ea4a08d	0.3215374
45	0x3d0440c4	0.032288328
46	0xbc57c19d	-0.01316872
47	0x3de4c894	0.1117107
48	0x3e61e38b	0.22059457
49	0x3d70a984	0.058755413
50	0xbeab669f	-0.3347673
51	0xbd7b3c8c	-0.06133704
52	0x3e1e2773	0.15444736
53	0x3d8e9eec	0.06963906
54	0x3d5f1388	0.054461986
55	0x3e4a1f52	0.1973851
56	0x3ebbe891	0.36700872
57	0x3eca192b	0.39472327
58	0xbcab22bf	-0.020890592
59	0xbdb43e02	-0.088008896
60	0x3ef5d79c	0.4801606
61	0x3e914280	0.28371048
62	0x3e43315a	0.19061795
63	0xbe03b195	-0.12860711
64	0xba921f61	-0.0011148268
65	0xbf072036	-0.52783525
66	0xbee4ba8a	-0.44673568
67	0xbf295b88	-0.6615529
68	0xbe991b84	-0.29903805
69	0x3d854c23	0.065086626
70	0x3e71682e	0.23574898
71	0x3d0abdec	0.03387253
72	0xbf116175	-0.5678933
73	0x3e8089ca	0.25105125
74	0xbdf0f0f3	-0.117647074
75	0xbf260128	-0.64845514
76	0x3e7c2153	0.24622087
77	0x3ea1731d	0.31533137
78	0x3d5b0f72	0.053481527
79	0x3e4a8480	0.19777107
80	0x3e07901b	0.13238566
81	0x3e6126c7	0.21987449
82	0xbf0a8cfe	-0.54121387
83	0x3abdc2ec	0.0014477647
84	0x3eaa1d3f	0.33225438
85	0x3e62f734	0.22164613
86	0x3e9f3134	0.31092227
87	0x3e1a1e3a	0.15050593
88	0x3e9fe076	0.31225938
89	0x3e8c7aab	0.27437338
90	0x3f1b85a4	0.60750794
91	0x3e0f7e12	0.14012936
92	0x3de5a8d8	0.11213845
93	0x3e2d3e10	0.16918206
94	0x3df9fef0	0.122068286
95	0x3e71abc3	0.23600678
96	0x3ef3b664	0.4760009
97	0xbeb69d11	-0.35666707
98	0x3d890f9e	0.06692432
99	0x3d28cc08	0.041210204
100	0x3d908751	0.070570596
101	0xbef4e569	-0.47831276
102	0x3e163bd9	0.14671268
103	0xbed4beaa	-0.41551715
104	0x3ebdffd6	0.3710925
105	0x3e8f7331	0.28017572
106	0x3d918870	0.071061015
107	0x3d691a9d	0.056910146
108	0x3e9eefbc	0.31042278
109	0xbe1f86bf	-0.15578745
110	0xbd352f87	-0.04423478
111	0x3c9a4a38	0.018834218
112	0x3ed8c916	0.42340916
113	0x3d12f9fc	0.035882935
114	0xbe9b319c	-0.30311286
115	0xbe90dd97	-0.2829406
116	0x3d320dfa	0.04347036
117	0xbd35c3f7	-0.04437634
118	0x3e7e9faa	0.24865595
119	0x3eb1bde4	0.34715188
120	0x3df263d8	0.1183545
121	0x3eed93e4	0.46401894
122	0xbda8ea2d	-0.082477905
123	0xbec94afb	-0.39315018
124	0x3edc8197	0.4306762
125	0x3e696744	0.22793299
126	0x3eb3a221	0.35084632
127	0xbe9ad925	-0.30243793
128	0x3e8416bb	0.25798592
129	0xbf19bb40	-0.60051346
130	0xbef5546b	-0.47915968
131	0xbf09ecba	-0.5387684
132	0xbe65644f	-0.22401546
133	0x3df396d8	0.118940055
134	0x3d98358c	0.07432088
135	0x3e5b314a	0.21405521
136	0xbef13907	-0.4711382
137	0x3ecf3b5a	0.4047497
138	0xbe4aada7	-0.19792806
139	0xbf1c8481	-0.61139685
140	0x3eb44ee2	0.35216433
141	0x3e7c9d9b	0.24669497
142	0xbd16b0ac	-0.03678958
143	0x3e725bae	0.23667786
144	0x3d64c900	0.05585575
145	0x3e77fcab	0.24217479
146	0xbf040bd0	-0.51580524
147	0xbd39910c	-0.045304343
148	0x3ed1e91c	0.4099816
149	0x3ecba7c0	0.3977642
150	0x3e599396	0.21247706
151	0x3e689c27	0.22715817
152	0x3e9a2784	0.30108273
153	0x3e967953	0.29389438
154	0x3f2330a8	0.6374612
155	0x3dd1e279	0.10248274
156	0x3e475abc	0.19468206
157	0x3e5adef2	0.2137411
158	0x3e8484c1	0.25882533
159	0x3e904d70	0.2818408
160	0x3ef8d88f	0.4860272
161	0xbee519e0	-0.44746304
162	0x3e14b396	0.14521632
163	0x3d8571ed	0.0651587
164	0x3d5cc425	0.053897996
165	0xbec28c9c	-0.379979
166	0x3e111e5f	0.14171742
167	0xbee159e7	-0.44013903
168	0x3eb813ae	0.35952514
169	0x3e2f34a1	0.1710992
170	0x3e711ac8	0.23545372
171	0x3d5a02b0	0.05322522
172	0x3e313655	0.17305882
173	0xbe849e69	-0.25902107
174	0x3dc368e4	0.09541491
175	0x3e164150	0.14673352
176	0x3ef5863e	0.4795398
177	0x3e28b5f5	0.16475661
178	0xbe54e55e	-0.20790622
179	0xbda12035	-0.07867471
180	0x3e8d6ff6	0.27624482
181	0x3e487504	0.19575888
182	0x3e010342	0.12598899
183	0x3e5a86d0	0.2134049
184	0x3eae1882	0.34003073
185	0x3f008b2f	0.5021238
186	0xbd498af0	-0.049204767
187	0xbedd258a	-0.43192703
188	0x3e8a35d2	0.26994187
189	0x3dc2a175	0.09503452
190	0x3ea47951	0.32123807
191	0xbead6970	-0.33869505
192	0x3de53593	0.11191859
193	0x3e818ba9	0.25301865
194	0x3e56dda5	0.20982988
195	0x3e6f97f4	0.2339781
196	0x3d8ce038	0.06878704
197	0x3e0940e5	0.13403662
198	0x3e5122fd	0.20423503
199	0xbe65175c	-0.22372192
200	0x3e9c7903	0.30561075
201	0x3e3baa0d	0.18326588
202	0x3dceb18c	0.10092458
203	0x3eae25df	0.34013268
204	0xbe533abb	-0.20627873
205	0xbbe4703f	-0.0069713886
206	0x3e231206	0.15924844
207	0x3df6785e	0.12034677
208	0xbe781fba	-0.24230853
209	0x3ee1cadd	0.44100085
210	0xbd99951c	-0.074991435
211	0x3e260c98	0.16215742
212	0xbe9473d8	-0.28994632
213	0x3c15a488	0.009133466
214	0xbe5f03b4	-0.21778756
215	0xbe46d02a	-0.19415346
216	0xbea2c2cc	-0.31789243
217	0x3ecf10bc	0.40442455
218	0x3ef98a58	0.4873836
219	0xbdc629cb	-0.0967594
220	0x3e89be50	0.2690301
221	0x3e8303b1	0.25588754
222	0x3d8a57b2	0.06755008
223	0xbe679c37	-0.22618185
224	0xbe351a0a	-0.17685714
225	0x3e9e4e28	0.30919003
226	0x3e89d15a	0.26917535
227	0xbddcf379	-0.10788626
228	0x3e1162af	0.14197801
229	0x3e899803	0.26873788
230	0xbe94b2af	-0.29042575
231	0x3e8d5f27	0.27611658
232	0xbe45ce0f	-0.19316886
233	0xbe0d74c4	-0.13814074
234	0xbdabb04c	-0.08383235
235	0xbeb466d0	-0.3523469
236	0x3e107d46	0.14110288
237	0x3e97d6b9	0.29656008
238	0x3e368a80	0.17826271
239	0x3d161e8c	0.036650226
240	0xbdbeb400	-0.09311676
241	0x3dafaf67	0.08578377
242	0x3e348214	0.17627746
243	0x3e1574cb	0.14595334
244	0x3ac2157d	0.0014807429
245	0x3db799d3	0.089648865
246	0xbe7e1085	-0.24810989
247	0x3cdb46fa	0.026767243
248	0xbdf4d497	-0.11954611
249	0xbdab456a	-0.08362849
250	0x3eef1f7d	0.4670371
251	0x3d8e4f32	0.06948699
252	0x3e684238	0.2268151
253	0x3d85740a	0.06516273
254	0xbd9025f7	-0.07038491
255	0x3e289df4	0.16466504

critic.0.bias f4 [64]
0	0x3eee3da6	0.4653141
1	0x3ebfa0cc	0.37427366
2	0x3ece2994	0.40266097
3	0xbdb980db	-0.0905778
4	0x3d9480a4	0.07251099
5	0x3eeb67a6	0.45977515
6	0x3ece0401	0.4023743
7	0x3e9000e8	0.2812569
8	0x3cec8bb6	0.028875213
9	0xbe5127c2	-0.20425323
10	0x3e8ff046	0.28113002
11	0x3ee411f5	0.4454495
12	0x3e8ec119	0.27881697
13	0x3edddf45	0.43334404
14	0xbe9da845	-0.30792442
15	0x3eaccf47	0.3375189
16	0x3e8d823d	0.27638426
17	0xbdf60b38	-0.120138586
18	0x3ec9b147	0.39393064
19	0x3ef26481	0.47342303
20	0x3edecff7	0.4351804
21	0xbd902918	-0.07039088
22	0x3eb3df40	0.35131264
23	0x3ee47c3d	0.44626036
24	0x3e91ad7a	0.28452665
25	0x3e782d48	0.24236023
26	0x3ea66cc2	0.3250485
27	0x3e93341d	0.28750697
28	0x3ec2ddbb	0.38059792
29	0x3f03cec3	0.5148737
30	0x3edfee38	0.43736434
31	0xbe59c7c1	-0.21267606
32	0x3d277ea7	0.04089227
33	0x3eea6066	0.4577667
34	0xbcc4c93e	-0.024021741
35	0x3e99bab9	0.3002527
36	0xbba9387b	-0.0051642037
37	0xbe818051	-0.2529321
38	0x3ee1f0b7	0.44128963
39	0xbd7bfa39	-0.061517928
40	0x3ed8880f	0.42291304
41	0xbd30960b	-0.043111842
42	0x3cf697ba	0.030101646
43	0x3ed588d1	0.41705945
44	0x3eacbd65	0.33738247
45	0xbe2931c7	-0.16522895
46	0xbe1e889a	-0.15481797
47	0x3e991f2f	0.29906604
48	0xbdccc808	-0.099990904
49	0x3e8473c1	0.25869563
50	0xbd2e8afb	-0.04261301
51	0x3ea49363	0.32143697
52	0x3d13b3e2	0.03606022
53	0x3ec86637	0.39140484
54	0x3ecfa420	0.40554905
55	0x3e89213c	0.26783168
56	0xbe0035f0	-0.12520576
57	0x3c9ea3ec	0.019365273
58	0xbc54a285	-0.012978201
59	0x3ede9554	0.43473303
60	0x3ecd53c0	0.4010296
61	0x3eb8004b	0.35937724
62	0xbdaa36b5	-0.08311216
63	0x3e95ee20	0.29283237

critic.2.weight f4 [1, 64]
0	0x3ec4f9d8	0.38471866
1	0x3efcdb46	0.49386042
2	0x3ebe0365	0.37111965
3	0xbed2c0b9	-0.4116266
4	0xbf82bb75	-1.0213457
5	0x3ebb9bd8	0.36642337
6	0x3ef2c3bc	0.47414958
7	0x3e93de4b	0.28880534
8	0xbf04633d	-0.51713926
9	0xbef3457b	-0.47513947
10	0x3e9234f0	0.28556013
11	0x3eb28eb1	0.3487449
12	0x3e95a1f0	0.2922511
13	0x3e92ba01	0.28657535
14	0xbef62c10	-0.48080492
15	0x3eb87963	0.3603011
16	0x3ec40137	0.38282177
17	0xbf015935	-0.50526744
18	0x3ec209e1	0.37898162
19	0x3ed04b0c	0.40682256
20	0x3e8d5304	0.27602398
21	0xbc91f420	-0.017816603
22	0x3ef5898e	0.47956508
23	0x3f0042c6	0.5010189
24	0x3ec8499c	0.3911866
25	0x3ee940b3	0.45557174
26	0x3ed086e2	0.40727907
27	0x3ee11882	0.4396401
28	0x3e8fe672	0.28105503
29	0x3e94d425	0.29068103
30	0x3ec1d1bb	0.37855324
31	0xbf0824a5	-0.53180915
32	0xbf8be7f6	-1.0930164
33	0x3eae7367	0.3407242
34	0xbc8e0d94	-0.017340459
35	0x3ee9de17	0.45677254
36	0xbf0910f5	-0.535415
37	0xbeba0192	-0.36329323
38	0x3e94f7b8	0.29095244
39	0xbefd723d	-0.4950122
40	0x3eb751a6	0.3580448
41	0xbf01d487	-0.50714916
42	0xbdc28596	-0.09498136
43	0x3e91718e	0.28406948
44	0x3ecf115b	0.4044293
45	0xbf1543ca	-0.5830656
46	0xbf030cb7	-0.51191276
47	0x3ec85a95	0.3913161
48	0x3dbfb6d0	0.093610406
49	0x3efd6c1b	0.4949654
50	0xbc92abc0	-0.017904162
51	0x3ed3ca3e	0.41365236
52	0xbe6dde34	-0.23229295
53	0x3efbd880	0.49188614
54	0x3ed7cf73	0.4215046
55	0x3e9e30cd	0.30896607
56	0xbed50898	-0.4160812
57	0x3d9ec302	0.077520385
58	0xbeec2ccd	-0.4612793
59	0x3eb998af	0.362493
60	0x3ead667c	0.33867252
61	0x3ec46d07	0.3836443
62	0xbee5c18e	-0.44874233
63	0x3ee61695	0.44939104
