models/ppo_trading_model_jnj.pt (torch, 40444 bytes, 9 tensors)

shared.0.weight f4 [64, 7]
0	0x3dfb86c9	0.122815676
1	0x3f07bc79	0.5302196
2	0x3d4b39b3	0.049615573
3	0x3e142fe6	0.14471397
4	0xbde9c3a0	-0.11414266
5	0x3d9393da	0.07205935
6	0x3c0f46cd	0.008744908
7	0x3e97a2d0	0.29616404
8	0xbcdaf073	-0.026725983
9	0xbee86416	-0.4538886
10	0x3ecf26b3	0.40459213
11	0x3e94bf10	0.2905202
12	0x3e8a4237	0.27003643
13	0x3e743d39	0.2385148
14	0x3ec06c4d	0.37582627
15	0xbe07b69d	-0.13253255
16	0x3f511e35	0.8168672
17	0x3d159d9f	0.036527272
18	0xbec01266	-0.37514037
19	0xbda521a4	-0.08063057
20	0xba0ff322	-0.00054912467
21	0x3e0101ad	0.12598296
22	0xbea57d29	-0.32322052
23	0x3f8056f8	1.0026541
24	0xbea7a2b5	-0.32741323
25	0xbeb18c5a	-0.34677392
26	0xbe371f60	-0.17883062
27	0xbdd534eb	-0.10410484
28	0x3e6d379e	0.23165748
29	0xbf058e0b	-0.52169865
30	0x3f4d920d	0.8030098
31	0xbeab1730	-0.33416128
32	0x3e9e74c6	0.30948466
33	0x3e36156c	0.1778161
34	0x3de599d0	0.11210978
35	0x3eca1624	0.39470017
36	0x3ed7bf31	0.42138055
37	0x3f26f1a1	0.65212446
38	0x3e813579	0.2523611
39	0xbc0c2ee2	-0.0085561
40	0x3d072473	0.032993745
41	0x3e0cc0a9	0.13745369
42	0xbe34c4af	-0.17653154
43	0x3eea18c7	0.4572203
44	0x3f720dc0	0.9455223
45	0xbe991647	-0.2989981
46	0x3e374a12	0.1789935
47	0xbeae3cd8	-0.34030795
48	0x3e099361	0.13435127
49	0xbea9bd5b	-0.3315228
50	0xbecdc971	-0.4019275
51	0xbe66784e	-0.2250683
52	0xbef14b0d	-0.47127572
53	0x3e9d1bb2	0.30685192
54	0x3dbe258b	0.092845045
55	0x3e0d0681	0.13772012
56	0x3e52dbc1	0.20591642
57	0xbdecf833	-0.11570778
58	0x3f358c50	0.70917225
59	0xbea94024	-0.33056748
60	0xbe5e0012	-0.21679714
61	0xbea5f9ef	-0.32417247
62	0xbdd488ff	-0.103776924
63	0x3d2d228d	0.04226928
64	0x3f06c980	0.52651215
65	0x3e35bee2	0.17748597
66	0x3e94f87a	0.29095823
67	0xbe8f5974	-0.27997935
68	0xbea43c39	-0.32077196
69	0xbea3390c	-0.3187946
70	0x3f01feb6	0.50779283
71	0xbe194066	-0.14965972
72	0x3f08ea03	0.53482074
73	0xbe47072f	-0.19436334
74	0xbf2f0b2a	-0.6837641
75	0xbe53910c	-0.206608
76	0xbe9772e0	-0.2957983
77	0x3eb2a823	0.34893903
78	0x3dc46973	0.09590425
79	0x3f3b1c63	0.7309019
80	0xbe8f09f1	-0.27937272
81	0xbf046f75	-0.5173257
82	0x3eb52bca	0.3538497
83	0xbdc29f73	-0.09503069
84	0x3e876c10	0.26449633
85	0xbe85c4ea	-0.26126796
86	0x3ebb35d0	0.36564493
87	0xbe6392fc	-0.22224039
88	0xbebcaed9	-0.36852148
89	0xbcf56863	-0.029957002
90	0xbc2e45e1	-0.010636778
91	0xbc6549e6	-0.01399467
92	0x3ef74e6c	0.4830202
93	0x3edb0686	0.42778414
94	0xbeab789b	-0.33490452
95	0xbe86df80	-0.26342392
96	0x3ed16b87	0.4090235
97	0xbe101f33	-0.14074402
98	0xbe4bcfd0	-0.19903493
99	0xbeeadd03	-0.45871744
100	0xbe909c9a	-0.28244478
101	0x3d193287	0.037401702
102	0x3d5f52b1	0.05452222
103	0xbe06f732	-0.13180235
104	0x3d082c18	0.033245176
105	0xbeab5b43	-0.33468065
106	0xbeaccbdb	-0.3374928
107	0xbe60c4bc	-0.21950048
108	0xbf31b822	-0.6942159
109	0xbe9c98e1	-0.30585387
110	0x3ed73fae	0.4204077
111	0xbd2840cb	-0.041077416
112	0x3e0877ae	0.13326904
113	0xbee81eb2	-0.4533592
114	0xbe8686ea	-0.26274806
115	0xbe4757a3	-0.19467025
116	0x3da97049	0.0827337
117	0xbe941303	-0.28920755
118	0xbe90bc83	-0.28268823
119	0xbe8a25e4	-0.26982033
120	0xbd3b7154	-0.045762375
121	0xbe948513	-0.29007778
122	0x3dbb9b8b	0.09160527
123	0xbc875ebf	-0.01652467
124	0xbe6f483a	-0.23367396
125	0xbea81a39	-0.32832506
126	0xbe6419e8	-0.22275507
127	0xbec789f7	-0.38972446
128	0x3e5942d9	0.21216907
129	0xbca0b011	-0.019615205
130	0x3f13d309	0.5774389
131	0x3ddc3bc8	0.1075359
132	0xbe6af36c	-0.2294442
133	0x3e963ad1	0.29341748
134	0xbe7a08c0	-0.244174
135	0xbd97c9a1	-0.074115045
136	0xbe76449f	-0.24049614
137	0xbf0818c3	-0.53162783
138	0x3b8077f9	0.003920552
139	0xbe9f5489	-0.31119183
140	0x3e0ac4f5	0.13551696
141	0xbe6c0c2b	-0.23051517
142	0x3ecf9b6b	0.40548262
143	0xbe1b8977	-0.15189157
144	0xbb50f073	-0.00318816
145	0x3dda1ff6	0.10650627
146	0x3e9bd06a	0.30432445
147	0x3ea2c8e0	0.3179388
148	0x3f23eb6e	0.6403111
149	0xbdb22585	-0.086985625
150	0xbceee187	-0.029160274
151	0xbe7aaf39	-0.24480905
152	0xbde797ff	-0.11308288
153	0x3be2df87	0.006923619
154	0x3ec72992	0.38898903
155	0xbf095dd9	-0.53658825
156	0x3e1c11a0	0.15241098
157	0x3e4f4d08	0.20244229
158	0x3e889dae	0.266828
159	0x3d287e0c	0.041135833
160	0x3f0a936c	0.541312
161	0xbba56db3	-0.0050484776
162	0x3e526a99	0.20548476
163	0xbe93f028	-0.28894162
164	0x3dc99865	0.0984352
165	0xbdde9359	-0.10867948
166	0xbe5491ff	-0.20758818
167	0x3ecec84f	0.40387198
168	0xbc7d4f70	-0.015460834
169	0xbcefb67a	-0.029261816
170	0xbe1ebafc	-0.15501016
171	0xbe2b9323	-0.16755347
172	0x3e8fbf76	0.2807576
173	0xbdb09731	-0.086225875
174	0xbe243882	-0.16037181
175	0xbdef8e48	-0.1169706
176	0xbeb2dc82	-0.3493386
177	0xbc5288a2	-0.012849959
178	0x3e8715b4	0.26383746
179	0xbeebbb13	-0.46041164
180	0x3d88cb1f	0.06679367
181	0x3e577491	0.2104056
182	0x3e7f2075	0.24914725
183	0xbe6e5067	-0.23272859
184	0x3de812eb	0.11331733
185	0x3e5b7786	0.21432313
186	0x3ea3b472	0.31973606
187	0x3d1f1643	0.03883959
188	0x3d3d6434	0.04623814
189	0xbe7f8fbb	-0.24957173
190	0x3e015b9f	0.12632607
191	0xbee727a3	-0.45147428
192	0x3e9a37b1	0.30120614
193	0x3ef378cd	0.475531
194	0xbdb74c07	-0.08950048
195	0xbc695811	-0.014242188
196	0xbd4aba58	-0.049494117
197	0xbd769a4b	-0.06020574
198	0x3e584bcc	0.21122664
199	0xbd77aadb	-0.060465675
200	0xbf05f330	-0.523242
201	0xbcd95da4	-0.02653391
202	0x3ea83308	0.32851434
203	0x3d5f375d	0.054496158
204	0xbe5a2b1d	-0.21305509
205	0xbece5131	-0.4029632
206	0xbe0ad1f5	-0.13556655
207	0xbec7f2d1	-0.39052442
208	0x3cb01326	0.021493506
209	0x3e4a81ea	0.19776121
210	0x3e391599	0.18074645
211	0x3f2d79cd	0.6776398
212	0xbf2046f7	-0.62608284
213	0xbec91a3c	-0.39277828
214	0x3d95d6de	0.07316373
215	0x3ec482e3	0.3838111
216	0x3d5c8cd0	0.053845227
217	0xbe9f8997	-0.3115966
218	0x3e6d7ade	0.23191401
219	0xbe7ad23b	-0.24494259
220	0xbe983838	-0.29730392
221	0x3ea66492	0.32498604
222	0xbe42bb82	-0.19016841
223	0x3d3fc127	0.046815064
224	0xbeeee435	-0.46658483
225	0x3daa97eb	0.08329757
226	0x3e6d08aa	0.23147836
227	0x3e2bc6f4	0.16775113
228	0xbea7bff4	-0.32763636
229	0xbee63fae	-0.4497046
230	0xbecf874b	-0.40532908
231	0x3efb695c	0.4910382
232	0x3cbffc4b	0.023435732
233	0x3e9ea17e	0.30982584
234	0x3e81252e	0.25223678
235	0x3eb993d0	0.36245584
236	0x3d06b334	0.032885745
237	0xbe5331cb	-0.20624463
238	0xbee8b0bf	-0.45447347
239	0xbeed0c1f	-0.4629831
240	0x3e6d5f1c	0.23180813
241	0xbec81071	-0.39075044
242	0xbeb08101	-0.34473422
243	0xbd7e2842	-0.06205011
244	0xbe055a8d	-0.13022824
245	0xbedfee9e	-0.43736738
246	0xbdd96c29	-0.10616333
247	0x3ce9bf83	0.028533703
248	0xbe5d5f70	-0.21618438
249	0x3ed00d2f	0.40635058
250	0xbe3a021b	-0.18164866
251	0xbe6106f1	-0.21975304
252	0xbe84a196	-0.2590453
253	0xbe86719a	-0.26258546
254	0xbea09eea	-0.31371242
255	0xbeb1cf8f	-0.34728667

shared.0.bias f4 [64]
0	0x3f479f25	0.7797721
1	0xbe7bd5fc	-0.24593347
2	0x3db81c62	0.089897886
3	0xbed534b0	-0.4164176
4	0xbe8e02d9	-0.27736548
5	0x3f00c93d	0.50307065
6	0x3f214aba	0.6300465
7	0x3de41143	0.11136105
8	0xbf08c1f5	-0.53420955
9	0x3f1e4aef	0.6183309
10	0x3e1e95d5	0.15486844
11	0xbeb860fe	-0.360115
12	0xbdf22680	-0.118237495
13	0x3ec23300	0.37929535
14	0x3c6b0e64	0.014346693
15	0xbef3ba8c	-0.4760326
16	0x3df5c393	0.120001934
17	0xbebc3c7d	-0.367649
18	0xbebdf611	-0.37101796
19	0xbef34795	-0.4751555
20	0x3f11447d	0.5674513
21	0x3f2ae5c6	0.66756856
22	0x3ea8533b	0.32876
23	0x3f03dd28	0.5150933
24	0x3f0ae42a	0.542544
25	0xbe18812f	-0.1489303
26	0xbea8cbf3	-0.329681
27	0x3ee60b85	0.44930664
28	0xbec44a28	-0.38337827
29	0xbe3bd77c	-0.1834392
30	0x3ccc2b9f	0.024923144
31	0x3e8dc9cd	0.27693024
32	0x3c68c6e6	0.014207577
33	0xbe3e47d0	-0.18582082
34	0xbeee6d14	-0.46567595
35	0x3e2ca882	0.16861156
36	0xbdd9b5b4	-0.1063036
37	0xbddafa53	-0.10692277
38	0x3edda445	0.4328939
39	0xbe2ce0f6	-0.16882691
40	0x3ef4fd0a	0.47849303
41	0x3f19ec5f	0.601263
42	0x3d9b67e0	0.07588172
43	0x3e56949e	0.2095513
44	0x3d3d9875	0.046287972
45	0xb9e2f009	-0.0004328492
46	0x3ce0247a	0.027361143
47	0x3e7c21e0	0.24622297
48	0x3f0fd25b	0.5618035
49	0x3f19b2b5	0.6003831
50	0xbdf9c952	-0.12196602
51	0xbec289f7	-0.37995884
52	0xbe892ba3	-0.26791105
53	0xbed6961c	-0.419114
54	0x3e073a83	0.13205914
55	0x3e9a6161	0.3015242
56	0x3eddec12	0.4334417
57	0x3ed485ff	0.4150848
58	0xbea4376e	-0.3207354
59	0xbea11ac9	-0.31465748
60	0x3e333eed	0.17504473
61	0xbd423234	-0.04741116
62	0x3e3e5d8a	0.1859037
63	0xbef2925d	-0.4737729

actor.0.weight f4 [64, 64]
0	0x3d5a2366	0.053256415
1	0xbe89d2ca	-0.26918632
2	0xbe44f691	-0.19234683
3	0xbeab50fc	-0.33460224
4	0x3d9f8bc6	0.077903315
5	0xbdfd2685	-0.12360863
6	0x3e8e0e23	0.2774516
7	0x3d0dd772	0.034629293
8	0x3d797ed5	0.060911972
9	0x3e11b3f4	0.14228803
10	0xbe0bfd09	-0.13670744
11	0xbdebda9d	-0.115163065
12	0x3c9d7a19	0.01922326
13	0xbe53e4fb	-0.20692818
14	0x3d2ab320	0.041674733
15	0x3db12f6d	0.08651624
16	0x3d2cb3d3	0.04216368
17	0x3e1226ef	0.14272664
18	0x3c9a3447	0.018823756
19	0xbe148b18	-0.14506185
20	0xbd45f8d3	-0.048333
21	0x3dd5bd1b	0.1043646
22	0x3cda499b	0.026646426
23	0x3cb697bb	0.022289148
24	0xbc957b8f	-0.018247394
25	0xbd73c26c	-0.059511587
26	0xbd8389d2	-0.064227715
27	0x3e1e7ea2	0.15477994
28	0xbe45627a	-0.19275847
29	0x3c41d7d2	0.011831241
30	0x3e0aafd6	0.13543639
31	0x3eb76933	0.35822448
32	0x3e0ecb30	0.13944697
33	0x3dd04e65	0.101712026
34	0x3e09fb17	0.1347469
35	0x3e8097a0	0.2511568
36	0x3e3704e6	0.17872962
37	0xbe2c97ed	-0.1685483
38	0x3e0c4ba8	0.13700736
39	0x3e132bc2	0.14372161
40	0xbb8d7f55	-0.0043181577
41	0x3dbc5c00	0.09197235
42	0xbd911801	-0.070846565
43	0x3d95d6f8	0.07316393
44	0xbdfb297f	-0.12263774
45	0x3e627519	0.22114982
46	0xbbb1bf03	-0.0054243817
47	0xbce5b0ca	-0.028038401
48	0x3e9b9792	0.30389076
49	0x3dff3669	0.1246155
50	0xbe4cf886	-0.20016679
51	0xbe242191	-0.1602843
52	0xbe158481	-0.14601327
53	0xbe2c3c82	-0.16819957
54	0xbe9e9e4a	-0.3098014
55	0xbea06c22	-0.313325
56	0xbe49c7f1	-0.19705178
57	0xbe26d764	-0.16293103
58	0xbda06fb7	-0.07833808
59	0x3eaa751d	0.33292475
60	0xbdcf553f	-0.10123681
61	0x3d99e99d	0.07515261
62	0x3e7d51a7	0.24738179
63	0xbe09ba74	-0.13450032
64	0x3d02646b	0.031834047
65	0x3e803fb3	0.250486
66	0x3df41792	0.11918558
67	0x3e26d19a	0.16290894
68	0x3e1c1bab	0.1524493
69	0xbc16c7f0	-0.009202942
70	0xbd74c894	-0.0597616
71	0x3df6337e	0.1202154
72	0x3d6ace7b	0.05732582
73	0x3d7f3f6b	0.06231634
74	0x3e176601	0.14785005
75	0x3e885b77	0.26632282
76	0x3e1b6a4f	0.15177272
77	0x3e55f1a3	0.20892958
78	0x3dc46a14	0.09590545
79	0x3ddabc82	0.10680486
80	0xbdb1397a	-0.08653541
81	0xbd8664b6	-0.06562178
82	0xbd783b71	-0.060603563
83	0x3b5e080a	0.0033879303
84	0x3dcfd779	0.1014852
85	0x3b05e17b	0.0020428586
86	0x3e7a834a	0.24464145
87	0x3d8cfc1d	0.06884024
88	0xbe06762e	-0.1313102
89	0x3e3cdb0e	0.18442938
90	0xbdba5d9e	-0.09099887
91	0xbd2d5c2d	-0.042324234
92	0x3e0c1683	0.13680463
93	0xbd99d4b6	-0.075112745
94	0xbe3f51eb	-0.18683593
95	0xbe92757f	-0.28605267
96	0x3dc5a26f	0.096501224
97	0x3de98989	0.11403186
98	0x3d87be4f	0.06628095
99	0xbe47a176	-0.19495186
100	0xbde8bf09	-0.11364562
101	0x3e842e40	0.25816536
102	0xbd086885	-0.033302803
103	0xbd059a61	-0.03261793
104	0x3d470670	0.048590124
105	0xbcfb1fc2	-0.030654792
106	0x3d39e54c	0.04538469
107	0x3cf65ff4	0.03007505
108	0x3e5a4ba4	0.21317917
109	0xbddac16f	-0.10681426
110	0xbc687993	-0.014189142
111	0x3e1439e5	0.1447521
112	0xbe444bc2	-0.19169524
113	0xbd3ccc9c	-0.04609357
114	0x3e840f8d	0.25793114
115	0x3e14e124	0.1453901
116	0x3bfc5136	0.007700111
117	0x3e243341	0.16035177
118	0x3e5245bb	0.20534413
119	0x3e7c23d4	0.24623042
120	0x3e6db692	0.23214176
121	0x3e3bc112	0.18335369
122	0x3c29d0a8	0.010364689
123	0xbecdc10c	-0.40186346
124	0xbd4777a8	-0.048698097
125	0xbd686a87	-0.056742217
126	0xbe2d3a81	-0.16916849
127	0x3e077b71	0.13230683
128	0x3d9ad0d8	0.07559365
129	0xbe7a55ab	-0.24446742
130	0x3cb50dfd	0.022101397
131	0xbe0af883	-0.13571362
132	0xbe14789c	-0.14499134
133	0xbd3959fd	-0.045251835
134	0x3e6b997d	0.2300777
135	0x3d05e5a1	0.032689694
136	0x3d03f9f7	0.032220807
137	0x3d1d3969	0.03838483
138	0xbdb864ef	-0.090036266
139	0xbe837055	-0.2567164
140	0x3b89633f	0.0041927393
141	0xbe017835	-0.12643512
142	0x3d2d4d34	0.042309955
143	0x3e3a9253	0.18219881
144	0x3c220212	0.009888189
145	0x3d972e59	0.07381887
146	0xbbf3ba4d	-0.0074379803
147	0x3c38bd30	0.011275575
148	0xbe13a0a0	-0.14416742
149	0x3d09fe8d	0.033690024
150	0xbe30c68c	-0.1726324
151	0x3df02e98	0.11727637
152	0x3e2d89c8	0.1694709
153	0xbcee28d0	-0.029072195
154	0x3dff3676	0.124615595
155	0x3dc7d657	0.09757679
156	0xbd03406c	-0.03204386
157	0xbd964e98	-0.07339209
158	0x3e3612d0	0.17780614
159	0x3ec986d4	0.39360678
160	0x3e0fc41a	0.1403965
161	0x3e3690e8	0.17828715
162	0xbc80aea1	-0.01570827
163	0x3e8ad38f	0.2711453
164	0x3d6ae023	0.05734266
165	0xbe011142	-0.1260424
166	0x3d376bb5	0.04478045
167	0x3db7c18a	0.089724615
168	0x3df34e80	0.11880207
169	0x3d528413	0.051395487
170	0xbdd32d9b	-0.10311433
171	0x3e4d2e96	0.20037302
172	0xbe4d7a01	-0.20066072
173	0x3ea0ebc8	0.31429887
174	0xbe5b66e2	-0.21425965
175	0xbe7aaabe	-0.24479195
176	0x3de808bf	0.11329793
177	0xbc897c66	-0.01678295
178	0xbe1ff743	-0.15621667
179	0x3d5de838	0.05417654
180	0xbd532e75	-0.051557977
181	0x3c982a10	0.018574744
182	0xbe253792	-0.1613448
183	0xbe0ecc1a	-0.13945046
184	0xbbeda8f0	-0.007252805
185	0x3d527ebb	0.05139039
186	0xbd268a80	-0.040659428
187	0x3f1671ca	0.5876738
188	0x3ddaff5e	0.10693239
189	0xbbca6b64	-0.0061773527
190	0x3dc819ff	0.09770583
191	0xbe414e59	-0.18877544
192	0x3dceca3f	0.10097169
193	0xbe5e8472	-0.21730211
194	0x3e4e63c9	0.20155253
195	0x3e5a5d19	0.21324576
196	0xbe4956d7	-0.19662033
197	0x3d87b41e	0.066261515
198	0xbe206f36	-0.15667424
199	0x3d680f4a	0.056655206
200	0x3d8ebda0	0.06969762
201	0x3d04b9b5	0.032403667
202	0x3eb4389b	0.35199437
203	0x3e86c4e8	0.26322103
204	0x3e128960	0.14310217
205	0x3d047554	0.032338455
206	0xbc523b5f	-0.012831538
207	0xbb992dbb	-0.004674641
208	0x3bbe842e	0.005814097
209	0x3d99c7b8	0.075087965
210	0xbd7fa3eb	-0.062412184
211	0x3e3237ee	0.17404148
212	0xbcd325ef	-0.025774924
213	0x3e30ac28	0.17253172
214	0xbc85586f	-0.01627752
215	0xbe0614eb	-0.13093917
216	0xbe04ed3b	-0.12981121
217	0x3d5737b2	0.05254335
218	0x3e2541c1	0.16138364
219	0xbe644225	-0.22290857
220	0xbcb16658	-0.021655247
221	0x3deaf0d7	0.11471718
222	0xbd9cc2b9	-0.07654328
223	0xbdce3358	-0.10068387
224	0xbd634b1b	-0.055491548
225	0xbcf928b8	-0.030414924
226	0x3dc47b14	0.09593788
227	0x3d91cb30	0.07118833
228	0x3d63fd9c	0.055661783
229	0xbdd80afe	-0.105489716
230	0xbd77dc61	-0.060512904
231	0x3d4d00d8	0.050049633
232	0xbd04e391	-0.032443587
233	0x3da0545c	0.0782859
234	0x3e201dac	0.15636319
235	0xbe4df652	-0.20113495
236	0xbad3015a	-0.0016098425
237	0x3d3b8133	0.04577751
238	0x3e0c5b73	0.1370676
239	0x3e83136c	0.25600755
240	0xbd8d40be	-0.06897114
241	0x3d134131	0.035950843
242	0x3e7ed978	0.24887645
243	0xbd1d3cc5	-0.038388032
244	0x3d7890bd	0.06068491
245	0x3e1c3fbb	0.15258686
246	0x3bac3131	0.0052548875
247	0x3ef32c8a	0.47494918
248	0x3d00845b	0.031376224
249	0x3e820f3b	0.25402245
250	0xbc8b55ba	-0.017008651
251	0xbde8545a	-0.11344214
252	0xbe33e6c6	-0.17568502
253	0x3d8c7dd6	0.06859939
254	0x3c46af88	0.012126811
255	0xbddc6917	-0.10762232

actor.0.bias f4 [64]
0	0x3d2ada1c	0.04171191
1	0xbcf4b3a7	-0.029870821
2	0x3d9b7e87	0.075924926
3	0xbd38cffe	-0.04512023
4	0xbcc46e32	-0.023978326
5	0x3d61de40	0.055143595
6	0x3e5412c8	0.2071029
7	0x3cd7cfad	0.026344145
8	0xbd45d2a8	-0.0482966
9	0xbd538dd5	-0.051648933
10	0xbcd2a7c3	-0.02571476
11	0xbd33671d	-0.04379951
12	0x3d8326cf	0.064038865
13	0xbc401e40	-0.011725962
14	0x3dc79a57	0.09746235
15	0x3d10a71b	0.035315614
16	0xbd4a2e35	-0.049360473
17	0x3e3b350d	0.18281956
18	0x3db6a531	0.089182265
19	0x3d5dd95b	0.054162364
20	0xbd2ebb5a	-0.04265914
21	0x3c8b272e	0.016986456
22	0x3d937d35	0.07201616
23	0x3e217ce7	0.15770303
24	0xbc83f073	-0.016105866
25	0xbce0a687	-0.027423156
26	0xbd8489d7	-0.06471603
27	0x3e478c04	0.19487005
28	0x3dbde803	0.09272768
29	0x3d9829ba	0.07429834
30	0xbc14d377	-0.00908362
31	0x3dbaada8	0.091151536
32	0x3ae234e3	0.0017258193
33	0x3d602373	0.054721307
34	0x3dace221	0.08441568
35	0xbdc9caa7	-0.09853106
36	0x3d7d67ef	0.061866697
37	0x3dd5eaa9	0.104451485
38	0xbde26351	-0.11054099
39	0x3dab33e3	0.08359506
40	0x3e11a17e	0.1422176
41	0x3e13223e	0.14368531
42	0x3caa1ee5	0.020766685
43	0xbd05be09	-0.032651935
44	0xbce2022f	-0.027588932
45	0x3d0a5ef4	0.03378196
46	0xba58c599	-0.00082691904
47	0x3de6537c	0.11246392
48	0x3e2cd636	0.1687859
49	0x3d974547	0.073862605
50	0xbddd5f68	-0.10809213
51	0x3d77e547	0.06052139
52	0x3e0f697f	0.14005087
53	0x3cd42e5f	0.025901018
54	0xbd35701b	-0.044296365
55	0x3cb79447	0.022409571
56	0x3d14ac0f	0.0362969
57	0x3c83b439	0.016077148
58	0x3db34e39	0.08755154
59	0x3ddced90	0.10787499
60	0xbc5f340b	-0.013623248
61	0x3c9912e0	0.018685758
62	0x3d577ffc	0.05261229
63	0x3dad8222	0.084720865

actor.2.weight f4 [3, 64]
0	0x3d66fc61	0.05639303
1	0x3d92aea2	0.07162215
2	0xbd0d9a63	-0.034571063
3	0x3e0659e0	0.13120222
4	0x3d9ea15e	0.07745622
5	0xbe31a51d	-0.17348142
6	0xbdf75aab	-0.120778404
7	0x3d8fc866	0.07020645
8	0xbce109e7	-0.027470542
9	0xbdeb9e15	-0.11504761
10	0xbe568ae4	-0.2095142
11	0x3d50c3dc	0.050968036
12	0xbe011236	-0.12604603
13	0xbe216397	-0.15760647
14	0x3e1a6eed	0.15081377
15	0x3de05adb	0.10954829
16	0xbdf364a9	-0.11884434
17	0x3e24cd29	0.16093887
18	0xbd99eb26	-0.07515554
19	0xbd014a19	-0.031564806
20	0x3ce1e570	0.027575225
21	0xbd0c64ba	-0.034275748
22	0x3dbefe39	0.09325833
23	0xbd966a8b	-0.0734454
24	0x3bfbd08e	0.0076847738
25	0xbd4fcda6	-0.05073323
26	0xbe0e6af8	-0.13907993
27	0xbd9ed630	-0.07755697
28	0xbcc1ab9b	-0.023641398
29	0x3c8e508e	0.017372396
30	0x3dcfb545	0.10141996
31	0x3d8a932d	0.06766353
32	0x3d964417	0.07337206
33	0x3e5ea8af	0.21744035
34	0x3dd4a6be	0.10383366
35	0x3e43216b	0.19055717
36	0xbd857e53	-0.06518235
37	0xbe5c54b4	-0.21516687
38	0x3d9d74ec	0.07688317
39	0x3d04cbb4	0.03242083
40	0xbe4bfd1a	-0.1992077
41	0x3ca15b4e	0.019696858
42	0xbe29f5f9	-0.16597737
43	0xbe79106f	-0.24322675
44	0x3bc7743a	0.0060868533
45	0x3da1991d	0.07890532
46	0xbd30c60b	-0.04315762
47	0x3e16d0ce	0.1472809
48	0x3e57563f	0.21028994
49	0x3e76e718	0.24111593
50	0xbe15b337	-0.14619146
51	0xbca25301	-0.01981497
52	0xbd037871	-0.032097284
53	0x3e1df658	0.15426004
54	0xbdaaf1e5	-0.08346919
55	0xbea9f149	-0.33191898
56	0x3da8aa84	0.08235648
57	0xbc58583b	-0.0132046295
58	0xbdfe3f95	-0.12414471
59	0x3e3af74c	0.18258399
60	0x3e0de6d2	0.13857582
61	0x3e01eaae	0.1268718
62	0xbe96c687	-0.2944834
63	0xbd841841	-0.064499386
64	0x3eacd4bf	0.33756062
65	0xbe743d72	-0.23851565
66	0x3e6bd306	0.23029718
67	0xbea1998e	-0.31562465
68	0x3ebe4c1b	0.3716744
69	0xbe771699	-0.24129714
70	0x3e19d91c	0.15024227
71	0xbee8efb0	-0.45495367
72	0xbec31966	-0.38105315
73	0xbf26ff19	-0.65233
74	0x3e299ba4	0.16563278
75	0xbeba1653	-0.36345157
76	0x3debfdea	0.1152304
77	0x3eaab420	0.3334055
78	0xbec62834	-0.38702548
79	0x3e85e639	0.26152208
80	0xbb4ddfff	-0.003141403
81	0xbe3e54c3	-0.18587022
82	0x3e516787	0.20449649
83	0xbe91b8b5	-0.28461233
84	0x3e08bc94	0.13353187
85	0x3e610d0d	0.21977635
86	0xbee135ba	-0.43986303
87	0xbe4f1626	-0.20223293
88	0x3edc0977	0.4297597
89	0xbeaa9b56	-0.33321637
90	0x3efdd525	0.4957668
91	0x3ee418ba	0.44550115
92	0x3ec79532	0.38981014
93	0xbcfd21c8	-0.030899897
94	0xbe8e7762	-0.27825457
95	0xbe9df1be	-0.30848497
96	0x3e5b04e7	0.21388589
97	0x3e947a34	0.28999484
98	0xbe937d7e	-0.2880668
99	0xbea6ba5c	-0.32564056
100	0xbeefb6f3	-0.46819267
101	0x3e1a39c1	0.15061094
102	0x3e262c01	0.16227724
103	0xbde5484d	-0.11195431
104	0x3dcfba37	0.101429395
105	0x3e46f5b2	0.19429663
106	0xbe8cc195	-0.2749144
107	0x3ed12065	0.40845028
108	0x3e8a8df8	0.2706144
109	0x3e699e43	0.22814278
110	0x3e6158b9	0.22006501
111	0xbec21584	-0.3790704
112	0x3d1c03c3	0.038089525
113	0xbd0e94d7	-0.034809913
114	0x3ca835b5	0.020533422
115	0xbe88912c	-0.26673257
116	0xbe0d70ca	-0.13812557
117	0xbe955d31	-0.29172662
118	0x3e513bc5	0.20432957
119	0xbd85f5d1	-0.065410264
120	0x3e1b237c	0.15150255
121	0x3eaf1b62	0.3420058
122	0x3e632958	0.2218374
123	0xbe686082	-0.22693065
124	0xbd9037f6	-0.07041924
125	0xbea8dd74	-0.32981455
126	0xbc34bbce	-0.011031104
127	0xbda433b2	-0.080176726
128	0xbea18d31	-0.31553033
129	0x3e93ccb3	0.2886711
130	0xbe419ec1	-0.18908216
131	0x3e2a3d1a	0.16624871
132	0xbe0279fb	-0.12741844
133	0x3eb1cba4	0.34725678
134	0xbd2199ef	-0.039453443
135	0x3ee37e13	0.44432124
136	0x3e7e216c	0.24817437
137	0x3f0f27db	0.5592019
138	0xbea20967	-0.31647798
139	0x3edb9ece	0.42894596
140	0xbe16c669	-0.14724125
141	0xbe3042f5	-0.17213042
142	0x3ec429ac	0.38313043
143	0xbe05e2a9	-0.13074745
144	0x3df7b1d4	0.12094465
145	0x3d58f3ee	0.052967004
146	0xbe06b5a3	-0.13155226
147	0x3ea4a944	0.3216039
148	0xbe73fc5d	-0.23826738
149	0x3cc0d6a6	0.023539852
150	0x3ee0a814	0.43878233
151	0x3e96b2f9	0.2943342
152	0xbedceffb	-0.4315184
153	0x3e85fdf0	0.261703
154	0xbefe235f	-0.4963636
155	0xbef4f24f	-0.47841117
156	0xbeb7e519	-0.35916975
157	0xbd9fde85	-0.07806114
158	0x3e9d2fe4	0.307006
159	0x3e936680	0.2878914
160	0xbe5336e7	-0.20626412
161	0xbeb6dd8f	-0.3571591
162	0x3e81d00f	0.2535405
163	0x3e2dc100	0.16968155
164	0x3ee714d0	0.45133066
165	0x3e080f46	0.13287076
166	0xbdcca9cf	-0.09993326
167	0xbde68ec5	-0.112577
168	0x3e2341ee	0.15943119
169	0xbe4be9ae	-0.1991336
170	0x3eb8dee8	0.36107564
171	0xbeaed329	-0.34145477
172	0xbdd88656	-0.105724975
173	0xbd2e2f31	-0.042525474
174	0xbe1df7c5	-0.15426548
175	0x3ec31e32	0.38108975
176	0xbe7edf16	-0.24889788
177	0xbe2029c4	-0.15640932
178	0x3b06b6f2	0.0020555821
179	0x3eacc6fb	0.3374556
180	0x3eab7032	0.33484036
181	0x3e4c422e	0.1994712
182	0xbd7c6f19	-0.06162939
183	0x3ed2ac49	0.41147068
184	0xbe2fe0c9	-0.17175592
185	0xbe8811f1	-0.26576188
186	0xbe5be043	-0.21472268
187	0x3e56b067	0.2096573
188	0xbe013c31	-0.12620617
189	0x3e607ca5	0.21922548
190	0x3e3ade8a	0.18248954
191	0x3e4bc752	0.19900253

actor.2.bias f4 [3]
0	0x3ddda19b	0.108218394
1	0x3d56a755	0.052405674
2	0x3da1b3d5	0.07895628

critic.0.weight f4 [64, 64]
0	0xbdc47f3b	-0.0959458
1	0xbd42eaa7	-0.047587063
2	0x3d5cd116	0.053910337
3	0x3f1bc99a	0.60854495
4	0xbebf665c	-0.37382782
5	0x3e404272	0.18775347
6	0x3eae7037	0.34069988
7	0x3c9bc66b	0.019015511
8	0xbf1f6d08	-0.62275743
9	0xbd90d75e	-0.07072328
10	0x3ec9f31f	0.394433
11	0xbeb1fa8e	-0.3476147
12	0xbdaebff0	-0.08532703
13	0xbdd0c857	-0.10194462
14	0xbcc6bab8	-0.024258956
15	0x3e19efb6	0.15032849
16	0xbd8d716a	-0.06906398
17	0xbe284101	-0.16431047
18	0x3e684b75	0.22685035
19	0xbe5245cf	-0.20534442
20	0x3d7a5c46	0.061123155
21	0xbdc2cb37	-0.095114164
22	0xbe290406	-0.16505441
23	0x3d9670ed	0.07345758
24	0x3dacefbf	0.084441654
25	0x3bb6b150	0.0055753365
26	0xbe84ae1c	-0.25914085
27	0x3ea40dad	0.32041684
28	0xbc5e3339	-0.013562017
29	0x3ccfcd7b	0.025366535
30	0x3f13754a	0.57600844
31	0x3e1964ee	0.14979908
32	0xbc396fc5	-0.011318152
33	0xbdb2ccf4	-0.08730498
34	0x3d39356d	0.045216966
35	0x3d95a811	0.07307447
36	0x3e115a12	0.14194515
37	0xbcc87298	-0.024468705
38	0x3d9ae9b7	0.07564109
39	0xbd22bbb4	-0.03972979
40	0xbd0d8bc9	-0.034557138
41	0x3e9ac33d	0.3022708
42	0xbbc4fa4e	-0.006011284
43	0x3e0ab78a	0.13546577
44	0x3db568ac	0.08857855
45	0x3c3d311a	0.011547351
46	0x3e229dc8	0.15880501
47	0xbe1e37cf	-0.15450977
48	0xbe407c07	-0.18797313
49	0xbc3708b0	-0.011171505
50	0xbedef41c	-0.43545616
51	0xbbc8809f	-0.0061188485
52	0x3c9c46b9	0.019076692
53	0xbe42019f	-0.18945931
54	0x3eaa7eb3	0.3329979
55	0x3d947f80	0.07250881
56	0x3eb2027d	0.34767523
57	0x3ea028de	0.3128118
58	0xba5eb1e3	-0.0008495135
59	0xbe272786	-0.1632367
60	0x3eb5ecc5	0.35532203
61	0x3e4a689b	0.19766466
62	0x3a748b00	0.0009328574
63	0xbe01ec80	-0.12687874
64	0xbf08323f	-0.5320167
65	0xbd0b5abe	-0.034022085
66	0x3e3e5878	0.18588436
67	0x3f6bcd00	0.9210968
68	0xbeca1ccb	-0.39475092
69	0x3ee37781	0.44427112
70	0x3f0ffca8	0.562449
71	0xbd0dcfac	-0.03462188
72	0xbf6a9bbd	-0.9164389
73	0xbf3358da	-0.7005745
74	0x3f0b9c94	0.54535794
75	0xbecb550d	-0.39713326
76	0x3e0290ee	0.12750599
77	0xbea7c3a7	-0.32766458
78	0xbd3b7290	-0.045763552
79	0x3e3aa55e	0.18227145
80	0xbcce94c7	-0.025217427
81	0xbdc6f4b3	-0.097146414
82	0x3ec0617d	0.37574378
83	0xbe0738ca	-0.13205257
84	0x3dbb9ead	0.091611244
85	0xbf222edf	-0.6335277
86	0xbcd3fd7e	-0.02587771
87	0xbd6b12af	-0.057390865
88	0x3b892e8d	0.0041864575
89	0x3e08d9cb	0.13364331
90	0xbe49b03f	-0.19696139
91	0x3e2a76c3	0.16646867
92	0xbcd87bb4	-0.026426174
93	0xbd26a69a	-0.040686227
94	0x3e3f5a55	0.18686803
95	0xbabcac11	-0.0014394542
96	0x3ce673cc	0.028131388
97	0xbe5822db	-0.21107046
98	0x3ca2fda4	0.019896336
99	0xbd46b2e9	-0.048510466
100	0x3e3de0e1	0.18542816
101	0xbedc28f1	-0.42999986
102	0xbd4e6b36	-0.050395213
103	0xbf1f8589	-0.62313133
104	0x3dfa23e7	0.12213879
105	0x3e7ae767	0.24502335
106	0xbd6ea982	-0.058267124
107	0xbd5ff746	-0.054679178
108	0x3c9bd7eb	0.019023856
109	0xbf2a5ddb	-0.6654946
110	0x3e7ea303	0.24866872
111	0xbec08ed5	-0.37608972
112	0xbf22f472	-0.63654244
113	0xbde139be	-0.109973416
114	0xbf172b16	-0.5905012
115	0xbe497a4c	-0.19675559
116	0x386339b8	5.4174772e-05
117	0xbe966005	-0.29370132
118	0x3f90f4f9	1.132476
119	0x3e31aa85	0.17350204
120	0x3dd90851	0.10597289
121	0x3ee5a830	0.4485488
122	0xbd87cda2	-0.06631018
123	0xbee2309d	-0.44177714
124	0x3e995073	0.2994419
125	0x3de81152	0.113314286
126	0x3de8b635	0.11362878
127	0xbda193ef	-0.07889544
128	0x3e232c3d	0.15934844
129	0x3cacbc94	0.021086015
130	0x3d5e8cf6	0.05433365
131	0x3f09853b	0.5371892
132	0xbeff0040	-0.49804878
133	0x3e9a2bbe	0.30111498
134	0x3e9051a0	0.28187275
135	0x3e0c6277	0.13709436
136	0xbf14d023	-0.5813009
137	0x3df3aab4	0.118977934
138	0x3ead60d0	0.33862925
139	0xbe6b9bef	-0.23008703
140	0x3da09017	0.07839983
141	0xbe1722f4	-0.14759427
142	0xbde0f7bf	-0.10984754
143	0x3e58563d	0.21126647
144	0xbd8185cc	-0.06324348
145	0xbd217d4f	-0.039426144
146	0x3ed51b41	0.41622356
147	0xbe5caf4b	-0.21551244
148	0x3e117c80	0.14207649
149	0x3d2ac4f3	0.04169173
150	0xbd6f077a	-0.05835674
151	0x3e1dda7a	0.15415373
152	0x3d6fed7c	0.058576092
153	0x3e152e0b	0.14568345
154	0xbe5e0e4c	-0.21685141
155	0x3e1ccfb2	0.15313604
156	0x3d4f4bcd	0.0506094
157	0x38931fee	7.0154536e-05
158	0x3f2abb81	0.6669236
159	0x3e213c41	0.15745641
160	0x3d8d93fb	0.06912991
161	0x3cd7174e	0.02625623
162	0x3df136cc	0.1177803
163	0xbc6a8a83	-0.01431525
164	0x3e4396aa	0.19100443
165	0x3de92a88	0.11385065
166	0x3c3427d3	0.010995823
167	0xbe6e72ce	-0.23285982
168	0x3dcbe213	0.099552296
169	0x3e8024cf	0.25028083
170	0x3df83540	0.12119532
171	0xbd28eb38	-0.041239947
172	0x3bffaaf1	0.00780236
173	0xbd58d5f7	-0.052938428
174	0x3e88d2b0	0.26723242
175	0xbde88507	-0.11353498
176	0x3d58b6f9	0.05290887
177	0x3dcdc4e1	0.10047317
178	0xbd60ca8c	-0.054880664
179	0xbc82f08b	-0.01598384
180	0x3e29d558	0.1658529
181	0xbd999189	-0.07498462
182	0x3eee5130	0.46546316
183	0x3dc5f641	0.0966611
184	0x3eb08001	0.3447266
185	0x3eec6d4a	0.4617713
186	0xbd262cd1	-0.040570084
187	0xbec56003	-0.38549814
188	0x3e1f75f4	0.1557234
189	0x3d2b5c7f	0.041836258
190	0x3ddccd93	0.10781398
191	0xbd838b07	-0.06423002
192	0xbd8cb39c	-0.06870195
193	0xbc20c3f5	-0.009812345
194	0x3e64db63	0.22349314
195	0xbf14e1d5	-0.5815709
196	0x3f2f1029	0.68384033
197	0xbe24c9f4	-0.16092664
198	0xbe4064cf	-0.18788455
199	0x3dacdc5b	0.08440467
200	0x3f14ca3d	0.5812109
201	0x3e517335	0.20454104
202	0xbe3d16a2	-0.18465665
203	0x3eff1610	0.4982152
204	0x3dbd5fba	0.09246774
205	0x3e8073a9	0.25088242
206	0x3d9b22f9	0.0757503
207	0x3e0f1dbc	0.13976187
208	0x3d9925c4	0.07477906
209	0x3e8a0d4a	0.26963264
210	0xbed086c3	-0.40727815
211	0x3eb96ac7	0.36214277
212	0xbc53137a	-0.012883062
213	0x3e13ca8e	0.14432737
214	0x3e9c841b	0.30569538
215	0xbea2631c	-0.3171624
216	0xbdb10bb6	-0.08644812
217	0x3dc70cab	0.09719213
218	0x3e041c40	0.12901402
219	0xbf68bac6	-0.90909994
220	0x3e3ab230	0.18232036
221	0x3e44073a	0.19143382
222	0xbed1ffc0	-0.41015434
223	0xbdcaa681	-0.09895039
224	0xbe148a1c	-0.1450581
225	0x3ddb72ec	0.10715279
226	0x3e102cb2	0.1407955
227	0xbd2d80bb	-0.042359095
228	0x3e0f87bf	0.14016627
229	0xbea52a58	-0.32258868
230	0xbe24b222	-0.16083577
231	0x3e8f5c69	0.2800019
232	0x3d05a378	0.0326266
233	0xbe8aa28c	-0.27077138
234	0x3d99d708	0.07511717
235	0xbdb8f7aa	-0.09031613
236	0x3ef75261	0.48305038
237	0x3e840324	0.25783646
238	0xbd6f0ce8	-0.058361918
239	0x3e83601e	0.2565927
240	0x3e319c75	0.1734484
241	0xbd6dba83	-0.0580392
242	0x3f63ec21	0.8903218
243	0x3debf319	0.115209766
244	0x3e6cb547	0.23116027
245	0x3eb48073	0.3525425
246	0xbed00a70	-0.40632963
247	0xbdb3b206	-0.0877419
248	0xbe0e26e9	-0.1388203
249	0xbe735f11	-0.23766734
250	0x3e2d69b9	0.16934861
251	0x3ebb566c	0.36589372
252	0xbf34a598	-0.70565176
253	0xbd8218f0	-0.06352413
254	0xbe09b252	-0.1344693
255	0xbd68e5c7	-0.056859758

critic.0.bias f4 [64]
0	0x3e63de5f	0.22252797
1	0x3d56245b	0.052280765
2	0x3e740ed3	0.2383378
3	0xbd3db950	-0.046319306
4	0xbdefaec2	-0.11703254
5	0xbd0bdfe3	-0.034149062
6	0x3e5c524c	0.21515769
7	0xbc8cbc14	-0.017179526
8	0xbca0735a	-0.019586254
9	0xbe812be0	-0.25228786
10	0x3c46983a	0.012121255
11	0x3e824447	0.25442716
12	0x3e00f8da	0.1259493
13	0x3e7377c4	0.23776156
14	0xbeb38838	-0.35064864
15	0x3e042662	0.12905267
16	0xbebffee1	-0.37499145
17	0x3e167c7d	0.14695926
18	0x3e7b5c36	0.24546894
19	0x3e9fbecc	0.31200254
20	0x3e463249	0.1935512
21	0xbe3e68a2	-0.18594602
22	0x3e5b423f	0.2141199
23	0x3e7c4c70	0.24638534
24	0x3da72dce	0.081630334
25	0xbaa50b67	-0.0012591899
26	0x3d0619e2	0.032739528
27	0x3e00ce1a	0.12578622
28	0xbe72cbff	-0.23710631
29	0xbd60892c	-0.054818317
30	0x3e88b03b	0.26696953
31	0xbe6827c8	-0.22671425
32	0xbce02ea9	-0.027366
33	0x3e0886f3	0.13332729
34	0xbd25a67f	-0.040441986
35	0x3c111226	0.008854425
36	0xbd59ab9a	-0.053142168
37	0xbe0b13ca	-0.13581768
38	0x3e0bc13c	0.13647932
39	0xbdecaa19	-0.11555881
40	0x3e8c96fc	0.27458942
41	0xbd57cc91	-0.052685324
42	0xbd22bdbd	-0.03973173
43	0x3d639286	0.055559658
44	0xbc88a59d	-0.016680533
45	0xbd9c9be5	-0.07646922
46	0xbde44266	-0.11145477
47	0x3d037174	0.03209062
48	0x3e0a591d	0.13510557
49	0xbd0571e3	-0.032579314
50	0xbe04db33	-0.12974243
51	0xbe52882d	-0.2055976
52	0x3cdd41c5	0.0270089
53	0x3eb61c39	0.35568407
54	0x3df0b6ab	0.11753591
55	0x3d9df7d1	0.07713283
56	0x3e05ec93	0.13078527
57	0x3cce460a	0.025179882
58	0x3cc8add0	0.024496943
59	0x3e5b4f69	0.21417011
60	0x3db5b9ab	0.08873304
61	0x3df1fb3e	0.11815499
62	0xbd9492f4	-0.072545916
63	0x3c7ad022	0.015308412

critic.2.weight f4 [1, 64]
0	0x3efb37aa	0.49065906
1	0x3f6c9662	0.92416966
2	0x3e6adf96	0.22936854
3	0xbf743f13	-0.95408744
4	0xbf7dda88	-0.9916158
5	0xbf6f89b3	-0.9356949
6	0x3f0537b0	0.520381
7	0x3f285b7b	0.6576459
8	0xbf931f56	-1.1493938
9	0xbf616862	-0.880499
10	0x3ed68449	0.418978
11	0x3ea71578	0.32633567
12	0x3e8b4ab2	0.27205426
13	0x3e920463	0.28518972
14	0xbf823a8f	-1.0174121
15	0x3f56179e	0.83629787
16	0xbf810998	-1.0081053
17	0xbf79c54a	-0.97566664
18	0x3ed26e61	0.41099837
19	0x3eccded5	0.40013757
20	0xbf362819	-0.71154934
21	0xbf608586	-0.8770374
22	0x3eb9a669	0.36259773
23	0x3ee313a1	0.44350913
24	0x3e8d5d88	0.2761042
25	0x3f1f9dd1	0.62350184
26	0x3f06bc63	0.52631205
27	0x3eb90bf9	0.36141947
28	0xbfc44d74	-1.5336137
29	0xbf7bdc46	-0.98382986
30	0x3ea5a21c	0.32350242
31	0xbf955e9f	-1.1669501
32	0xbf4793b6	-0.77959764
33	0x3f2de54b	0.67928
34	0xbf26f66f	-0.6521978
35	0x3f047597	0.5174193
36	0xbf9226f7	-1.1418141
37	0xbf86512f	-1.0493525
38	0x3f0f13a5	0.5588935
39	0xbf89df84	-1.0771337
40	0x3e86c56b	0.26322493
41	0xbfa1f1d0	-1.265192
42	0xbf1610a3	-0.58619136
43	0x3f2d9a63	0.678137
44	0x3f51bbd2	0.81927216
45	0xbf89e91d	-1.0774266
46	0xbf9b6281	-1.2139436
47	0xbf35f2fc	-0.7107389
48	0x3f5a7d89	0.853478
49	0x3f246e74	0.6423104
50	0xbf8ab0ac	-1.0835166
51	0xbf51f342	-0.82011807
52	0xbf54c838	-0.8311801
53	0x3f333e16	0.7001661
54	0x3f41b373	0.7566444
55	0x3e91351a	0.28360826
56	0xbf42e0a7	-0.7612404
57	0x3d76c0ab	0.060242336
58	0xbf36283a	-0.7115513
59	0x3f229405	0.6350711
60	0x3efb1e0d	0.49046364
61	0xbf4d798e	-0.802636
62	0xbf8b8b6e	-1.0901926
63	0x3ef717cb	0.4826034
