models/ppo_multi_company.pt (torch, 370187 bytes, 10 tensors)

emb.weight f4 [29, 8]
000000 e7 fe fd 3f e2 35 f8 3f 8f 9b 9b 3f 78 c1 01 c0
       1.9843415 1.9391444 1.2156848 -2.0274334
000010 db b8 e7 3e 04 41 aa bf a3 e4 ee be 83 38 bb bf
       0.4525822 -1.3301091 -0.4665881 -1.4626621
000020 54 d4 9f bf f9 55 a3 3f 63 e1 b7 be 21 8f 9a 3e
       -1.2486672 1.2760612 -0.35914144 0.30187324
000030 0d 13 b2 bf b4 63 94 bf 05 1e ff bf 23 25 1c 40
       -1.3912064 -1.1592927 -1.9931036 2.4397666
000040 61 5a 20 40 cb 53 a2 be e7 55 9a bf cf 40 04 3d
       2.5055163 -0.31704554 -1.2057465 0.03228837
000050 88 34 0b c0 b2 3a 98 3f 10 6d 2e 3f fd 04 c5 3f
       -2.1750813 1.1892912 0.68135166 1.5392147
000060 43 b1 66 3f 74 c1 f9 3f 91 94 d7 3e 32 8a d4 3f
       0.9011423 1.9512162 0.42105535 1.6604674
000070 f4 c4 cb be 04 60 02 3b f3 69 c6 bf 2d 04 9d 3f
       -0.397987 0.0019893656 -1.5501083 1.2266899
000080 d0 ce 16 c0 f1 5d 4e bf 1b d3 ca be 73 fd 3e 40
       -2.3563728 -0.80612093 -0.39614186 2.9842193
000090 6f fa 94 bc 6d 23 f2 be 8f 42 66 bf f9 2f d2 be
       -0.018185822 -0.47292653 -0.8994531 -0.41052225
0000a0 4b 5d 4a c0 99 01 77 3f ad d5 22 bc 3b 71 f0 be
       -3.1619442 0.9648681 -0.00993864 -0.46961388
0000b0 cc 6d f5 be f8 1c 84 3f 90 22 40 c0 7a 1e d0 3e
       -0.4793533 1.032134 -3.0021095 0.40648252
0000c0 9c b6 3c bf ed b7 92 bf d2 16 c4 3e 56 a4 84 3f
       -0.7371614 -1.146238 0.3829866 1.0362651
0000d0 94 19 d7 be 4c e0 d6 3e 56 1a e2 bf a5 49 49 bf
       -0.42011702 0.41968 -1.7664287 -0.78628
0000e0 e3 3e e0 bf bd 2f 4b bc a0 85 19 3f 7b 7f 37 3f
       -1.7519192 -0.012401518 0.5996952 0.71678895
0000f0 94 f1 5c 3c ad 9e 92 3f 88 df 2c c0 e5 33 e0 3f
       0.013485331 1.1454674 -2.7011433 1.7515837
000100 26 96 3c 3e e8 be 8f 3f 8e cc 2d 40 6c 8b e8 3f
       0.18416652 1.1230135 2.71561 1.8167548
000110 6d 01 d9 3d 55 bf e7 be d1 31 25 c0 43 a3 1d 40
       0.10595975 -0.45263162 -2.5811656 2.4630897
000120 ee e9 15 bf ee 47 c7 3f 7a 6c 16 3f c1 73 ac bc
       -0.58560073 1.5568826 0.5875927 -0.02105129
000130 1d 4d ec bd 93 ef 7c bf b0 c2 63 c0 37 b3 82 bf
       -0.11538146 -0.9880306 -3.5587578 -1.0210942
000140 6e 06 4d bf 66 97 5c be ab 4e 43 bf 79 5d 35 3f
       -0.80087936 -0.21542129 -0.7629191 0.7084575
000150 24 dd 3a be 60 c6 94 3e a0 3e 4e 3e ab 7f 75 3f
       -0.18248421 0.29057598 0.20141077 0.9589793
000160 62 91 12 3f 85 22 05 bf 3e 3b 4f bf 3b 6e d3 3f
       0.57253087 -0.520058 -0.8094977 1.6518015
000170 45 74 e3 bf 08 09 94 bf ed 6b 17 3f 42 61 44 3f
       -1.7769858 -1.1565256 0.59149057 0.76710904
000180 71 ff 3c c0 6e a7 b0 3f ca 62 82 3f 06 5a fb 3e
       -2.953091 1.3801095 1.0186398 0.4909212
000190 b3 20 4d 3e a0 8c 59 3f de ca 32 3f 05 c8 97 be
       0.20032005 0.849802 0.698408 -0.2964479
0001a0 18 ef f9 be b2 b8 8e 3f 87 c1 54 3e d5 7e c7 3e
       -0.48815227 1.1150115 0.2077695 0.38963953
0001b0 1f 00 a3 3d bf 65 b9 3f 19 0f 0b bf 94 24 81 bd
       0.079590075 1.4484175 -0.5431991 -0.06305805
0001c0 90 ad 0a c0 ed b7 b0 3e 91 03 f3 3e 15 c2 62 3f
       -2.1668434 0.34515324 0.47463658 0.88577396
0001d0 65 f0 64 3f a7 be 09 bf 19 6f 55 bf 6c 25 4a 3f
       0.8942931 -0.5380654 -0.83372647 0.7896335
0001e0 3f 78 3a bf 52 e3 1f 3f 51 53 8e 3f 4b f0 8b 3f
       -0.7283973 0.6245624 1.1119176 1.0932707
0001f0 b1 63 62 3f e1 bf 3c 3e 54 29 85 3e ab 48 95 3f
       0.88433367 0.18432571 0.26008093 1.1662802
000200 d8 6c 06 40 8b 73 6b 3f 53 bb 7a bf eb 15 7a bf
       2.1003933 0.9197318 -0.97942084 -0.97689694
000210 93 a0 1d bf b8 7a c2 3f 51 1b 1f be 21 af be 3e
       -0.6157314 1.5193701 -0.15537764 0.37242988
000220 e7 37 69 3f 5b ba ac 3e 22 16 bd bf 06 7b e6 3f
       0.91100925 0.33735928 -1.4772379 1.8006294
000230 ff 7a 87 bf 82 25 9a 3f 45 c3 c1 bf 72 f9 d9 3f
       -1.058441 1.2042696 -1.5137717 1.702925
000240 6c 7f bf bf b6 68 5a 3f d4 c5 2b 40 8c db e9 3f
       -1.4960761 0.85316026 2.6839495 1.8270125
000250 3a ee 94 3e cd b7 e8 bf 73 0e 0b c0 5c a0 01 3f
       0.29088002 -1.8181092 -2.172757 0.50635314
000260 ea ec 65 3f ea 71 17 3f 89 c4 22 bf 5e 61 3d 3f
       0.8981463 0.59158194 -0.6358114 0.73976696
000270 c3 ea 42 c0 f1 4b 63 bf d2 ca 01 c0 61 05 a7 3f
       -3.0455787 -0.8878775 -2.0280042 1.3048517
000280 ab 2e 3e c0 c6 ca bb 3e 03 0e 8d 3e 95 cb bf 3e
       -2.9715984 0.3667814 0.27549753 0.37460008
000290 40 a5 aa bd e3 c3 64 bf 20 19 57 bf 58 95 9c be
       -0.083323 -0.893614 -0.8402271 -0.3058269
0002a0 94 75 19 c0 c9 a6 fc 3f 1f 47 ed 3f 04 23 97 3e
       -2.3978014 1.9738399 1.853733 0.29518902
0002b0 99 ca b9 bf f8 6f 21 3f e7 00 14 3e 15 36 1b 40
       -1.4514953 0.63061476 0.14453469 2.425176
0002c0 d5 e6 d1 bf f1 fd 76 3f 8d ad 5b be 22 82 9c 3f
       -1.6398569 0.96481234 -0.21452923 1.2227213
0002d0 3e d5 b6 bf b8 43 e0 bf 25 ef 23 c0 03 d8 0e 3f
       -1.4283826 -1.7520666 -2.5614712 0.5579836
0002e0 29 e6 e2 bf 2d 08 81 bf 09 4e fa bf f5 8d 26 3f
       -1.7726489 -1.008062 -1.9555064 0.6506036
0002f0 99 09 84 3e af 6a 45 bf 0a b6 e9 be 1e 3a 9d 3f
       0.25788572 -0.7711591 -0.45646697 1.2283361
000300 cd ca 8d 3f 54 58 24 bf 29 96 de 3f 24 1f f8 3e
       1.1077515 -0.6419728 1.7389575 0.48461258
000310 e6 fa e5 bf 56 9b ae 3d e0 c7 45 bf 70 f6 d7 3f
       -1.7967193 0.08525722 -0.7725811 1.6872082
000320 f9 67 1f 3f da a0 1b 40 14 97 6c be 36 3f d3 bf
       0.62268025 2.4316926 -0.23104507 -1.6503665
000330 1c 81 ad be 46 a7 60 3f cc 1a 5f 3f 48 09 8b 3e
       -0.33887565 0.8775524 0.87150264 0.2715552
000340 5f 8a f2 bf cd ef a1 be 74 78 74 3e ea 9b bb 3f
       -1.8948478 -0.31628266 0.23874074 1.4656956
000350 b1 3c 5e bf 89 8c 47 3e d0 e6 fa bf a2 15 b9 bf
       -0.8681136 0.19487204 -1.9601688 -1.4459727
000360 27 bb 90 be 59 26 45 3f 54 2e e8 bf 39 d3 b5 3e
       -0.28267786 0.7701164 -1.8139138 0.35512713
000370 bf 72 f5 bf 58 fe 2c 3e 33 9c fc be 58 9a 86 3e
       -1.9175643 0.168939 -0.4933792 0.2628963
000380 1e 95 ce bf 68 20 0e 40 82 a9 b4 3f e3 b6 fb 3f
       -1.6139257 2.220728 1.411423 1.9665188
000390 cd 4c 37 3f e4 d2 4f bf cb 71 2b bf 9f 41 64 3f
       0.71601564 -0.8118117 -0.6697051 0.8916263

lstm.weight_ih_l0 f4 [512, 15]
000000 63 4e 40 bc 66 95 c4 3d be 05 11 3d ee 46 b8 be
       -0.011737439 0.09598808 0.035405867 -0.35991615
000010 23 0a 2a be a8 2e 36 be 64 c4 91 be 0b 7d 56 3f
       -0.1660543 -0.17791235 -0.28470147 0.8378455
000020 44 67 1d be a6 fd d5 3e f4 53 ea be b9 ef c0 bd
       -0.15371424 0.4179508 -0.45767176 -0.094207235
000030 fe f4 83 bf 36 09 89 3e 21 60 d7 3f 12 21 0d bd
       -1.0309141 0.2676484 1.6826211 -0.034455366
000040 36 85 60 3d 3a e4 fe 3d c5 87 a3 be 80 7b 07 be
       0.05481454 0.124458745 -0.3193952 -0.13230705
000050 e0 ec 63 be a2 54 89 be 90 71 79 3f 1e 61 8d be
       -0.2225833 -0.26822382 0.9743891 -0.27613157
000060 1f 54 01 3f 23 da d8 be 4d 45 d6 bd be 60 7d bf
       0.50518984 -0.42353925 -0.10462437 -0.9897574
000070 58 7b 09 3e c6 c3 d2 3f 40 7c c6 3d 18 f0 07 bd
       0.13425958 1.6465995 0.096916676 -0.033187956
000080 03 39 8f 3d 72 43 0f be 1d 10 1e 3d 36 2b 64 be
       0.06993296 -0.13990572 0.038589586 -0.22282109
000090 5c 5c bd bd 33 0b a5 3e 6f 3c d6 bd 5b 2f c8 3e
       -0.09246132 0.32235107 -0.104607455 0.3909863
0000a0 fc e6 e6 be 74 f0 8c be 30 ed 37 bf 87 ef 0f 3c
       -0.45098102 -0.275272 -0.71846294 0.008785135
0000b0 b3 20 48 3f 8f b2 1d bd 2a 96 ec 3d ae ef 91 3d
       0.78174895 -0.038500365 0.11552079 0.071257934
0000c0 ff c0 11 bf 33 4c a2 be fc 13 ed bd f0 8c b3 be
       -0.56935114 -0.3169876 -0.11576077 -0.35068464
0000d0 93 16 39 3f 93 44 84 be fc 9a 10 3f 5b ba 16 bf
       0.7230007 -0.25833568 0.5648649 -0.58878106
0000e0 32 83 1d 3e 68 3c 77 bf e7 5b de 3e 5a 8b be 3f
       0.15382078 -0.9657655 0.4342949 1.4886277
0000f0 83 95 3d 3e 63 dc 56 3e b5 dc 69 3e 70 be cc 3f
       0.18514065 0.20982508 0.228381 1.5995617
000100 94 0a f5 3f 1a da 82 3d 06 d1 73 be 1a de b7 3f
       1.9143853 0.06389256 -0.23810205 1.4364655
000110 31 34 22 3f 07 6c f3 3d 30 31 b0 3e c0 a1 20 3e
       0.6336089 0.11885839 0.34412527 0.15686703
000120 12 d2 c8 be 3b 7a b8 3e 26 79 49 3f 1f fc d4 3d
       -0.3922277 0.36030754 0.7870048 0.10399651
000130 e6 04 13 3d 4a 49 4c 3d 5d 2f 0a bf 2f a1 94 be
       0.035893343 0.04987458 -0.5397852 -0.29029223
000140 8e 3b e4 bd 8f 1a b8 be 5f 1d 43 3f 32 a3 52 be
       -0.11144172 -0.35957763 0.7621669 -0.20570067
000150 90 c4 0f 3f 66 ce 0b bf 11 42 04 3e dd 63 80 bf
       0.56159306 -0.54611814 0.12915827 -1.0030476
000160 77 01 cb 3e 96 ee c3 3f 82 8f f5 3a 1f 8f 70 3d
       0.39649555 1.5307186 0.0018734785 0.05873024
000170 47 db aa 3d 1d 1f b1 be 7d 00 55 be b6 47 42 be
       0.08342605 -0.3459405 -0.20800968 -0.18972668
000180 85 3d a9 be 02 83 51 3f 96 3d 41 bd 90 16 cb 3e
       -0.33054748 0.8184053 -0.047177874 0.3966565
000190 d0 83 f3 be 51 b0 a4 bd 49 00 7f bf 8c 0d 8f 3e
       -0.47561502 -0.08041442 -0.9960981 0.27940023
0001a0 de ac cc 3f 04 17 9f 3d 90 3f 2a bd 86 4a a3 3d
       1.5990255 0.07768062 -0.041564524 0.079731986
0001b0 43 6b c3 be ec ce eb bd 41 ac 01 be 02 cd 87 be
       -0.38167772 -0.115140766 -0.12663366 -0.26523596
0001c0 3c 92 35 3f 07 18 35 be e1 f8 d8 3e 6b 1e e9 be
       0.7092626 -0.17684947 0.4237738 -0.4553102
0001d0 e8 4e e2 bd 9b 03 83 bf cc fb 8c 3e e4 32 b1 3f
       -0.110502064 -1.0235475 0.27535856 1.3843656
0001e0 9e 19 5b 3e e3 09 93 3e a3 ec 94 3e 93 b7 02 40
       0.21396491 0.2871848 0.2908679 2.0424545
0001f0 c5 46 dc 3f 71 cd cb 3d 32 73 e5 be 3c 85 3d 3f
       1.7209097 0.09951294 -0.4481445 0.74031425
000200 ad 89 92 3e 38 01 62 3f ac 98 9e be 45 bd 20 3f
       0.28620663 0.8828311 -0.30975854 0.627888
000210 da 2d 99 be 8b 18 a7 3f d7 47 71 3f 43 ff 87 3d
       -0.29917794 1.3054365 0.94250244 0.06640484
000220 1f 30 b7 3b 07 c5 d3 3d 6c bb b0 be 98 7d b3 bd
       0.0055904533 0.10340314 -0.34517992 -0.087641895
000230 a2 b8 52 be 90 84 92 be 06 c0 6d 3f a7 08 8a be
       -0.20578244 -0.28616762 0.9287113 -0.26959726
000240 bd 5e df 3e bb aa ff be b3 4b e3 bd df c2 83 bf
       0.43626967 -0.49934945 -0.11098423 -1.0293845
000250 c4 63 17 3e ec 88 c1 3f 4c 04 60 3d 5d 9c 87 3c
       0.14784151 1.511991 0.054691598 0.016554052
000260 a8 61 58 3d 07 97 b5 be be cb 3e be d7 14 1f be
       0.052827507 -0.35466787 -0.18632409 -0.15535294
000270 47 c8 81 be 0a d6 58 3f 5e 60 30 be 1f fa f2 3e
       -0.25348112 0.847016 -0.17224261 0.47456452
000280 7e ab d9 be b5 d1 70 bd 71 16 86 bf e4 b0 7d 3e
       -0.4251365 -0.058793742 -1.0475599 0.2477451
000290 a3 1f d4 3f 6b 0a 13 3c ce ce 9b 3d 91 f5 60 3c
       1.6572155 0.008974652 0.07607804 0.013730423
0002a0 0b f7 12 bf 0b ab 9f be 8f 8f 0a be b7 f9 9f be
       -0.5740821 -0.31185183 -0.13531326 -0.31245205
0002b0 c7 f7 35 3f 52 ef 95 be ad 14 08 3f f6 fd 18 bf
       0.71081203 -0.2928415 0.5315655 -0.59762514
0002c0 b8 f3 2d 3e ce aa 7b bf 97 94 d5 3e e8 07 bd 3f
       0.16987503 -0.983075 0.41714928 1.4768038
0002d0 85 46 02 bd 01 da 49 3d 0a 3a ba 3d 41 d2 b6 be
       -0.031805534 0.04928017 0.09093101 -0.35707286
0002e0 3c 89 35 be 8e 6d 1f be 3f 15 96 be f8 86 60 3f
       -0.17728132 -0.15569136 -0.29313084 0.87705946
0002f0 f6 1a 4b be 49 19 dd 3e 7d 80 ee be ab ee bb bd
       -0.19834504 0.43183354 -0.46582404 -0.09176382
000300 db ba 84 bf c9 fa 92 3e 97 41 cc 3f bf 65 88 3d
       -1.0369524 0.2870696 1.5957516 0.066600315
000310 84 cf df 3d f1 b1 47 3c cd 4e 05 bf 6d 80 32 be
       0.10928252 0.012188421 -0.52073365 -0.17431803
000320 70 36 cf bd d3 19 a8 be 61 0f 45 3f fe d2 68 be
       -0.10117805 -0.32832202 0.7697659 -0.22736737
000330 74 e5 03 3f 0e f5 0b bf 27 02 2a 3d 19 6d 87 bf
       0.5152199 -0.546708 0.04150596 -1.0580169
000340 a4 27 ad 3e a1 0e c3 3f 7a 74 15 3d 78 99 cf bb
       0.33819306 1.5238839 0.036488034 -0.0063354336
000350 a6 92 8e 3d 63 c7 d8 be a8 33 48 bd 64 2a 1d be
       0.06961565 -0.4233962 -0.04887739 -0.15348202
000360 07 18 84 be 8d fe 3e 3f e1 a3 9f be ae 5d d2 3e
       -0.2579958 0.74607164 -0.31179717 0.41087097
000370 47 e2 00 bf ce c6 1c be 7e 18 84 bf ac 10 94 3e
       -0.5034527 -0.15310213 -1.0319974 0.2891897
000380 3e 1c c1 3f 7d d5 35 3c 1a 68 1e 3b 63 2f f3 3d
       1.5086744 0.011098263 0.0024170936 0.11874273
000390 7a 28 e7 be 77 9d 45 be 67 9f 13 be 02 b0 9d be
       -0.4514807 -0.1929835 -0.14416276 -0.30798346
0003a0 a2 1c 49 3f 19 1d 76 be d7 28 04 3f df 1e ef be
       0.78559315 -0.24034537 0.51624817 -0.4670324
0003b0 3b d8 dd bc e1 73 85 bf bf ca a7 3e 06 72 c3 3f
       -0.027080646 -1.0425988 0.3277187 1.5269172
0003c0 ea 2f 3f 3d 0d e6 a4 3d 94 ba 35 3d bc ab da be
       0.046676554 0.08051691 0.044367388 -0.42709148
0003d0 38 7b 4b be 2f 2d 1c be f9 d5 9b be 74 11 57 3f
       -0.19871223 -0.15251611 -0.30436686 0.84011006
0003e0 e7 b1 56 be 4c de 0a 3f 50 5c f5 be de eb dd bc
       -0.20966302 0.5424545 -0.4792199 -0.02709001
0003f0 a7 93 83 bf 89 3b 86 3e 6e 5c cb 3f 33 fd 9f 3c
       -1.0279435 0.26217297 1.5887582 0.019529914

lstm.weight_hh_l0 f4 [512, 128]
000000 86 71 8e 3d 64 25 93 bd 9d b1 42 3c 1f 65 0a bd
       0.069552466 -0.07184866 0.011883167 -0.033787843
000010 36 13 1a bc 00 a7 00 bc 9e 6f 0c bd 61 14 a7 3c
       -0.009403994 -0.007852316 -0.034286134 0.02039546
000020 56 20 ab 3c 46 e7 4f bd 90 71 5e 3d 76 4b a3 3d
       0.020889442 -0.05075767 0.05430752 0.079733774
000030 b3 f3 15 bd e3 95 93 3c b5 0e 06 bd b3 2b 78 3d
       -0.036609363 0.018015807 -0.03272887 0.06058855
000040 24 93 e0 bb 3a 66 a1 bd 16 7e a8 3c fc 01 96 3d
       -0.006853478 -0.07880826 0.020567935 0.07324597
000050 1f 02 b5 39 c0 6e b9 bc 09 eb 1e bb bc 00 4d 3d
       0.0003452459 -0.022635818 -0.0024248979 0.05004953
000060 40 40 9b 3d 41 35 b5 bc 1b dc 40 3d 1b ba 49 3d
       0.07580614 -0.02212012 0.04708491 0.04924975
000070 61 ba a1 3d 58 af 81 3d 37 82 95 bd d1 8c 95 bd
       0.07896877 0.06332272 -0.07300227 -0.07302249
000080 ba 38 96 bd c7 7d 63 3d da d8 37 bd 37 fb 47 3d
       -0.073350385 0.055539872 -0.04488454 0.04882356
000090 c2 9f 57 bc f4 2d 15 bd ec 36 88 3d 75 d9 8b bc
       -0.013160648 -0.036420777 0.066511005 -0.017071465
0000a0 64 62 43 bd 22 f1 5d bc 7f 42 66 bd c6 4c ae bd
       -0.047701254 -0.01354626 -0.05621576 -0.08510737
0000b0 2a ba 7d bc 7d 10 a3 bb 3c 5a 4e bd 3c 70 a0 3d
       -0.0154862795 -0.004976331 -0.050379023 0.07833907
0000c0 cc c3 a1 bc cf eb b7 bc b6 74 8f 3d 33 26 21 3c
       -0.019746684 -0.02245131 0.07004683 0.009835768
0000d0 38 55 aa bc 0e 7e a6 3c d5 8d a3 bd f6 f6 b1 3d
       -0.020792589 0.02032378 -0.07986037 0.08689682
0000e0 a2 00 bf 3c 22 a7 fe 3c d3 82 85 bd de 65 8a 3d
       0.023315731 0.031085555 -0.06519093 0.06757711
0000f0 eb c6 94 bd dc 9b fb bc af 23 68 bd 55 d7 36 bd
       -0.07264503 -0.030713968 -0.056674656 -0.04463895
000100 03 85 9a 3c ea 84 b3 bd b7 36 b1 bd 66 69 a5 3c
       0.018862253 -0.08765586 -0.08653014 0.02019186
000110 31 a4 ee 3c 52 10 a6 3a e4 8a 09 bd e0 8b ca bc
       0.029131027 0.0012669659 -0.033579722 -0.0247249
000120 34 01 48 bc b2 cf 92 bc 2d f9 5f bd 12 41 88 3d
       -0.012207318 -0.017921302 -0.054680992 0.06653036
000130 d5 8c 92 3c 03 37 72 bd f0 2a 93 bc 43 fc 82 bd
       0.01788942 -0.059134495 -0.01796481 -0.06395771
000140 71 87 53 bd 7e 7e 89 3d 09 0b dd 3c c1 9a 1e 3d
       -0.05164284 0.067135796 0.026982801 0.038721804
000150 af e2 3b bc 3f ad b4 bc 24 30 3b 3c a9 99 80 bd
       -0.01146762 -0.022055266 0.011425052 -0.06279308
000160 59 1e b4 bd 40 85 7e 3d 3e 17 ec 3a fd 98 5b 3d
       -0.08794851 0.062138796 0.0018012298 0.053612698
000170 fb 33 88 3d 56 59 1e 3d cb 7b f7 bc a4 c7 84 bc
       0.066505395 0.038659416 -0.030210396 -0.016208477
000180 98 28 97 bb a7 40 ad 3b 68 4f 61 3b cc 85 8d bd
       -0.0046129934 0.005287248 0.0034379605 -0.06910285
000190 c8 03 47 bd a7 ea 83 3d f5 69 39 3b d9 24 24 bd
       -0.04858759 0.06441241 0.0028291915 -0.040074203
0001a0 35 c5 74 3d 9c e6 d6 bc 20 42 13 bd 06 07 7d 3d
       0.059758384 -0.02623301 -0.035951734 0.061774276
0001b0 c3 d0 8e bd b6 61 2d bd f0 fe 88 3d bd 99 0d bc
       -0.06973412 -0.042329513 0.066892505 -0.008642611
0001c0 ec 4a 15 bd ac 34 96 3d 33 5d 5c 3c 2c 14 aa bd
       -0.036448404 0.07334265 0.013449955 -0.08304629
0001d0 e8 db 85 bd c4 8d b7 bc 76 f2 9e bb aa 4a 88 bd
       -0.065360844 -0.022406466 -0.004850681 -0.06654866
0001e0 54 6d 08 bd a9 c5 f4 3c 3a d0 a8 bd 66 a3 a9 bd
       -0.03330739 0.029879408 -0.08242841 -0.08283119
0001f0 88 40 bc 3c 0e 32 8a 3c fa cf ae bd 7b 6d a8 bd
       0.02297999 0.016869571 -0.08535762 -0.08224007
000200 11 68 96 3d 05 a8 b4 3d ec 3a 1e bd 76 51 b4 3d
       0.07344068 0.0882111 -0.03863041 0.088046
000210 2d 0c 7a 3d 2b e8 a0 3d 38 c9 1b bd 5d 31 b1 bc
       0.061046768 0.078567825 -0.038033694 -0.021629984
000220 bf 72 55 3d 8b 49 06 3d b3 79 90 bd f5 aa 58 3d
       0.052111384 0.03278498 -0.07054462 0.052897412
000230 5c 86 b0 3d 87 ea 65 bd 4b 11 a8 bd e4 6e ac bd
       0.08619377 -0.056131866 -0.08206423 -0.08419588
000240 56 0d 65 bd 75 6e 1f bd 33 99 4c bd 0e 8b 9e bd
       -0.05592092 -0.0389237 -0.04995079 -0.07741366
000250 2a 1d 62 3d 9c 0b b1 3d 23 8d 97 3d 6c b5 62 3d
       0.055203594 0.086447924 0.073999666 0.0553488
000260 09 be 20 3d b4 ba 0e bd 98 13 92 bd 57 d4 55 bd
       0.03924373 -0.034846023 -0.071326435 -0.052204456
000270 88 ec 23 3d ac 6a 9e 3c 1d e0 38 3c b4 b9 5b bd
       0.040020496 0.019337974 0.0112839015 -0.053643897
000280 97 54 2a bd 59 af 18 bd 53 d3 37 bc b9 a1 88 bc
       -0.041584577 -0.0372766 -0.011219817 -0.016678678
000290 9b 24 19 3c 80 20 f1 bc 18 17 24 bc 33 42 66 bd
       0.009347106 -0.029434443 -0.010015272 -0.056215476
0002a0 79 e7 32 3d c8 6f 96 bd a4 2a 84 3c 31 37 ac bd
       0.04367778 -0.07345539 0.016133614 -0.084089644
0002b0 f3 76 4e bd 66 07 af 3d 7d 7d 87 bc 57 04 85 bc
       -0.050406408 0.08546333 -0.01653933 -0.016237421
0002c0 25 c5 3a 3d a4 29 9c bd fc cc a6 bc 00 71 3a bb
       0.045598168 -0.0762513 -0.020361416 -0.00284487
0002d0 17 fd 22 3c 67 d4 6f bc 67 61 7f bd 78 e8 a5 bd
       0.009948037 -0.014638043 -0.06234875 -0.081009805
0002e0 79 be 79 3a e5 29 97 3d 20 85 22 bd 92 16 37 3c
       0.0009526979 0.073810376 -0.03967774 0.011174815
0002f0 f4 20 66 3d c2 dd b0 bd 74 30 a0 3d 97 e3 98 3d
       0.05618377 -0.08636047 0.07821742 0.07465284
000300 cc 60 1e bd 05 c9 9d 3d 1a 4f 77 3d e3 5f 96 3d
       -0.03866653 0.07704357 0.06037817 0.07342508
000310 22 c5 9c 3d fa 0d a6 3c 41 ef 46 3d 6c da 41 bd
       0.076547876 0.020270336 0.048568014 -0.047327444
000320 5a 34 73 3c d9 96 ad 3d d5 82 f9 bc a0 a2 aa 3c
       0.014844025 0.084760375 -0.030457893 0.020829499
000330 aa fa 38 bd 50 d1 05 3d d7 c1 eb 3c 80 aa 88 3d
       -0.045160927 0.03267032 0.028778953 0.06673145
000340 60 7f ff 39 8f db 2c 3d 50 7d 5b 3d b3 33 69 3c
       0.00048732292 0.042201575 0.053586304 0.014233517
000350 1c c4 aa bd 15 58 80 3d 50 d2 67 bd fb b4 27 3d
       -0.08338186 0.062668 -0.056597054 0.04094408
000360 a8 6f 87 bd 04 e9 d2 3c 39 81 87 bc d5 1b a2 bd
       -0.066130936 0.025745876 -0.01654111 -0.07915465
000370 81 50 25 3d aa 7a a8 bc f4 a4 16 bd 17 fa e0 bc
       0.040359978 -0.020566303 -0.036778405 -0.027463002
000380 ad 29 76 3d 74 bb 54 3d ba 40 c5 3c dd 7c 17 3d
       0.06009834 0.05193658 0.024078716 0.036984313
000390 85 f5 39 3d 35 c7 15 3d a8 22 9a 3d cb ff 59 3d
       0.04540016 0.03656693 0.075261414 0.05322246
0003a0 b3 4d 3a bd e8 90 5c bc 48 db 28 3d c9 05 90 3d
       -0.045484256 -0.013462283 0.041224748 0.070323534
0003b0 33 6b 96 bd b2 8f 33 bd 9f 8b 33 bd 24 f9 aa 3d
       -0.073446654 -0.04383821 -0.043834325 0.08348301
0003c0 2a ac b1 3d 77 d3 21 bd 57 c3 df bc 3a 66 cd 3a
       0.08675416 -0.03950831 -0.027314825 0.0015670725
0003d0 ae 99 a9 3b ce 5d ce bc 13 10 84 bd bc ad 40 bd
       0.0051757907 -0.025191214 -0.064483784 -0.047040686
0003e0 56 ab f1 bb 0f c1 1c 3c 10 48 5e 3b f5 3a a6 bd
       -0.007375161 0.009567513 0.0033917464 -0.08116714
0003f0 36 48 a0 3d 51 e1 52 bd 0a 4b b1 bc 50 eb a7 3d
       0.07826273 -0.05148441 -0.021642227 0.08199179

lstm.bias_ih_l0 f4 [512]
000000 ce 0d 58 40 64 fb 53 40 9e 90 ed 3f 30 1e 47 40
       3.3758426 3.3122187 1.8559759 3.1112175
000010 fb e2 5e 3f d4 f3 4a 40 ed ef 48 40 3f 93 42 40
       0.87065095 3.171132 3.139644 3.0402372
000020 4e b4 0f 3f f9 2d 45 40 25 f6 57 40 30 6f 4a 40
       0.561345 3.080931 3.3743985 3.1630363
000030 cd 8c 55 40 be 81 49 40 a4 55 46 40 1f 61 50 40
       3.3367188 3.1485438 3.098977 3.2559278
000040 e7 d5 51 40 01 19 4e 40 8f 9a 51 40 47 6b 0d 40
       3.2786806 3.220276 3.2750585 2.2096727
000050 3b 43 4d 40 79 37 5d 40 0e 94 4b 40 f1 b0 44 40
       3.2072284 3.4565108 3.1809115 3.0732996
000060 70 99 0f 40 dc 62 49 40 e4 d2 48 40 72 98 53 40
       2.24374 3.146659 3.1378717 3.3061795
000070 ef b6 3a 40 b6 ad 5c 40 27 a0 55 40 4e aa 4d 40
       2.9174154 3.4481025 3.3379 3.2135196
000080 29 ab 4e 40 62 2a 01 40 e5 90 33 40 b5 9d 45 40
       3.2291968 2.0182118 2.8057187 3.0877507
000090 f6 bd 30 40 8d b5 4b 40 0b 99 40 40 e0 00 5a 40
       2.7615943 3.182956 3.009341 3.4063034
0000a0 2d f2 4a 40 f4 21 44 40 13 1e 46 40 ec 0a 39 40
       3.1710312 3.0645723 3.0955856 2.8912916
0000b0 e7 6c 47 40 4e de 33 40 de c2 45 40 5b af 40 40
       3.1160219 2.8104434 3.0900187 3.0107028
0000c0 c1 98 4e 40 2e ca 4e 40 13 89 2f 40 63 53 3d 40
       3.2280734 3.23109 2.7427413 2.9582145
0000d0 80 07 51 40 0f 3f 35 40 79 fe 06 40 95 ed 0d 3f
       3.2660828 2.8319738 2.1092818 0.55440646
0000e0 22 bf 43 40 3a 68 51 40 9e 9b 4d 40 4d 94 3e 40
       3.0585408 3.2719865 3.2126231 2.9778016
0000f0 26 a2 59 40 ec 14 31 40 8e a9 49 40 97 64 4d 40
       3.4005218 2.766902 3.1509738 3.2092645
000100 86 05 52 40 6b 76 21 40 d7 2d 54 40 0e 6f 4f 40
       3.2815871 2.5228527 3.3152978 3.2411532
000110 32 0a 26 40 50 83 3f 40 0c 39 4d 40 15 61 e9 3f
       2.5943723 2.9923897 3.2066069 1.8232752
000120 e3 ec 4f 40 6d f9 53 40 df e8 5e 40 ed f6 3d 40
       3.2488334 3.3120987 3.4829633 2.9681962
000130 53 31 46 40 18 55 42 40 ab 77 31 40 6e 32 50 40
       3.0967605 3.0364437 2.772929 3.253078
000140 d3 eb 42 40 4e 2d 4a 40 08 33 4c 40 24 a3 3b 40
       3.0456436 3.1590152 3.1906147 2.9318323
000150 44 bf 51 40 d2 a6 40 40 07 69 39 40 19 9d 52 40
       3.277299 3.010182 2.8970354 3.2908385
000160 52 9e 3f 40 9d f3 37 3f 98 f9 3e 40 8b 14 48 40
       2.994038 0.718561 2.983984 3.1262538
000170 ff 22 45 40 7f 9a 24 40 ec c7 51 40 13 25 56 40
       3.080261 2.5719297 3.2778273 3.3460128
000180 09 54 4d 40 28 bc 14 40 a2 8b 55 3f 57 3a 4d 40
       3.208254 2.3239841 0.8341619 3.2066858
000190 80 5f 46 40 ef 24 4f 40 ac d2 43 40 30 d0 51 40
       3.0995789 3.2366292 3.0597334 3.2783318
0001a0 7c 5e b9 3f a8 d5 20 40 49 a5 54 40 60 1c 58 40
       1.4481959 2.5130405 3.3225882 3.3767319
0001b0 ee ef 4b 40 fa 7f 42 40 dd 5b 47 40 5e 4f 49 40
       3.1865191 3.039061 3.114982 3.1454692
0001c0 c2 ae ee 3f 23 14 52 40 8e 61 2c 40 8c 10 42 40
       1.8647082 3.282479 2.6934543 3.03226
0001d0 a5 a1 4a 40 5b 89 4b 40 cd 47 3e 40 a0 d8 5c 40
       3.166116 3.1802585 2.9731324 3.4507217
0001e0 e0 b0 3e 40 27 25 52 40 2b d9 4c 40 09 c8 54 40
       2.9795456 3.2835176 3.200755 3.3247092
0001f0 0a 53 4f 40 a1 ac 4d 40 30 6f 42 40 c5 65 47 40
       3.2394433 3.2136614 3.0380363 3.1155865
000200 5d 29 98 bd e9 91 b2 bd d0 27 62 3d c9 45 80 bd
       -0.074297644 -0.087192364 0.05521375 -0.062633105
000210 c1 ee 66 bd aa 9e 9a bc a4 8c a1 3b 4a 2a 25 bc
       -0.056380037 -0.018874485 0.0049300957 -0.010080883
000220 a3 8b 1f bc 1a 74 5e 3d 7f 32 a0 3d 66 5b 75 3d
       -0.009737882 0.05430994 0.07822131 0.059901617
000230 4f cc ca bb 0d d5 4c 3d 6c 9d 93 bc 4e cb 26 3d
       -0.0061889063 0.05000787 -0.0180194 0.04072123
000240 46 c4 14 3d f9 59 88 bc 90 a5 65 bc db 15 ce 3b
       0.036319993 -0.016644465 -0.014016524 0.0062892265
000250 78 6f 28 3d 57 82 09 bc 92 59 a1 3d 33 ab 95 bd
       0.04112193 -0.008392892 0.07878412 -0.07308044
000260 db e8 9c bc 35 d4 01 bd 05 be cd bc 20 6a 97 bd
       -0.019154003 -0.031696517 -0.025115022 -0.073932886
000270 b8 fc b3 3d 98 17 a7 bd 7f 9b 86 bd 88 5c 89 bc
       0.08788437 -0.08158797 -0.06572627 -0.016767755
000280 ca 29 21 3d 92 6b eb 3c 9a 89 78 bc ab 45 3a 3d
       0.039346494 0.028737817 -0.0151695255 0.045476597
000290 f5 4d 8a bd b2 73 38 bd 05 7d b2 3c 58 bc a2 bc
       -0.067531504 -0.04503221 0.02178813 -0.0198652
0002a0 2d 04 61 bd 55 bd 8b bd aa d6 ad bd 2a e7 66 bd
       -0.054935623 -0.068232216 -0.084882095 -0.0563728
0002b0 ad 4d 04 bd d2 d7 9a bd b2 b5 43 3b fd cd ec bc
       -0.03230064 -0.07560696 0.0029862938 -0.028906817
0002c0 3c 0b 8c 3d 16 91 d7 ba 41 58 82 3d 76 da 95 3d
       0.0683808 -0.0016446437 0.06364489 0.07317059
0002d0 ec dc a1 3d a7 a5 0f 3d 5f 7a 57 bc 06 15 68 bd
       0.07903466 0.035070088 -0.013151734 -0.056660675
0002e0 2e 18 45 3d 62 a5 1c 3d 62 9c ab 3d a2 52 a8 bd
       0.048118763 0.03824366 0.08379437 -0.08218886
0002f0 6b 8c 45 bd 6c 91 df 3c 37 b9 9a bd 49 06 40 bd
       -0.048229616 0.027291022 -0.07554858 -0.046880994
000300 41 c0 72 bc c0 af b7 3c b1 36 2a 3d 0a 19 9a bd
       -0.014816345 0.022422671 0.041556064 -0.07524307
000310 2e 3e 9e 3d 32 20 07 bb 2e 34 b0 3d 5d 53 7a 3d
       0.077267036 -0.0020618555 0.086037025 0.061114658
000320 63 8f 31 3d 8c c0 6f bd 89 7f 41 3d b7 9f 29 3d
       0.043349635 -0.058533236 0.047240768 0.04141208
000330 ad 3b 58 3d 7a b2 5b 3d 1d d7 7d 39 51 b6 b6 bc
       0.052791286 0.053637005 0.00024208096 -0.022303732
000340 12 b7 68 3c 4f 81 59 bd ab 26 89 3d 2c 5f 63 bd
       0.014203804 -0.053101834 0.066968285 -0.055510685
000350 3d ed 7c 3d 99 1c ac bc 1a 22 36 3d b3 04 d8 ba
       0.061749686 -0.02100973 0.044466116 -0.0016480893
000360 f7 b2 fc 3c 9b 68 57 3c 5a ed c0 bc 1f bb 82 3c
       0.030847056 0.0131474985 -0.023550678 0.015958367
000370 4e 24 4e 3d d2 ba b3 bd 6b b6 c0 bc 22 9a 3e 3d
       0.05032759 -0.087758675 -0.023524484 0.04653371
000380 f5 1b ad bd 5d 10 bb 3b fa f7 bd 39 c0 ea ae 3c
       -0.08452598 0.0057087378 0.00036233646 0.021352172
000390 60 8e 9f bb f2 4f 31 bd 26 e0 80 bd 2d 7f 75 3d
       -0.0048692673 -0.043289132 -0.06292753 0.059935737
0003a0 05 c9 a5 3d 37 3e 8f bd 0c 01 a7 3c 90 ac 68 bd
       0.08094982 -0.069942884 0.020386241 -0.056805193
0003b0 72 c0 83 3d a2 38 40 3d c4 fb 3f 3d 1f 4b 76 3c
       0.064331904 0.04692901 0.04687096 0.015032559
0003c0 fc a8 e2 bc 3d dd ac 3d c0 0a 50 bd d0 6e a1 3d
       -0.027668469 0.08440635 -0.050791502 0.07882464
0003d0 09 15 9a bd cb e4 00 3d 48 6f 8c 3d 14 5d 21 bd
       -0.075235434 0.031468194 0.06857163 -0.039395407
0003e0 85 97 78 bd 75 17 7c 3d 96 60 9f 3d 80 4b 6d bd
       -0.060691375 0.061545808 0.07782094 -0.05793333
0003f0 80 98 83 bd d0 5b 63 3c 7a dc 98 bd 7a 8d a9 3d
       -0.064255714 0.01387687 -0.074639276 0.08278938

lstm.bias_hh_l0 f4 [512]
000000 0a ec 5f 40 e2 d4 4f 40 96 0b ea 3f bc ae 45 40
       3.4987817 3.2473683 1.8284786 3.08879
000010 37 24 50 3f 0c 85 4e 40 55 31 49 40 4f 57 3d 40
       0.8130526 3.2268705 3.143636 2.958454
000020 68 e7 ea 3e c2 dd 4b 40 9b fb 58 40 62 a3 47 40
       0.45879674 3.18541 3.3903568 3.119347
000030 fc 99 53 40 5e d8 4a 40 d8 7d 44 40 65 a1 4a 40
       3.3062735 3.169456 3.070181 3.1661007
000040 3d 57 57 40 de 21 47 40 4f e2 57 40 fb 8a 0d 40
       3.3646996 3.111442 3.3731878 2.2116077
000050 2d d7 51 40 2d e4 60 40 2e 52 48 40 39 32 3c 40
       3.2787583 3.5139267 3.1300159 2.9405653
000060 74 db 14 40 00 2a 4a 40 b3 09 47 40 03 8c 50 40
       2.3258944 3.1588135 3.109967 3.2585456
000070 67 6c 37 40 2e a9 58 40 37 ba 57 40 be b3 46 40
       2.8659914 3.385326 3.3707407 3.1047206
000080 23 87 4c 40 a7 87 fc 3f b7 cd 33 40 e7 34 4e 40
       3.195748 1.9728898 2.8094308 3.221979
000090 6a 3f 35 40 55 bb 4f 40 44 fd 43 40 03 7d 50 40
       2.8319955 3.2458088 3.062333 3.25763
0000a0 cf 3c 49 40 a5 19 43 40 35 71 43 40 c8 69 3e 40
       3.1443365 3.0484402 3.0537846 2.9752064
0000b0 07 0c 45 40 5b d6 32 40 22 a4 40 40 29 43 46 40
       3.078859 2.7943332 3.0100179 3.0978491
0000c0 c4 30 52 40 30 96 4b 40 73 32 2e 40 dd a8 3f 40
       3.2842264 3.1810417 2.7218292 2.9946816
0000d0 62 9c 4d 40 a1 2d 39 40 a8 7c 0a 40 11 37 1f 3f
       3.2126698 2.89341 2.1638584 0.621934
0000e0 c2 72 45 40 8e 6f 4d 40 75 3d 4f 40 ff b0 44 40
       3.0851293 3.2099338 3.238126 3.073303
0000f0 c6 4a 59 40 20 43 32 40 c2 50 4b 40 dd 86 48 40
       3.3951888 2.785347 3.176804 3.1332314
000100 08 73 57 40 2b d8 19 40 71 a5 55 40 e2 f5 49 40
       3.366396 2.4038188 3.3382227 3.1556325
000110 ab 2f 2c 40 06 fa 44 40 bf 71 4c 40 a5 83 dd 3f
       2.6904094 3.0777602 3.1944425 1.73058
000120 bd f0 4e 40 87 e4 52 40 97 af 5e 40 55 d8 40 40
       3.2334435 3.2951982 3.4794672 3.0132039
000130 2f ae 44 40 9e 22 43 40 5d 39 2e 40 2c b8 50 40
       3.0731313 3.0489879 2.7222512 3.261241
000140 37 30 44 40 38 02 49 40 ae a8 54 40 1e 64 3d 40
       3.0654428 3.1407604 3.3227954 2.9592357
000150 0e f8 4e 40 78 85 43 40 7d fc 38 40 95 4d 50 40
       3.23389 3.0550213 2.8904107 3.2547352
000160 a6 c1 3d 40 d3 27 3e 3f 76 19 39 40 3d 48 45 40
       2.9649444 0.74279517 2.892179 3.082534
000170 cb b7 45 40 bd 92 25 40 44 c2 48 40 04 ac 59 40
       3.0893428 2.5870812 3.136857 3.401124
000180 63 e6 4c 40 42 d9 0e 40 61 69 42 3f 25 8b 52 40
       3.2015617 2.2320104 0.75942045 3.2897427
000190 53 4d 43 40 9b b2 4b 40 88 06 49 40 3e ad 4f 40
       3.0515945 3.1827762 3.1410236 3.2449489
0001a0 db 7e b2 3f 9e 5c 21 40 2c 09 4c 40 1a 41 53 40
       1.3944963 2.521278 3.1880598 3.3008485
0001b0 5a 24 46 40 08 f5 3d 40 9a 82 4e 40 ca 90 4d 40
       3.0959687 2.9680805 3.2267213 3.2119622
0001c0 38 98 00 40 5e ca 54 40 b6 9b 2d 40 26 d7 42 40
       2.0092907 3.3248515 2.7126288 3.0443816
0001d0 77 f0 4b 40 19 bf 52 40 f0 83 47 40 21 77 5c 40
       3.1865518 3.2929137 3.1174278 3.444771
0001e0 ed 8e 43 40 f5 e2 4d 40 d7 93 52 40 df ee 51 40
       3.0555985 3.2169774 3.2902734 3.2802045
0001f0 6d c6 50 40 3f 39 4a 40 38 7c 41 40 d1 9a 48 40
       3.262111 3.159744 3.0232067 3.1344492
000200 00 cc 87 3c d8 0b 7a bd 88 5f a7 3c 04 56 a7 3d
       0.016576767 -0.06104645 0.020431295 0.08170703
000210 86 ef 17 bd 10 b8 cf bc 22 8c 71 bb cc bc 57 3c
       -0.03709366 -0.025356323 -0.0036857207 0.013167571
000220 98 8f 2b bd 05 31 91 3d 40 04 79 bd 13 c3 17 bd
       -0.04188499 0.07089428 -0.06079507 -0.03705127
000230 5c 2f b1 bd fc 28 88 bc a5 25 95 bb 3b 54 87 3d
       -0.08651611 -0.016621105 -0.0045516067 0.066078626
000240 32 3d 7d bd df ab 0b 3d ee 57 5c bd 2d 2c 7c bd
       -0.06182594 0.034099456 -0.053794794 -0.061565567
000250 8e 8d d2 3c f1 56 09 bb b7 a6 5e 3d b1 ec 86 bd
       0.025702264 -0.0020956362 0.05435821 -0.06588114
000260 a3 84 8b bd a9 bf 92 bd 12 35 90 3d 4f 75 21 3c
       -0.06812408 -0.071654625 0.07041372 0.009854629
000270 79 eb 8f 3d 6e 50 42 bb 96 4f 2a bc 03 bc 85 bc
       0.07027335 -0.002964999 -0.010394951 -0.016325003
000280 b3 d4 82 bd e1 45 51 bd 98 3a 36 3d 30 e1 d3 3b
       -0.063882254 -0.051092032 0.044489473 0.0064660534
000290 50 2a 1c 3c 85 6f 4b bd 5d ad 76 3c 43 33 4d 3d
       0.009531572 -0.0496669 0.015055981 0.050097715
0002a0 2b ad 56 3d 79 5e 01 bd 13 95 ac bd d5 b6 7c 3d
       0.05241124 -0.031584237 -0.08426871 0.0616978
0002b0 a1 04 1a 3c 3f 0b 31 3d 0f 5e 41 bd c5 c7 95 3d
       0.009400518 0.043223616 -0.047208842 0.07313494
0002c0 ab eb 41 bc cc 6a 4c 3d 21 71 58 3d d4 a4 aa 3d
       -0.011835973 0.049906537 0.052842263 0.0833222
0002d0 1e ea 97 bd 19 c2 4d bd ca b6 2a 3d 14 35 5f bd
       -0.07417701 -0.050233934 0.041678227 -0.05449398
0002e0 f6 06 8b bd 12 e6 03 3d 6d 61 3d bd d2 72 b3 3d
       -0.06788437 0.032201834 -0.04623549 0.087621346
0002f0 e7 6b e3 bc a7 c8 90 bd f8 ca 40 bd e6 31 86 3b
       -0.027761413 -0.070695214 -0.047068566 0.004095304
000300 cd f4 9f 3d da 6e ae bb 4c e4 82 bd 6e 76 a9 bd
       0.07810364 -0.005323273 -0.063912004 -0.08274542
000310 c0 02 b3 3d ca 5e 21 bd 69 87 85 3d cf c1 68 bc
       0.08740759 -0.03939704 0.06519968 -0.014206364
000320 d6 a7 ff 3c 42 b8 19 bb c3 4b 93 3d 16 d3 b0 bd
       0.03120796 -0.0023455773 0.07192185 -0.086340114
000330 b6 1e 2b 3d 84 63 91 bd 41 94 c5 bc a8 06 a2 bd
       0.041777335 -0.07099059 -0.024118545 -0.07911426
000340 99 bd f7 3c 1d 51 66 bd e0 07 93 3d c7 5b 3a bd
       0.030241774 -0.0562297 0.071792364 -0.045497682
000350 5a 9f 97 bd 13 82 9b bd 29 92 26 3d bd 10 3d bd
       -0.07403441 -0.07593169 0.040666733 -0.04615854
000360 bf 2a 9f 3d 75 9a 7f 3d 6b 39 4a 3d bc e9 28 3d
       0.07771825 0.06240316 0.049371164 0.04123853
000370 08 82 2a bd cf 6f a7 bd ca 01 9d 3d f8 27 53 bd
       -0.041627914 -0.08175623 0.07666357 -0.05155179
000380 47 a7 89 3d b2 5d b2 bd 6b 13 be bc c9 ba d7 bc
       0.06721359 -0.08709277 -0.023202619 -0.026334183
000390 ae 30 65 bd 5f c6 29 3d d0 27 4f bc d7 bb ae bc
       -0.055954628 0.041448947 -0.012643769 -0.021329803
0003a0 8d b5 a5 bd 10 4c b8 bc 0d 58 27 bd b9 91 6d bb
       -0.08091269 -0.022497207 -0.040855456 -0.0036250188
0003b0 3f e2 b4 3d 91 ca af bd f1 99 6b bd 04 56 65 3c
       0.088322155 -0.08583558 -0.057519857 0.0139975585
0003c0 02 db 84 bd 64 40 f8 bc 70 1a 1e bb 63 e4 15 bb
       -0.06487085 -0.030304141 -0.0024124645 -0.0022871725
0003d0 07 a6 00 bc 0f 18 68 3a a3 3b 53 3c 09 97 4e bd
       -0.007852084 0.00088536827 0.0128926365 -0.050437007
0003e0 14 7e 21 3d 40 6a 42 3d 1d 37 89 bd 22 7d 51 3d
       0.039426878 0.04746461 -0.06699965 0.051144727
0003f0 a9 1c 63 bd 39 12 ae bc 33 70 a2 bd 26 f8 c2 bc
       -0.055447254 -0.021248924 -0.079315566 -0.023799967

shared.0.weight f4 [128, 128]
000000 c8 85 92 c0 d9 3e 95 40 4d ee 97 40 7a af 94 40
       -4.5788307 4.663922 4.7478395 4.6464205
000010 70 f9 9e c0 1d 31 97 c0 30 68 96 40 1f 84 95 40
       -4.967949 -4.7247453 4.700218 4.672378
000020 82 b2 a6 c0 4c 0f 93 40 9c c4 93 40 91 67 93 c0
       -5.2092905 4.5956173 4.61775 -4.6063924
000030 24 61 94 c0 e1 8a 95 40 56 c5 93 c0 11 14 92 c0
       -4.636858 4.673203 -4.617839 -4.5649495
000040 0d fc 94 40 a8 1f 92 40 cd 41 94 c0 cb 8e 8b 40
       4.655768 4.5663643 -4.6330323 4.361181
000050 bf 0e 93 40 a3 52 96 c0 bf 52 95 c0 02 26 93 c0
       4.59555 -4.6975875 -4.666351 -4.5983896
000060 70 7f 8c 40 ed 69 91 c0 a3 a1 91 40 9c 22 95 40
       4.3905563 -4.5441804 4.550981 4.660475
000070 c2 14 8f c0 5a e1 93 40 ce e3 95 40 63 37 91 40
       -4.471284 4.6212587 4.684058 4.538011
000080 b5 6c 92 c0 f3 d7 90 40 39 22 91 c0 f7 25 95 c0
       -4.57577 4.526361 -4.5354276 -4.6608844
000090 cd b1 94 40 83 d2 96 c0 b7 f7 95 c0 1c eb 97 c0
       4.646704 -4.713197 -4.6864886 -4.74745
0000a0 74 f7 94 c0 9c 34 90 40 42 44 92 40 b8 e9 8f 40
       -4.6552067 4.506422 4.5708323 4.49728
0000b0 7e 48 97 c0 c8 2d 90 c0 dc f4 91 c0 d3 21 97 c0
       -4.727599 -4.5055885 -4.56114 -4.722879
0000c0 cb 8e 96 c0 90 19 96 40 95 59 90 40 81 35 91 40
       -4.704931 4.6906204 4.5109353 4.5377812
0000d0 ad a6 96 c0 ac 86 91 40 44 65 8c c0 70 32 9f c0
       -4.707846 4.5476894 -4.3873615 -4.974907
0000e0 ec b3 8f 40 cc 79 91 40 91 2d 94 c0 7d 9d 93 c0
       4.490713 4.546118 -4.6305623 -4.6129746
0000f0 ad b8 97 c0 08 bb 8d 40 e0 96 90 40 1d e8 93 40
       -4.7412934 4.429081 4.5184174 4.622084
000100 8a fa 93 c0 e4 b1 8f 40 dc 08 96 40 b7 f2 94 40
       -4.6243334 4.490465 4.6885815 4.6546283
000110 11 a7 92 40 ab b4 90 c0 8b da 94 40 74 d8 8f c0
       4.582894 -4.522054 4.6516776 -4.4951725
000120 cd df 94 40 49 99 93 c0 1a 87 96 c0 7d 79 92 40
       4.6523194 -4.6124616 -4.703992 4.57733
000130 cc f7 93 40 ca a9 90 c0 b1 64 95 c0 15 cf 94 40
       4.6239986 -4.520726 -4.6685414 4.6502786
000140 12 69 95 40 7c 83 92 40 6c d9 96 40 cc 69 93 c0
       4.669076 4.5785503 4.7140408 -4.6066647
000150 77 87 90 40 d0 fe 95 40 85 e2 94 40 d9 89 98 40
       4.516536 4.687355 4.6526513 4.766827
000160 72 c0 93 c0 79 b8 ae c0 8a 95 90 c0 bb 0d 93 40
       -4.617242 -5.4600186 -4.5182543 4.595426
000170 3a 19 93 c0 ff 4b 8f c0 54 eb 95 c0 09 3d 94 c0
       -4.5968294 -4.478027 -4.6849766 -4.6324506
000180 f9 d9 93 c0 3f 40 93 c0 92 00 aa 40 9c f9 91 40
       -4.620358 -4.6015925 5.3125696 4.56172
000190 a9 99 93 40 70 df 92 40 8d b7 95 40 a9 2d 92 c0
       4.6125073 4.589775 4.678656 -4.5680737
0001a0 36 d9 95 40 c6 6b 96 c0 72 e4 94 40 9a bc 96 40
       4.682765 -4.700656 4.6528864 4.7105227
0001b0 2a 75 94 c0 3f 6a 96 c0 2d 72 95 c0 8f 16 97 c0
       -4.6393023 -4.7004695 -4.6701875 -4.7215037
0001c0 d3 cd 98 40 7c 37 94 c0 ec dc 8f 40 32 0f 96 c0
       4.775125 -4.631773 4.495718 -4.689355
0001d0 44 34 92 c0 61 4b 94 40 f2 3c 94 c0 69 b2 93 40
       -4.56888 4.6342015 -4.6324396 4.6155286
0001e0 0f 86 90 40 1f 5e 94 c0 51 0e 94 c0 7f 0f 93 40
       4.5163646 -4.6364894 -4.6267476 4.5956416
0001f0 5f 48 95 c0 1b c3 90 c0 81 48 93 40 57 08 96 c0
       -4.6650844 -4.5238166 4.6026006 -4.688518
000200 c3 98 21 3d 2a a6 9e bd e2 e1 a0 bd e9 f2 33 bd
       0.039452326 -0.07746537 -0.07855584 -0.04393283
000210 94 ea 34 3d 79 a9 cb 3d a3 57 a4 3c 86 33 0c 3e
       0.044169024 0.09944434 0.02006132 0.1369153
000220 42 70 5a bd e8 9c a1 bd 53 28 20 be 6b fc 0b bc
       -0.053329714 -0.078912556 -0.15640382 -0.008544068
000230 ee fa 01 bd a2 1f 5d 3c 98 a5 0a 3d 08 c5 e6 bb
       -0.031733446 0.013496311 0.03384933 -0.007042531
000240 c6 76 75 bd e3 25 4a 3b 89 f2 0c 3e e6 20 3c be
       -0.059927724 0.0030845336 0.13764395 -0.18371925
000250 35 3d e2 3b e5 ae c9 bd e1 a3 eb bc 0a c1 1c be
       0.006904269 -0.098478116 -0.028764667 -0.15308014
000260 90 87 85 be d2 26 de 3d 00 3b 85 3b 69 d1 d9 bd
       -0.26079988 0.10847248 0.0040658712 -0.10635645
000270 e5 f2 85 bd 22 3b 8e bd cf cc 6d 3c 84 90 16 be
       -0.06540469 -0.069448724 0.014514162 -0.14703566
000280 4f b6 b3 bd ce 9b cb 3c 12 50 a7 3d 82 1d 85 3d
       -0.08775007 0.024854567 0.08169569 0.06499769
000290 42 7d a9 bd 27 48 92 bd 99 da cd bc b6 b8 b1 3d
       -0.08275844 -0.07142668 -0.02512865 0.08677809
0002a0 56 f3 20 bc 68 d5 c5 bc 21 5e 15 3e ab ae f9 bc
       -0.009823641 -0.024149612 0.14586689 -0.030478796
0002b0 ef 4c 9f 3d 94 58 a7 bd 6d aa 03 3e 0c 8d 09 be
       0.07778346 -0.08171192 0.12857981 -0.13432711
0002c0 ff 14 1a be 30 d3 fc bd 02 7c df 3d c5 a8 0f be
       -0.15047072 -0.12344968 0.109123245 -0.14029224
0002d0 e8 ce d1 3c 9b 57 a4 3d 7f 77 0e be d3 bd c3 3d
       0.025611356 0.08024522 -0.13912772 0.095576905
0002e0 05 88 71 3d bb 35 a0 3d c3 e1 3b 3d dc 6b f5 3c
       0.05896761 0.07822748 0.0458696 0.029958658
0002f0 76 32 dc 3d 6d 4a 88 3d 6c c4 f1 3c a4 f2 e7 bd
       0.10751812 0.066548206 0.029512607 -0.11325577
000300 5f 34 4e 3d 95 07 c8 bb c6 ba 50 be 34 ab 02 be
       0.050342914 -0.0061044195 -0.20383748 -0.12760621
000310 8c 1b 08 3e 13 2c 89 3d 93 31 a1 3d 9d 2a 03 3e
       0.13291758 0.066978596 0.07870784 0.12809224
000320 61 27 c8 3b aa 6f 3e 3c b4 c6 74 3c 0e ea d0 3d
       0.00610821 0.0116233025 0.014939953 0.102008924
000330 c9 24 d0 ba 52 23 3d bc b9 8b 8c 3d bd 19 96 bd
       -0.0015880103 -0.011544066 0.068625875 -0.07329128
000340 2d a0 cb bc d8 7a c9 3c 6d a1 06 3c 8e a6 58 bd
       -0.024856651 0.02459471 0.008217198 -0.052893214
000350 b1 d2 3a bd f9 fb f1 bd c1 69 dc bd 2a 90 d4 bd
       -0.045611087 -0.11815638 -0.107623585 -0.103790596
000360 59 84 26 3d b4 e7 2c bd ac 61 8c bd 2b 80 bb 3d
       0.04065356 -0.042213157 -0.06854567 0.091553055
000370 8b 6b 36 bd 41 c6 92 bd d7 75 e1 3d 86 26 d6 3d
       -0.044536155 -0.0716672 0.11008804 0.104565665
000380 61 51 b0 bd d2 67 24 bc 58 6d 3a 3d 02 d1 6b 3c
       -0.08609272 -0.010034518 0.045514435 0.014393093
000390 a1 fa ff 3d 67 a9 eb 3c b0 0d df bc 39 07 5d 3d
       0.124989755 0.0287673 -0.027228206 0.053961966
0003a0 58 1e b7 3d 04 14 87 3d 20 0d 81 bc e5 fa e9 bd
       0.089413345 0.065956146 -0.015753329 -0.114248075
0003b0 8c 28 a0 3c c6 ac 7f bd 15 c1 cc bc e9 4d b0 bb
       0.019550584 -0.06242063 -0.024994412 -0.0053803814
0003c0 e7 c2 41 be ac 61 bb 3d 20 59 ca 3a 68 87 24 3e
       -0.18922006 0.09149489 0.0015437938 0.16067278
0003d0 cc da 94 bc 4c ce 44 3d 9a 96 02 bd 44 cf 29 be
       -0.018170737 0.048048303 -0.031881906 -0.16582972
0003e0 0b 25 34 be e9 26 9a 3c ea 54 0a 3d 73 6c 71 bd
       -0.17592256 0.018817382 0.033772387 -0.058941316
0003f0 aa 23 7a bd 0d 89 ee bd 36 3f 74 3c f1 b5 9e bd
       -0.06106917 -0.11647234 0.014907649 -0.07749546

shared.0.bias f4 [128]
000000 35 a5 97 40 9a 54 01 be 6a 31 d6 bc 99 23 98 40
       4.738917 -0.12629929 -0.02614661 4.7543454
000010 e9 76 91 bd 91 2b 95 40 bf e8 97 40 2a bd 96 40
       -0.071027584 4.661568 4.7471614 4.7105913
000020 8b 99 ca bd 74 4f 99 40 6f 12 07 be fd e9 96 40
       -0.09892567 4.790949 -0.13190626 4.716063
000030 3e c4 99 40 61 2c 98 40 ac 06 96 40 ad 32 99 40
       4.8052053 4.7554173 4.6883144 4.787436
000040 47 84 96 40 c1 ec 9a bd 5e 2d 94 40 03 86 99 40
       4.703647 -0.075646885 4.630538 4.797609
000050 b6 89 98 40 13 64 99 40 d5 b5 56 bd 1c dc 94 40
       4.7668104 4.793466 -0.052419502 4.651869
000060 c8 00 97 40 50 62 00 40 d1 ac b7 bd 37 63 99 40
       4.7188454 2.0060005 -0.08968509 4.793361
000070 fb b6 df bd 5f c7 97 40 ff 2d 9a 40 38 d6 39 be
       -0.10923573 4.7430873 4.8181148 -0.18148124
000080 fd 85 9a 40 fb a5 6e bd f2 c5 96 40 f3 c1 97 40
       4.828856 -0.05826376 4.7116632 4.7424254
000090 38 ef 59 be 5f b0 96 40 dc aa 98 40 25 16 f0 bd
       -0.21282661 4.7090297 4.770857 -0.11722974
0000a0 94 60 9a 40 04 5f 9a 40 3f 7e 98 bd d4 aa 99 40
       4.8242893 4.8240986 -0.074459545 4.802103
0000b0 fa 39 95 40 bc df 9a 40 67 84 0f be 64 92 9f bd
       4.663327 4.8398113 -0.14015351 -0.07791594
0000c0 59 ca 97 40 91 ae 96 40 20 5f 85 40 06 36 99 40
       4.7434506 4.7088094 4.167862 4.7878447
0000d0 f8 a7 8a bd 9c 0d 96 40 a1 7a a1 bd b7 8d 96 40
       -0.06770319 4.6891613 -0.07884718 4.704799
0000e0 00 06 27 be dc 7f 19 be ab f4 b2 bd 01 95 99 40
       -0.16310883 -0.1499018 -0.08738073 4.799439
0000f0 ae 3b 99 40 9b fa 98 40 ce 15 c0 bd 82 0e 13 be
       4.788535 4.7805915 -0.09379159 -0.14361003
000100 7b 90 b2 bd 96 92 09 be 36 e4 be bd 0a c7 00 be
       -0.08718964 -0.13434824 -0.093208715 -0.12575927
000110 a6 98 29 bd e3 a1 99 40 22 e9 2b be 9b 8b 98 40
       -0.041405343 4.8010116 -0.16788152 4.7670417
000120 ed 9d 36 be 21 38 9a 40 a6 c4 c3 bd 18 65 98 40
       -0.17833681 4.8193517 -0.09558992 4.7623405
000130 07 a9 00 40 b5 30 98 40 f5 a4 d5 bc 8b 8c 95 40
       2.0103166 4.7559457 -0.026079634 4.673406
000140 af 1e 9a 40 fd 29 11 be 5e ec d7 bd 81 75 33 be
       4.8162456 -0.14176174 -0.1054313 -0.17525293
000150 d8 a9 98 40 d2 58 9a 40 2e c5 b9 bd 28 62 98 40
       4.770733 4.8233423 -0.09070812 4.761982
000160 9d 96 9a 40 8b 3f 97 40 d0 42 8d bd b7 f2 98 40
       4.8308854 4.7265067 -0.06897509 4.7796283
000170 72 8f 98 bd c8 8b c4 bd e7 4e 96 40 68 78 2f be
       -0.07449235 -0.09596974 4.6971316 -0.17135775
000180 aa 7b 99 40 03 3c 98 40 34 7a 9a 40 c0 ef 96 40
       4.7963457 4.7573256 4.8274174 4.7167664
000190 14 32 26 be 4d 8c 3e be 86 2c 99 40 01 04 b2 bd
       -0.16230041 -0.18608208 4.786685 -0.0869217
0001a0 3b 45 1c bd 60 10 a1 bd 2f 08 9f bd 62 c5 97 40
       -0.03815196 -0.078644514 -0.07765233 4.7428446
0001b0 d3 01 9a 40 05 bd be bd 01 b2 99 40 12 4d 95 40
       4.8127227 -0.09313396 4.802979 4.665658
0001c0 21 25 98 40 ce 8b 97 40 f0 aa 02 40 8c e8 0c be
       4.7545323 4.735816 2.0416832 -0.13760585
0001d0 26 aa 1a be a2 06 98 40 93 f9 98 40 d3 51 9a 40
       -0.15103969 4.7508097 4.7804656 4.8224883
0001e0 49 25 1b be dd d5 cb bd 71 51 c5 bd 2b 1c 96 bd
       -0.15150942 -0.099529006 -0.09634674 -0.07329591
0001f0 a6 66 95 40 50 f0 02 40 e2 3f 97 40 01 90 99 40
       4.6687803 2.0459175 4.726548 4.7988286
