models/ppo_trading_model_vz.pt (torch, 40430 bytes, 9 tensors)

shared.0.weight f4 [64, 7]
0	0x3e2ea928	0.17056715
1	0x3ed9d41b	0.42544636
2	0xbdce813e	-0.10083245
3	0x3eaffa88	0.34370828
4	0xbe28d6e1	-0.1648822
5	0x3dcd6dec	0.100307316
6	0xbe2d3e0e	-0.16918203
7	0xbd03783c	-0.032097086
8	0x3ec790ea	0.38977748
9	0xbec74958	-0.38923144
10	0x3ee6bd72	0.4506641
11	0x3cdebe70	0.027190417
12	0x3ecdf6d5	0.4022738
13	0x3d1efb21	0.038813714
14	0x3e6ca2d6	0.23108992
15	0xbd9e103a	-0.07717939
16	0x3e6cbd61	0.23119117
17	0x3dd5a721	0.10432268
18	0xbed540ac	-0.41650903
19	0x3d127f63	0.035766017
20	0xbe13a1d4	-0.14417201
21	0x3d10dae7	0.03536501
22	0xbebc8939	-0.36823443
23	0x3e89271d	0.26787654
24	0xbe83ee1d	-0.25767604
25	0xbf1a018d	-0.60158616
26	0xbd3c4a58	-0.045969337
27	0xbe63e7be	-0.22256371
28	0x3e2d4267	0.16919862
29	0xbf1a808b	-0.6035239
30	0x3ec496dc	0.38396347
31	0xbea908fc	-0.33014667
32	0x3edf3cca	0.43601066
33	0x3e3fe9a7	0.18741475
34	0x3c146054	0.00905617
35	0x3ef0e5c5	0.470503
36	0x3ed24112	0.4106527
37	0x3ee55b18	0.44796062
38	0x3c4787e1	0.012178392
39	0xbd4adcde	-0.04952704
40	0x3d76f36c	0.06029074
41	0xbda38435	-0.07984201
42	0x3eff450a	0.4985736
43	0x3ea16437	0.3152177
44	0x3f0ed47d	0.5579298
45	0xbeb3a63a	-0.35087758
46	0x3e7b7fe9	0.24560513
47	0x3dad226a	0.084538296
48	0x3e68dd6d	0.22740717
49	0xbe4ff936	-0.2030991
50	0xbf03871b	-0.5137803
51	0xbe4dc2b8	-0.2009381
52	0xbe3c2e52	-0.18377045
53	0x3f0c8227	0.54886097
54	0xbda4c9da	-0.08046313
55	0x3e5d80d6	0.21631178
56	0x3efa03b1	0.4883094
57	0xbd5a66e3	-0.053320777
58	0x3ecea8f9	0.4036329
59	0xbe96c1e7	-0.2944481
60	0x3e841eb8	0.25804687
61	0xbec4f84a	-0.3847068
62	0x3e95359d	0.29142466
63	0xbea9d17d	-0.3316764
64	0x3e93d4bc	0.2887324
65	0xbc8b93c0	-0.017038226
66	0x3e8db256	0.27675122
67	0xbf082104	-0.5317538
68	0xbd9df3fb	-0.07712551
69	0xbe220499	-0.15822066
70	0x3ee58e6b	0.4483522
71	0x3ebdcddb	0.37071118
72	0x3f0f557c	0.55989814
73	0xbe979f65	-0.29613796
74	0xbf02bd23	-0.5106985
75	0xbe822682	-0.25420004
76	0xbdc9cf4d	-0.098539926
77	0x3f19c533	0.6006653
78	0x3ec6e33c	0.3884524
79	0x3f2a0831	0.6641875
80	0xbe74a021	-0.2388921
81	0xbe5ac56c	-0.21364373
82	0xbbf285ac	-0.007401189
83	0xbd581360	-0.052752852
84	0x3ef7239a	0.4826935
85	0xbcd3e64d	-0.025866652
86	0x3e84b70e	0.2592091
87	0xbed53724	-0.4164363
88	0xbe8943a8	-0.2680943
89	0x3dc787be	0.09742688
90	0x3e696525	0.2279249
91	0xbdaf1379	-0.08548636
92	0x3e55826f	0.20850538
93	0x3ea556c5	0.32292762
94	0xbf096130	-0.5366392
95	0xbe79a666	-0.24379882
96	0x3f027517	0.50959915
97	0xbe9e32e0	-0.3089819
98	0xbeaa8c51	-0.33310178
99	0xbf06b460	-0.5261898
100	0xbe1acd5f	-0.15117405
101	0x3d8a6f8c	0.06759557
102	0xbe22fbd2	-0.15916374
103	0xbe72e9e3	-0.23722033
104	0xbc0cf122	-0.008602412
105	0xbee58b2b	-0.4483274
106	0xbebada68	-0.36494756
107	0xbebda5c0	-0.3704052
108	0xbea0965f	-0.31364724
109	0xbe4eae8e	-0.20183775
110	0x3f1d2eff	0.61399835
111	0x3e080c36	0.13285908
112	0x3e8422bd	0.25807753
113	0xbf1e82b5	-0.61918193
114	0xbf0288bc	-0.5098989
115	0x3deb34fc	0.11484715
116	0x3d40cab8	0.047068328
117	0xbe8010e1	-0.25012878
118	0xbe2b00a3	-0.16699462
119	0xbedf9925	-0.43671528
120	0xbe0ad550	-0.13557935
121	0x3d4c4746	0.04987266
122	0xbe1c2af4	-0.1525076
123	0xbf073a86	-0.52823675
124	0xbecd6ff0	-0.40124464
125	0xbe6ae95b	-0.2294058
126	0xbe8bdb6d	-0.27315846
127	0xbf209384	-0.6272509
128	0x3f0a868c	0.5411155
129	0xbde36bfa	-0.11104579
130	0x3e7b1239	0.2451867
131	0x3e2185bf	0.15773676
132	0xbe509e67	-0.20372926
133	0x3e50bffa	0.20385733
134	0xbdf0ff53	-0.11767449
135	0xbe92bf36	-0.28661507
136	0xbeab4e26	-0.3345806
137	0xbeee3c32	-0.465303
138	0x3df97a58	0.12181538
139	0xbd25dd82	-0.04049445
140	0x3e401d31	0.18761136
141	0xbeddb6d0	-0.43303537
142	0x3ebb1747	0.36541197
143	0xbe84f571	-0.25968507
144	0xbddd84dc	-0.108163565
145	0x3d5e0e5d	0.054212917
146	0x3e82dcac	0.25558984
147	0x3e204c6b	0.15654151
148	0x3effbfab	0.4995092
149	0xbeb7b5e3	-0.35880956
150	0xbcdc6d95	-0.026907722
151	0xbef28976	-0.473705
152	0xbc8caf95	-0.017173568
153	0xbe744b40	-0.2385683
154	0x3eb59723	0.3546687
155	0xbed8c801	-0.4234009
156	0x3e2f7e3f	0.17138003
157	0x3e30ff5c	0.17284912
158	0x3d70340d	0.05864339
159	0xbe3972b8	-0.18110168
160	0x3ea63139	0.3245943
161	0x3d8df351	0.069311745
162	0xbc800f65	-0.01563234
163	0xbed137e5	-0.40862957
164	0x3e0163e0	0.12635756
165	0x3c8f79c2	0.017514113
166	0xbd8b2152	-0.06793465
167	0x3ec8c4b5	0.39212576
168	0xbd19ef60	-0.0375818
169	0xbf248753	-0.6426899
170	0xbe1a903b	-0.15094082
171	0xbde1f075	-0.11032192
172	0x3f17617a	0.5913311
173	0x3c8e6f86	0.017387163
174	0xbe25196b	-0.16122977
175	0x3b2f5c40	0.0026757866
176	0xbdc20655	-0.09473864
177	0x3ddff97e	0.10936259
178	0x3eadccc2	0.3394528
179	0xbf3f11e7	-0.7463669
180	0x3c225e0d	0.009910119
181	0x3d17a0a9	0.03701845
182	0x3ed208a3	0.41022214
183	0xbdb51c1d	-0.08843253
184	0x3f018de3	0.50607127
185	0x3e94965c	0.29020965
186	0x3e938ea9	0.2881978
187	0xbeb2bbf4	-0.34909022
188	0x3d2cebb3	0.042216968
189	0xbdb7de90	-0.08977997
190	0xbe7905db	-0.2431864
191	0xbdebbdb3	-0.11510792
192	0x3eb4aa3c	0.3528613
193	0x3f0693ee	0.5256947
194	0x3c8999f6	0.016797047
195	0xbcb0bdb7	-0.021574838
196	0xbe525bf8	-0.20542896
197	0x3ded49e7	0.115863614
198	0x3e1b1a1e	0.15146682
199	0x3d7ae22e	0.061250858
200	0xbf0fdc4b	-0.56195515
201	0xbd3eab63	-0.046550166
202	0x3ec6f9fe	0.38862604
203	0x3e4755e2	0.19466355
204	0x3e466d4d	0.19377632
205	0xbe7c53c9	-0.24641337
206	0xbe09bbd3	-0.13450556
207	0xbf154a02	-0.5831605
208	0xbe33322d	-0.1749961
209	0x3e3e034c	0.18555945
210	0x3e97df89	0.2966273
211	0x3e3bfbdc	0.18357795
212	0xbeec522c	-0.46156442
213	0xbdda620f	-0.106632344
214	0xbcf326a5	-0.029681513
215	0x3f13c4c0	0.5772209
216	0xbe15131b	-0.1455807
217	0xbe255fe1	-0.16149856
218	0xbe0fdf55	-0.14050038
219	0xbdcdcf16	-0.10049264
220	0xbd8d23ef	-0.068916194
221	0x3f1af4fb	0.6053006
222	0xbe70a65f	-0.23500966
223	0xbd9200e0	-0.07129073
224	0xbe83e127	-0.25757715
225	0x3e9f6e4b	0.31138834
226	0x3e76da40	0.24106693
227	0x3e9e355f	0.30900094
228	0xbf06cf8d	-0.5266045
229	0xbed0aa04	-0.40754712
230	0xbe5dc766	-0.21658096
231	0x3ee6b070	0.45056486
232	0x3ebe430b	0.37160525
233	0x3ea55542	0.3229161
234	0x3e8688b1	0.26276162
235	0x3ee7f5b4	0.45304644
236	0xbe0f846e	-0.14015362
237	0xbdc8b64f	-0.098003976
238	0xbf337afa	-0.7010952
239	0xbf0708bc	-0.527477
240	0x3dcf7ce0	0.1013124
241	0xbe46b1cc	-0.19403762
242	0xbcefe53a	-0.029284108
243	0xbe186ded	-0.14885683
244	0x3dc57e26	0.096432015
245	0xbecfa618	-0.40556407
246	0xbf13d4e5	-0.57746726
247	0x3e0dbaf1	0.13840844
248	0x3c911240	0.017708898
249	0x3ea5f559	0.32413748
250	0xbe102178	-0.14075267
251	0xbe434fb4	-0.19073373
252	0xbee20d65	-0.44150844
253	0xbe672c71	-0.22575547
254	0xbda4349b	-0.08017846
255	0xbf0369c7	-0.5133328

shared.0.bias f4 [64]
0	0x3f028712	0.5098735
1	0xbe892b24	-0.26790726
2	0xbe75d972	-0.2400873
3	0xbef64f6c	-0.4810747
4	0xbe50eefb	-0.20403664
5	0xbdb0d898	-0.08635062
6	0x3e4501f4	0.19239026
7	0x3c71aea3	0.014751109
8	0x3d533d12	0.051571913
9	0x3f3090c1	0.68970877
10	0x3d36b083	0.04460193
11	0xbe879ab9	-0.26485232
12	0x3cb0b861	0.021572294
13	0x3d006282	0.031343944
14	0x3e924c9a	0.28574067
15	0xbbd43493	-0.006475994
16	0xbd34d6a0	-0.044149995
17	0xbe91102a	-0.28332645
18	0xbe8735f8	-0.26408362
19	0xbe89145f	-0.26773354
20	0x3f06b024	0.5261252
21	0x3f19f183	0.6013414
22	0x3ec762d4	0.38942587
23	0x3ec14d40	0.3775425
24	0x3e985725	0.29753986
25	0xbe12c76e	-0.14333889
26	0xbe300fab	-0.17193477
27	0x3ea9669f	0.33086106
28	0xbda0996e	-0.078417644
29	0xbe5670f1	-0.20941521
30	0xbe8239d1	-0.25434735
31	0x3e22029f	0.15821312
32	0x3ef54b06	0.479088
33	0xbe333d04	-0.17503744
34	0xbe454dba	-0.19267932
35	0x3e39c2fc	0.18140787
36	0xbe69ed6a	-0.22844473
37	0xbe5c9cdc	-0.21544212
38	0x3ec11257	0.37709305
39	0xbdfe68a3	-0.124223016
40	0x3ef6f908	0.4823687
41	0x3f083162	0.5320035
42	0x3e0feeba	0.1405591
43	0x3dbb8fb6	0.0915827
44	0x3e997c24	0.29977524
45	0xbe9091d3	-0.28236255
46	0xbd930f36	-0.07180636
47	0x3c1ba890	0.009500638
48	0x3ead5a23	0.3385783
49	0x3f08c07e	0.5341872
50	0xbd9563ae	-0.07294403
51	0xbdde9edc	-0.10870144
52	0xbe368fe8	-0.17828333
53	0xbe57001b	-0.20996134
54	0xbd794ad2	-0.06086237
55	0x3edc079f	0.42974564
56	0x3f089f68	0.53368235
57	0x3ebff96e	0.37494987
58	0xbe9d0f82	-0.30675894
59	0xbec1de98	-0.37865138
60	0xbd0e659f	-0.034764882
61	0x3e0141a8	0.12622702
62	0x3e838c6e	0.25693077
63	0xbeae476d	-0.3403887

actor.0.weight f4 [64, 64]
0	0x3d564fbd	0.052322138
1	0xbe1ffcdf	-0.15623806
2	0xbd9de129	-0.077089615
3	0xbdaa2ab5	-0.08308927
4	0x3d9bf730	0.07615507
5	0xbd703532	-0.05864448
6	0xbcddca9c	-0.02707415
7	0x3cc29479	0.023752438
8	0xbe86e716	-0.2634818
9	0x3e5bb8d1	0.2145722
10	0x3d2a8b20	0.041636586
11	0x3da7fef1	0.08202923
12	0x3bd3ba29	0.006461401
13	0xbe8bb1f9	-0.2728422
14	0x3e2b7664	0.16744381
15	0x3b2fc3f5	0.002681968
16	0x3e6fd36d	0.23420496
17	0x3ea4a99e	0.32160658
18	0x3e93265a	0.28740197
19	0xbdfa1c21	-0.122123964
20	0xbc541f6c	-0.012946945
21	0x3e3523cc	0.17689437
22	0x3db10807	0.08644109
23	0x3d0f57c1	0.034995798
24	0xbe330021	-0.17480518
25	0x3e28a73c	0.16470045
26	0xbeb9e092	-0.36304146
27	0x3d818153	0.06323495
28	0x3d8a5858	0.067551315
29	0x3e30168a	0.17196098
30	0xbe6e5bed	-0.23277254
31	0xbd2316ab	-0.03981654
32	0x3e9fc71f	0.31206605
33	0xbe1dd518	-0.1541332
34	0x3eb4da75	0.3532292
35	0x3e64d4fd	0.22346874
36	0x3e650194	0.22363883
37	0xbdbd28f8	-0.0923633
38	0xbd678310	-0.056521475
39	0xbcee3c84	-0.02908159
40	0x3d7d2ba0	0.061809182
41	0xbd1f9a7d	-0.03896569
42	0x3d6ec61d	0.058294404
43	0xbde6aaea	-0.11263068
44	0x3e01d9fa	0.12680808
45	0xbe144f60	-0.14483404
46	0x3df406d6	0.11915366
47	0x3cffdc84	0.03123308
48	0x3ddeb2b5	0.108739294
49	0x3e8454c7	0.2584593
50	0x3d845837	0.06462138
51	0x3debb15f	0.1150844
52	0xbd0e0fe6	-0.03468313
53	0xbe171c62	-0.14756921
54	0xbee3f777	-0.44524738
55	0xbba0316d	-0.0048887045
56	0xbddda04c	-0.1082159
57	0xbd8a8324	-0.06763294
58	0x3e06a079	0.13147153
59	0xbeb0ebb0	-0.34554815
60	0xbdec89e3	-0.11549737
61	0x3e82ea00	0.25569153
62	0x3e89cf4c	0.26915967
63	0xbded5f71	-0.1159047
64	0xbcd14601	-0.025546076
65	0x3e030151	0.12793471
66	0xbe926d6b	-0.28599104
67	0xbe1f0232	-0.15528181
68	0x3d8e9b69	0.06963236
69	0xbe6361c2	-0.2220526
70	0x3e0f5a96	0.139994
71	0x3e84d35c	0.25942504
72	0x3e8493f6	0.25894135
73	0xbd3e2a20	-0.046426892
74	0xbe489107	-0.19586574
75	0xbe5d0411	-0.21583582
76	0x3d893d0c	0.06701097
77	0x3ded88cd	0.11598358
78	0x3db65f4c	0.08904895
79	0x3dfb6ba1	0.12276388
80	0xbe132e16	-0.14373049
81	0xbe865944	-0.2623998
82	0xbea1a4ef	-0.31571147
83	0xbc8a223c	-0.016862027
84	0x3d960f57	0.073271446
85	0xbd9431e8	-0.07236081
86	0x3e17f6a5	0.14840181
87	0x3da8e086	0.082459494
88	0x3dea281f	0.11433434
89	0xbd70a08a	-0.058746852
90	0xbdb4fa06	-0.08836751
91	0xbda0907e	-0.0784006
92	0xbc379b73	-0.011206496
93	0xbd748e44	-0.059705988
94	0x3e0f995d	0.14023347
95	0x3df9558c	0.1217452
96	0xbe142fba	-0.14471331
97	0x3e4adb41	0.19810201
98	0x3ca49172	0.020088885
99	0xbd8f49d4	-0.069965035
100	0x3a843027	0.0010085151
101	0x3e440361	0.19141914
102	0x3e4c9f37	0.1998261
103	0xbded9138	-0.11599964
104	0x3d861ad2	0.06548084
105	0xbcd61aeb	-0.026135882
106	0x3d747d48	0.05968979
107	0x3e936930	0.2879119
108	0xbd813853	-0.06309571
109	0xbd734513	-0.059392046
110	0xbd470b3e	-0.048594706
111	0xbc7182c9	-0.014740654
112	0x3deb1aaf	0.11479699
113	0xbe00bafc	-0.12571329
114	0xbd6f18d4	-0.058373287
115	0xbce8f7c9	-0.028438466
116	0xbdb90ca8	-0.09035617
117	0x3e0fb98b	0.14035623
118	0x3d898195	0.06714169
119	0xbbd021a3	-0.006351666
120	0x3e293203	0.16522984
121	0x3d89de89	0.06731898
122	0xbdc6c590	-0.09705651
123	0x3dfda7f1	0.12385548
124	0xbe055ada	-0.13022938
125	0xbe4055af	-0.18782686
126	0xbe2d4178	-0.16919506
127	0xbd163319	-0.036669824
128	0xbd0d3870	-0.03447765
129	0xbdd53ae2	-0.10411622
130	0x3e268e34	0.16265184
131	0xbbda54c2	-0.006662936
132	0xbe0e50ae	-0.13897964
133	0x3bcc2bb9	0.006230798
134	0xbeba589e	-0.36395735
135	0x3d76685b	0.060158115
136	0xbea825d2	-0.32841355
137	0x3d698942	0.057015665
138	0x3d51952c	0.051167652
139	0xbe408838	-0.18801963
140	0xbd65164f	-0.05592948
141	0xbe51ea79	-0.204996
142	0x3e748edb	0.2388262
143	0x3e21192a	0.15732256
144	0x3e6725b4	0.22572976
145	0x3e0bfef7	0.1367148
146	0x3e8c6040	0.27417183
147	0x3d3ef6aa	0.046621956
148	0xbde5efb7	-0.112273626
149	0xbbf29f39	-0.0074042347
150	0xbdad6412	-0.084663525
151	0x3ddd9007	0.10818487
152	0x3dbf4077	0.093384676
153	0x3e0cca63	0.1374908
154	0xbe4c502e	-0.19952461
155	0x3c4850a4	0.0122262575
156	0x3e220ce6	0.15825233
157	0x3c4576f6	0.012052288
158	0xbe589ba8	-0.21153128
159	0x3c422508	0.011849649
160	0x3eb9ebd8	0.36312747
161	0xbe3f6a55	-0.18692906
162	0x3e435beb	0.19078033
163	0x3e96c0ed	0.29444066
164	0x3dcf1ebd	0.10113285
165	0xbe35a264	-0.17737728
166	0xbe181b2c	-0.14854115
167	0xbef6346c	-0.4808687
168	0x3e47fe4f	0.19530605
169	0xbd6e95bd	-0.05824827
170	0x3da672af	0.08127343
171	0x3d80a022	0.06280543
172	0xbca7f201	-0.020501139
173	0xbe8bedee	-0.27329963
174	0xbe06a865	-0.13150175
175	0xbe0f19d0	-0.1397469
176	0xbe13c150	-0.14429212
177	0x3e00889d	0.12552114
178	0x3b839e78	0.0040166937
179	0x3ea9b00d	0.3314213
180	0xbd925117	-0.07144373
181	0x3de9851d	0.114023425
182	0xbe87a5fb	-0.2649382
183	0x3e540253	0.20704012
184	0x3cc62e18	0.024191901
185	0x3e2c58ec	0.16830796
186	0x3e58d00c	0.21173114
187	0xbdac7ec8	-0.08422619
188	0x3e17207c	0.14758486
189	0x3e16dd18	0.14732778
190	0x3ce19cff	0.027540682
191	0xbe2f8e01	-0.17144014
192	0x3e035cac	0.1282832
193	0x3d945b5e	0.072439894
194	0x3d21ee64	0.039533988
195	0x3cb13bc6	0.021634948
196	0xbe793936	-0.2433823
197	0x3e69e6f5	0.2284201
198	0x3e40f185	0.18842132
199	0x3d519bff	0.05117416
200	0x3ea46e22	0.32115275
201	0xbe3187d1	-0.17336966
202	0x3e4bcdc5	0.19902714
203	0x3e6c26e5	0.23061712
204	0x3d97b73c	0.07407996
205	0xbe0fd514	-0.14046127
206	0xbdb62726	-0.08894186
207	0xbe589a2c	-0.21152562
208	0xbd88a550	-0.06672156
209	0xbe03211f	-0.12805603
210	0xbe695fb2	-0.22790411
211	0xbc8847c5	-0.016635785
212	0xbcfcd34a	-0.03086247
213	0x3d9631c9	0.073337145
214	0x3e2e2b61	0.17008735
215	0xba314537	-0.0006762328
216	0xbea1a093	-0.3156782
217	0xbda6ac47	-0.08138328
218	0x3e48c9d1	0.19608237
219	0xbe02cee6	-0.12774238
220	0xbd936296	-0.07196538
221	0x3e093698	0.13399732
222	0x3db8ec22	0.09029414
223	0x3c34fe7a	0.011047
224	0xbde957a9	-0.11393673
225	0x3d03c456	0.032169662
226	0xbd91ba5a	-0.07115622
227	0xbe0f3fa8	-0.13989127
228	0x3ddfbc24	0.10924557
229	0x3e2f185d	0.17099138
230	0x3da47afb	0.08031269
231	0x3eaa4845	0.33258262
232	0xbe1e5972	-0.15463808
233	0x3d98a8f4	0.074541
234	0x3d94e48b	0.072701536
235	0xbe4dd006	-0.20098886
236	0xbd449568	-0.047994047
237	0x3e9c4d78	0.30527854
238	0x3e25e9e7	0.16202508
239	0xbc8ed318	-0.017434642
240	0xbe579e8f	-0.21056579
241	0xbbb816da	-0.0056179585
242	0x3e75dde5	0.24010427
243	0xbcbb152b	-0.022837242
244	0x3de4a3b6	0.11164038
245	0x3c0a2317	0.008431218
246	0xbd3f3b80	-0.046687603
247	0x3e33c68c	0.17556208
248	0x3c961748	0.018321648
249	0xbd18df7b	-0.037322503
250	0x3db53466	0.08847885
251	0xbe7ceb15	-0.24699052
252	0xbe50c963	-0.20389323
253	0x3d80e664	0.062939435
254	0xbda5e490	-0.081002355
255	0x3b286982	0.0025697653

actor.0.bias f4 [64]
0	0x3cde2b15	0.027120152
1	0xbc0d653c	-0.008630093
2	0x3cb2914f	0.021797804
3	0xbd9215e7	-0.07133084
4	0x3c6e48b9	0.014543706
5	0x3de24a27	0.110493
6	0x3e6970c7	0.22796927
7	0xbccb78f7	-0.024837954
8	0xbc3202e3	-0.010864946
9	0xbd69e755	-0.05710538
10	0xbd691706	-0.056906722
11	0x3d181ba8	0.03713575
12	0x3d8b22c2	0.06793739
13	0x3c57ce60	0.013171762
14	0x3d5b6c79	0.053570244
15	0x3d74876e	0.05969947
16	0xbdbb3b88	-0.09142214
17	0x3dd96c64	0.10616377
18	0x3e103adf	0.14084958
19	0x3d3795e1	0.04482067
20	0xbddf6c35	-0.10909311
21	0x3d5720dd	0.052521575
22	0x3e11c05b	0.14233534
23	0x3e84e223	0.2595378
24	0xbca86de5	-0.020560214
25	0xbbab8dc1	-0.0052354042
26	0xbd8f0cdd	-0.06984875
27	0x3e00340e	0.12519857
28	0x3e079e82	0.1324406
29	0x3e0046b1	0.12526967
30	0xbdc6bc1c	-0.09703848
31	0x3e2dc483	0.16969495
32	0xbd66c999	-0.056344602
33	0x3e0bcabe	0.13651559
34	0x3e009ee7	0.12560616
35	0xbe022c6e	-0.12712261
36	0x3da32d34	0.07967606
37	0x3e0d1e39	0.1378106
38	0xbd5f53b3	-0.05452318
39	0x3da1b07d	0.078949906
40	0x3e56a8d0	0.20962834
41	0x3e213a37	0.15744863
42	0x3dd2887e	0.1027994
43	0xbd8de9d5	-0.069293655
44	0xbd5f3e0b	-0.05450253
45	0x3dd019ff	0.10161208
46	0x3d5ce270	0.053926885
47	0x3de7e1e5	0.11322383
48	0x3d9a8e74	0.07546702
49	0x3d3616db	0.04445539
50	0xbd2b76fd	-0.041861523
51	0x3e347d7f	0.17625998
52	0x3e5af59d	0.21382757
53	0xbd1dae33	-0.038496207
54	0xbc06320e	-0.008190645
55	0x3d491f97	0.049102392
56	0x3d60a660	0.054846168
57	0xbe120451	-0.14259459
58	0x3deda214	0.116031796
59	0x3dbe392f	0.09288251
60	0xb9236cff	-0.00015585496
61	0x3c8fc318	0.017549083
62	0xbc494686	-0.0122848805
63	0x3e64ddcb	0.22350232

actor.2.weight f4 [3, 64]
0	0x3d553799	0.052054975
1	0x3d974312	0.073858395
2	0x3d028fd3	0.031875443
3	0x3e61c453	0.22047548
4	0x3e3ffde4	0.18749195
5	0x3dc635a1	0.09678198
6	0xbe930977	-0.2871816
7	0x3ddab07b	0.10678192
8	0xbdea3f24	-0.11437824
9	0x3e0f41e7	0.13989983
10	0x3d936ee8	0.07198888
11	0xbdaed3c2	-0.08536483
12	0x3e186725	0.14883097
13	0xbe66f43d	-0.22554107
14	0x3e5676d8	0.20943773
15	0x3e1226e1	0.14272644
16	0xbe28f90d	-0.16501255
17	0x3e0ed52c	0.13948506
18	0xbe0026fd	-0.12514873
19	0x3c254a14	0.010088462
20	0x3e3e501e	0.1858525
21	0xbe3157c7	-0.1731864
22	0xbdfad057	-0.12246769
23	0xbe8b8632	-0.2725082
24	0x3e804448	0.25052094
25	0xbd4eb2e3	-0.05046357
26	0x3e2c01b5	0.16797526
27	0x3e217394	0.15766746
28	0x3e1754a5	0.14778383
29	0x3de6f5fa	0.11277385
30	0x3d834157	0.06408947
31	0xbdd845e4	-0.105602056
32	0x3e4d2cf6	0.20036682
33	0xbd49a490	-0.049229205
34	0xbcb0348d	-0.021509433
35	0x3e7cbc37	0.24681173
36	0xbd693283	-0.056932937
37	0xbe7449ed	-0.23856325
38	0x3e1782f2	0.14796045
39	0x3e3afd3b	0.18260662
40	0xbec764e8	-0.38944173
41	0x3d5e5af2	0.05428595
42	0xbe90ff57	-0.2831981
43	0xbd8b5254	-0.06802812
44	0x3d8d1255	0.06888262
45	0x3d89b7d8	0.067245185
46	0xbd08d5d2	-0.03340704
47	0x3d3527c6	0.044227384
48	0x3e78bb38	0.24290168
49	0x3e96024d	0.2929863
50	0xbe994551	-0.29935697
51	0xbe99f293	-0.30067882
52	0xbe12b202	-0.14325717
53	0x3e8381d2	0.25684983
54	0xbbd1a952	-0.0063983584
55	0xbcb80732	-0.022464368
56	0x3e049ca2	0.12950376
57	0x3e5cb44b	0.21553151
58	0xbe8428f6	-0.258125
59	0x3e796fc2	0.24359038
60	0x3e179778	0.14803874
61	0x3d6ab755	0.057303745
62	0xbda5a07c	-0.080872506
63	0xbe9af8cd	-0.30267945
64	0x3e899079	0.26868036
65	0xbe7895a0	-0.24275827
66	0x3e41dbcf	0.18931507
67	0xbec161b1	-0.37769845
68	0x3e81d02e	0.2535414
69	0xbebd8d66	-0.3702194
70	0x3e309c6e	0.17247173
71	0xbde83288	-0.11337763
72	0xbe9627f9	-0.29327372
73	0xbef9cc60	-0.48788738
74	0xbea8d43f	-0.3297443
75	0xbdb63bac	-0.088981
76	0xbe257053	-0.1615613
77	0x3e9bda76	0.3044011
78	0xbe0f8e5d	-0.14019151
79	0x3e890417	0.26760933
80	0x3cddb51e	0.027063902
81	0x3d73f1dc	0.059556827
82	0x3e9a1ea9	0.30101517
83	0xbec22956	-0.37922162
84	0xbddbe235	-0.10736505
85	0x3ea52fec	0.32263124
86	0xbe0f3f0a	-0.13988891
87	0xbac9a8b3	-0.0015385359
88	0x3d8d7eff	0.06908988
89	0xbe5175e2	-0.20455125
90	0x3db2a0c0	0.08722067
91	0x3cf2d92b	0.02964457
92	0x3e33baac	0.17551678
93	0x3dd807a4	0.10548332
94	0xbcef6f17	-0.029227776
95	0xbe24b216	-0.1608356
96	0xbc279998	-0.010229491
97	0x3e92c160	0.28663158
98	0xbeaae378	-0.3337667
99	0xbe69a643	-0.2281733
100	0xbe9e153a	-0.3087557
101	0x3e603837	0.21896444
102	0x3e12ceed	0.14336748
103	0xbe418586	-0.18898591
104	0x3e16b6a4	0.1471811
105	0x3e74a91b	0.23892634
106	0xbd7f9256	-0.062395416
107	0x3ccb033f	0.024781821
108	0x3e85eb1e	0.26155943
109	0x3e8b6629	0.2722638
110	0x3e49814f	0.19678234
111	0xbe178dd0	-0.14800191
112	0xbe591af7	-0.21201693
113	0xbef4ee96	-0.47838277
114	0x3e14a6ff	0.14516829
115	0x3dff2807	0.124588065
116	0x3e4e4e0e	0.20146963
117	0xbed2ffd1	-0.41210797
118	0xbe7029f3	-0.23453502
119	0xbe6097d7	-0.21932922
120	0x3de9586b	0.113938175
121	0x3d4deb00	0.05027294
122	0x3d541b2f	0.051783737
123	0xbeab7b7c	-0.3349265
124	0x3c7abd99	0.015303993
125	0xbee87e68	-0.4540894
126	0xbeb048f4	-0.3443066
127	0x3e508d93	0.20366506
128	0xbec371f4	-0.38172877
129	0x3e8c2b04	0.27376568
130	0xbeef319a	-0.4671753
131	0xbb9df330	-0.00482025
132	0xbea6d90c	-0.3258747
133	0x3dc474eb	0.09592613
134	0x3db00444	0.085945636
135	0x3d4e3029	0.050338898
136	0x3e36b015	0.17840607
137	0x3e1c192d	0.15243979
138	0xbe2808b9	-0.16409577
139	0x3e80ace6	0.2513191
140	0xbe216218	-0.15760076
141	0xbdbb5f70	-0.09149063
142	0x3d1e4977	0.03864428
143	0xbec68992	-0.38776833
144	0x3df6f53f	0.12058496
145	0xbe94c141	-0.2905369
146	0xbe9ca84d	-0.30597153
147	0x3e8fc888	0.2808268
148	0xbe4ab5a3	-0.19795851
149	0x3d025eb8	0.031828612
150	0x3ed0eb66	0.40804595
151	0x3e9dcb05	0.30818954
152	0xbee51ddd	-0.44749346
153	0x3dc33086	0.095307395
154	0xbf1723e9	-0.5903917
155	0xbf0be9ba	-0.54653513
156	0xbefbdba9	-0.49191025
157	0xbf14ede9	-0.5817552
158	0x3d9407cd	0.072280504
159	0x3e9929ea	0.2991479
160	0xbe21fc89	-0.15818991
161	0xbeaa89e8	-0.3330834
162	0x3ea79f9a	0.32738954
163	0xbd42258a	-0.04739908
164	0x3e8c5d19	0.27414778
165	0x3e161de5	0.14659841
166	0xbe69a6e4	-0.2281757
167	0xbe648cd2	-0.22319344
168	0x3e909b62	0.28243548
169	0xbf073bdc	-0.52825713
170	0x3e8eabae	0.27865356
171	0xbda17eaa	-0.078854874
172	0xbebce19f	-0.36890885
173	0xbe7bb51e	-0.2458081
174	0xbe84f3cc	-0.25967252
175	0x3eae69fb	0.34065232
176	0xbe066d48	-0.13127625
177	0xbd634dc0	-0.05549407
178	0x3dcefc31	0.101066954
179	0x3e5bd8d5	0.21469434
180	0x3df86c25	0.12130002
181	0x3dadbafe	0.084829316
182	0x3e84f48d	0.25967827
183	0x3e9d75a1	0.30753806
184	0xbebe0abd	-0.37117568
185	0xbe9fa462	-0.31180102
186	0x3e4138ea	0.18869367
187	0x3df842f8	0.12122148
188	0xbefe6020	-0.49682713
189	0x3ed6d6b9	0.41960695
190	0x3e1f4b53	0.15556078
191	0x3e1b291e	0.15152404

actor.2.bias f4 [3]
0	0x3cb3c44b	0.021944186
1	0x3d6a49a8	0.05719915
2	0x3e13bd5c	0.14427704

critic.0.weight f4 [64, 64]
0	0xbe1d5f25	-0.15368326
1	0xbdd24023	-0.10266139
2	0x3e1be656	0.15224585
3	0x3d19b14c	0.0375226
4	0xbdb9aa53	-0.0906569
5	0xbdef4c25	-0.11684445
6	0x3d9b21b1	0.075747855
7	0xbd1d2660	-0.038366675
8	0xbe8b01f6	-0.27149934
9	0x3dde777e	0.10862635
10	0x3e2fa07d	0.17151065
11	0xbddeaec2	-0.10873176
12	0x3d5a8fc7	0.053359773
13	0x3e045286	0.12922105
14	0xbbace7f0	-0.0052766725
15	0x3e0a8956	0.13528952
16	0xbe6392bf	-0.22223948
17	0x3bde608c	0.0067864116
18	0xbe5e125f	-0.21686696
19	0x3b828dba	0.0039841803
20	0x3e48e5e5	0.19618948
21	0x3d1da918	0.03849134
22	0xbbf6e1b9	-0.0075342325
23	0x3d74f2e7	0.059801962
24	0x3e5c5dc3	0.21520142
25	0x3dd4309c	0.10360834
26	0x3d799c22	0.060939915
27	0x3e28580f	0.16439842
28	0x3d793372	0.060840078
29	0x3df2965d	0.11845086
30	0x3e41ae7c	0.18914217
31	0x3e0efb41	0.13963033
32	0x3c4d2497	0.012520931
33	0xbeb5cfe8	-0.35510182
34	0xbdba0018	-0.09082049
35	0x3da43bfc	0.080192536
36	0x3c8dce25	0.017310211
37	0x3d29c659	0.041448925
38	0x3de194df	0.11014723
39	0xbdbc547d	-0.09195802
40	0x3d8cb2c0	0.06870031
41	0x3db86fdc	0.090057105
42	0xbd468bfe	-0.04847335
43	0x3e253d98	0.16136777
44	0x3e497c40	0.19676304
45	0xbe3099b8	-0.17246139
46	0x3d6adbc0	0.057338476
47	0x3db674da	0.089090064
48	0xbd098e53	-0.033582997
49	0xbcf9e334	-0.030503847
50	0xbe606fa0	-0.21917582
51	0xbccb7fc5	-0.024841199
52	0x3d7bada3	0.06144489
53	0xbddc2a7f	-0.10750293
54	0xbd6afc65	-0.05736961
55	0x3d750c54	0.05982621
56	0x3e3d5e83	0.18493085
57	0x3e15abc8	0.1461631
58	0x3c7d7df5	0.015471925
59	0xbe259713	-0.16170911
60	0x3dd4b47b	0.103859864
61	0x3e06304c	0.13104361
62	0xbc4ff546	-0.012692755
63	0xbda18a37	-0.078876905
64	0xbdb82722	-0.08991839
65	0xbdc44e25	-0.095852174
66	0x3e4fe78e	0.20303175
67	0xbe0f5085	-0.1399556
68	0xbe7af26b	-0.24506538
69	0x3d9c71c6	0.07638888
70	0x3e6123e5	0.21986349
71	0xbd8cf95c	-0.06883499
72	0xbdf51af6	-0.11968033
73	0x3d519d1d	0.051175226
74	0x3e51693c	0.204503
75	0x3dbaf68a	0.09129055
76	0x3e111c89	0.14171042
77	0x3e3c8656	0.1841062
78	0x3cbd80fd	0.023132795
79	0x3e3988c4	0.18118578
80	0xbe039046	-0.12848005
81	0x3e056be5	0.1302944
82	0xbe3c4b43	-0.18388085
83	0x3d9b8e2e	0.07595478
84	0x3e3e92a7	0.18610631
85	0x3cfc0b4f	0.030767111
86	0x3e4ffd09	0.20311369
87	0x3d61483e	0.055000536
88	0x3e5b86b0	0.21438098
89	0x3e7ff371	0.2499521
90	0x3e934ed9	0.28771093
91	0x3d608a63	0.054819476
92	0x3cf5e1cd	0.030014897
93	0x3da29820	0.07939172
94	0x3d2d667f	0.042334076
95	0x3df622f8	0.120183885
96	0x3e4110df	0.18854092
97	0x3d36befd	0.044615734
98	0xbda50781	-0.08058072
99	0x38362622	4.3427695e-05
100	0x3dc53f54	0.096312195
101	0xbd7cc290	-0.061708987
102	0x3d2442e5	0.040102858
103	0xbdb4b5db	-0.08823749
104	0x3e68f97e	0.22751424
105	0x3e4fb320	0.20283175
106	0xbd8092e1	-0.06278015
107	0x3c4dd3ec	0.012562733
108	0x3e30e25e	0.17273852
109	0x3d9cf0d9	0.076631255
110	0xbc09a5aa	-0.008401314
111	0x3c02e8d7	0.007990084
112	0x3e0e7e1a	0.13915291
113	0xbca20f59	-0.019782709
114	0x3d8ee549	0.069773264
115	0xbe6c8f14	-0.23101455
116	0xbc49dba9	-0.0123204375
117	0xbe548391	-0.20753314
118	0x3e3bee72	0.18352678
119	0x3e5ac812	0.21365383
120	0xbcb63c96	-0.022245687
121	0x3e945a45	0.2897512
122	0xbd191d32	-0.03738136
123	0xbe88c0b7	-0.2670953
124	0x3da2008f	0.07910263
125	0x3de95fe2	0.11395241
126	0x3e30626e	0.17225048
127	0x3dbc277e	0.0918722
128	0x3e226fd5	0.15862973
129	0xbd8b0032	-0.06787147
130	0x3dde53e7	0.10855847
131	0xbe277613	-0.16353635
132	0xbe827cf6	-0.25485963
133	0x3c8b9960	0.017040908
134	0xbd723f82	-0.059142597
135	0x3de0e368	0.10980874
136	0xbe5d3eab	-0.21605937
137	0x3e830df8	0.25596595
138	0x3cbf8d7b	0.023382893
139	0xbd4b30e8	-0.049607188
140	0x3dd7e8e7	0.105424695
141	0xbc0f7797	-0.00875654
142	0xbd8fa6f3	-0.07014265
143	0x3e57d044	0.21075541
144	0xbe524531	-0.20534207
145	0x3e06e2a6	0.13172397
146	0xbdbc2174	-0.09186068
147	0xbb1d6ac4	-0.0024019936
148	0x3e61b06e	0.22039959
149	0x3e40f8d0	0.18844914
150	0x3d8064dd	0.06269238
151	0x3e0c2cc2	0.13688949
152	0x3e30174c	0.17196387
153	0x3e7e0a68	0.24808657
154	0x3e7c40a8	0.2463404
155	0x3d020ff0	0.03175348
156	0x3db98fce	0.09060632
157	0x3de9e195	0.114199795
158	0x3de27073	0.11056604
159	0x3e2583a1	0.16163494
160	0x3e47c449	0.1950847
161	0xbde600fb	-0.11230656
162	0xbc3726b7	-0.011178664
163	0x3c51cb45	0.012804811
164	0x3da6d563	0.08146169
165	0x3da6155b	0.08109542
166	0x3d06d864	0.03292121
167	0xbea42b2f	-0.32064196
168	0x3e56394e	0.20920298
169	0x3d70fcde	0.058834903
170	0x3dbd24d9	0.09235544
171	0xbb23eeae	-0.002501409
172	0x3c2fa04d	0.010719371
173	0xbe1d5482	-0.15364268
174	0x3dd0decd	0.10198746
175	0x3d6e2aff	0.058146473
176	0x3e4d537d	0.2005138
177	0x3dce232d	0.10065303
178	0x3df04d89	0.11733539
179	0xbd90cab9	-0.07069916
180	0x3e0bd5e5	0.13655813
181	0x3ca7eb59	0.020497965
182	0xbda19893	-0.07890429
183	0x3d9f078d	0.07765112
184	0x3e0789f5	0.1323622
185	0x3ea970c9	0.3309386
186	0xbc6657ef	-0.014059051
187	0xbef0b0e8	-0.4700997
188	0xbdd04564	-0.10169485
189	0xbc8dafd3	-0.017295754
190	0x3e029307	0.12751399
191	0x3cb39b27	0.021924568
192	0x3e048bd2	0.12943962
193	0x3bdca28c	0.0067332443
194	0x3d0ee31b	0.034884553
195	0x3de0a280	0.109684944
196	0x3e9bd59b	0.30436406
197	0xbd969ccf	-0.073541276
198	0xbbc4f717	-0.0060109007
199	0x3d7c2b12	0.061564513
200	0x3e0886c1	0.13332655
201	0x3dd38d9a	0.10329743
202	0x3c562d3d	0.013072309
203	0x3d8eb9ef	0.06969058
204	0xbd8464d9	-0.06464548
205	0xbbcba52d	-0.006214759
206	0x3bc1ae9a	0.0059107067
207	0x3db068ce	0.0861374
208	0xbe6ef0ec	-0.23334092
209	0x3e62fe30	0.22167277
210	0x3e8fa27f	0.28053662
211	0x3d88ac75	0.066735186
212	0x3da5146d	0.080605365
213	0xbcf36986	-0.029713403
214	0xbdfadd0b	-0.12249192
215	0xbdd73eee	-0.1051005
216	0xbe7a8c1e	-0.24467513
217	0x3d14e235	0.03634854
218	0xbf1e3805	-0.6180423
219	0xbe2ae580	-0.1668911
220	0x3e2a0dfd	0.16606899
221	0x3d94a89a	0.07258721
222	0xbd9b3786	-0.0757895
223	0xbdb9e5a2	-0.09077002
224	0xbe16c0b2	-0.14721945
225	0xbdad0899	-0.084489055
226	0x3e1d9f2b	0.15392749
227	0xbdd9d332	-0.106359854
228	0x3e89b6a2	0.2689715
229	0xbc0c847d	-0.00857651
230	0x3bd6a086	0.0065498976
231	0x3d2f1f45	0.04275443
232	0xbd17fd8a	-0.037107028
233	0xbefbc4ff	-0.49173734
234	0x3bf539dc	0.007483704
235	0xbde307d4	-0.110854775
236	0x3e78a360	0.24281073
237	0x3dca4b97	0.09877699
238	0xbd756fe4	-0.05992116
239	0x39c88ade	0.00038250437
240	0x3d307b44	0.043086305
241	0x3ce51d1d	0.027967984
242	0xbd747e3d	-0.059690703
243	0x3dc135e8	0.0943411
244	0x3e0af4c5	0.13569935
245	0x3e48a641	0.19594671
246	0x3d862e3d	0.06551788
247	0xbdd8b300	-0.105810165
248	0x3d6afac7	0.057368066
249	0xbd92c5cd	-0.07166634
250	0x3e0fee4a	0.14055744
251	0x3e05cc27	0.13066159
252	0x3decae68	0.11556703
253	0x3e12160c	0.14266223
254	0xbcc86664	-0.024462886
255	0xbecd2f55	-0.40075174

critic.0.bias f4 [64]
0	0x3e59c47d	0.2126636
1	0x3e369f31	0.17834164
2	0x3e47924c	0.19489402
3	0x3e1e137d	0.15437122
4	0xbd0896dc	-0.033346996
5	0x3e48939f	0.19587563
6	0x3e60476f	0.2190225
7	0x3cfa1aba	0.030530322
8	0x3e1d0118	0.15332448
9	0x3dd73b3f	0.10509347
10	0xbd8903d2	-0.06690182
11	0x3e562b6c	0.20915002
12	0xbd1d263d	-0.038366545
13	0x3e5d2be6	0.21598777
14	0xbcdb8af0	-0.026799649
15	0x3dd8ec72	0.10591973
16	0x3d74ddd3	0.05978186
17	0x3e2c3ce7	0.16820107
18	0x3e396414	0.18104583
19	0x3e94c984	0.29059994
20	0x3e20a364	0.15687329
21	0xbbbf5d40	-0.0058399737
22	0x3e1d790c	0.15378207
23	0x3e6cd531	0.23128201
24	0x3dc21b39	0.094778486
25	0x3d77d480	0.06050539
26	0x3dbd9d42	0.0925851
27	0x3dccba08	0.0999642
28	0xbc887e1a	-0.016661692
29	0x3e839a1e	0.2570352
30	0x3e77c182	0.24194911
31	0xbdbb7788	-0.09153658
32	0xbe1005c9	-0.14064707
33	0x3e6b8357	0.22999321
34	0xbcb7d588	-0.022440687
35	0x3db68ed7	0.08913963
36	0x3e15f08d	0.14642544
37	0x3d1bf0d7	0.03807148
38	0x3e437889	0.1908895
39	0x3e1c7cc1	0.15281965
40	0x3e687d90	0.22704148
41	0x3e0cc6f9	0.13747777
42	0x3de54d92	0.11196436
43	0x3e4506a9	0.19240822
44	0x3d399f55	0.045317966
45	0x3c6d668f	0.014489784
46	0xbcf3e1fe	-0.029770847
47	0x3ceb5a09	0.028729456
48	0xbe5fa211	-0.21839167
49	0x3cd981a6	0.026551079
50	0xbd6ba418	-0.05752954
51	0xbe2617df	-0.16220044
52	0x3e0a42d7	0.1350206
53	0x3e4c0f0b	0.19927613
54	0x3e5b38ad	0.21408339
55	0xbe84acc5	-0.25913063
56	0x3e3f9490	0.18709016
57	0x3e7b3ced	0.2453496
58	0x3e4dfa11	0.20114924
59	0x3e889385	0.26675048
60	0x3e28f872	0.16501024
61	0xbdd763a0	-0.10517049
62	0x3e22b705	0.15890129
63	0x3dd90c9c	0.10598108

critic.2.weight f4 [1, 64]
0	0x3e851f56	0.2600047
1	0x3e8c7c23	0.2743846
2	0x3e34548d	0.17610379
3	0xbe9f5162	-0.31116778
4	0xbe6ef13a	-0.23334208
5	0x3dd20f48	0.10256821
6	0x3ea6263e	0.3245105
7	0x3e7dd147	0.24786864
8	0xbf06a97a	-0.5260235
9	0xbee5ec7c	-0.44906986
10	0xbeefe3d9	-0.4685352
11	0x3e50e9e9	0.2040173
12	0x3eb5a554	0.35477698
13	0x3e41b6fb	0.18917458
14	0xbec4f2f1	-0.384666
15	0x3e57b9bb	0.21066944
16	0xbf739011	-0.951417
17	0xbf123beb	-0.5712268
18	0x3e9c234a	0.30495673
19	0x3ea8f73e	0.3300113
20	0x3e9096a0	0.28239918
21	0xbec46c8f	-0.38364074
22	0x3e7ea852	0.24868897
23	0x3eeeb192	0.4661985
24	0x3e322420	0.17396593
25	0x3e7dc3ad	0.24781676
26	0x3e04f959	0.12985744
27	0x3e7467c2	0.23867705
28	0xbe72da0b	-0.2371599
29	0x3e03d095	0.12872536
30	0x3e89a084	0.26880276
31	0xbf12733c	-0.57207084
32	0xbeece60a	-0.46269256
33	0x3e88fe54	0.26756537
34	0xbc745119	-0.014911913
35	0x3e4fdbc5	0.20298679
36	0xbeec8111	-0.4619222
37	0xbf0cdf21	-0.5502797
38	0x3e06a089	0.13147177
39	0xbf11cbe1	-0.5695172
40	0x3e2ab671	0.16671158
41	0xbe9c22c9	-0.3049529
42	0xbed2f482	-0.4120217
43	0x3e164b12	0.14677075
44	0x3efd0d27	0.49424097
45	0xbf77f197	-0.9685301
46	0xbd503b42	-0.050837763
47	0xbf162304	-0.5864718
48	0x3ed538b2	0.41644818
49	0x3e491111	0.19635417
50	0xbe7b1afd	-0.24522014
51	0xbe7c3345	-0.24628933
52	0xbf3ca248	-0.7368512
53	0x3e8e71a5	0.2782108
54	0x3e6b81e8	0.22998774
55	0x3eeb146f	0.45914027
56	0xbf1e115c	-0.6174524
57	0x3e87e170	0.26539183
58	0xbf10b547	-0.5652661
59	0x3e64ed9f	0.2235627
60	0x3e31fa4a	0.17380634
61	0xbee90a00	-0.45515442
62	0xbeb4b4cd	-0.3529419
63	0x3e8c0a4a	0.273516
