models/ppo_trading_model_ko.pt (torch, 40430 bytes, 9 tensors)

shared.0.weight f4 [64, 7]
0.11774337 0.29648367 -0.26943853 0.43124017 0.06302023 0.06945376 -0.06564106 0.3447818
0.4437226 -0.39868474 0.55027765 0.11424386 0.35014963 -0.018203536 0.4631396 0.06474002
0.1286697 0.25508103 -0.12900649 0.0063123778 0.10361343 0.0049264985 -0.03794249 0.3168739
-0.35479403 -0.31451127 -0.08120255 -0.12431314 -0.13141252 -0.46604422 0.43116036 -0.67754626
0.18282405 0.1735469 -0.008119302 0.5903697 0.2548391 0.29936928 0.12827353 -0.05257361
0.017113771 0.17849153 -0.0024073366 0.31824064 0.37043607 -0.19735739 0.33059883 6.895664e-05
0.38294885 -0.28478706 -0.5395899 -0.29587117 -0.26317078 0.7929717 0.11104965 0.14962028
0.3269482 0.29788843 0.4406439 -0.28020728 -0.032857224 -0.22304468 0.14276817 -0.15807636
0.16361009 -0.09947672 0.5146844 -0.33045715 -0.1148175 -0.099305235 0.53528655 0.30261955
0.39162195 -0.2678173 -0.51877666 -0.081522256 -0.11665595 0.2138478 0.2501424 0.31097245
-0.28647053 -0.44173694 0.2090133 0.018661212 0.37408584 -0.014725489 0.25471944 -0.19029826
-0.5665185 -0.017478986 -0.05084776 0.03339567 0.281165 0.30297318 0.009103167 -0.44177833
0.23215489 0.0016919586 -0.18116468 -0.4173055 -0.1914604 -0.07218091 -0.14615549 -0.23845036
-0.00930277 -0.4760172 -0.4187334 -0.25087273 -0.23727636 -0.31127298 0.47948465 -0.0041063176
0.20254341 -0.31389543 -0.15063988 -0.21406603 0.19364974 -0.60840356 -0.088376954 -0.2053245
0.024600321 -0.053767845 -0.011924561 0.2011633 -0.6383989 -0.27017522 -0.16637869 -0.37856874
0.26418474 -0.025406288 0.49654195 0.34452283 -0.39793497 0.56896985 0.110619344 0.038871136
-0.19924754 -0.73485404 -0.040853392 -0.049856268 0.05112649 -0.32870147 0.31836995 -0.16683704
-0.07545664 0.18220122 0.295297 0.23410979 0.352408 -0.46091136 0.26185054 0.0155558875
-0.12738317 -0.050223432 0.27329853 -0.30250102 0.13499443 0.3138438 0.29454532 -0.13687658
0.30949563 0.014466242 -0.008982285 -0.44249707 0.15684739 0.0696685 -0.05586559 0.3635147
-0.011051703 -0.3011206 -0.26251894 0.007816371 0.43508545 -0.019983815 -0.12008631 -0.19380987
-0.39115486 0.101242766 0.4101965 -0.45749038 -0.1092005 0.18660358 0.07987578 -0.10420173
0.11201436 0.33677167 0.31932634 0.0023183983 -0.12800981 -0.026257005 -0.05138537 -0.12073248
0.2593793 0.33229685 -0.095114574 0.012528148 0.2573094 0.03789366 0.037395366 0.17292237
-0.6993557 -0.005941439 0.35471585 0.0241308 -0.17594619 -0.23698393 -0.18561636 -0.5549916
-0.05723107 0.34561518 0.20836823 0.079237014 -0.37615886 -0.20360145 -0.08705256 0.51629394
0.14207037 -0.124599434 0.20909806 -0.0057772784 -0.3335972 0.4945427 -0.15186232 -0.21866928
-0.3983633 0.35125607 0.31917408 0.17162877 -0.24729642 -0.45471382 -0.3216696 0.3713439
0.23962784 0.25212994 0.3053432 0.12868586 0.21366721 -0.24707964 -0.445118 -0.44279644
0.17077053 0.010033187 -0.42087132 0.005239529 -0.058918633 -0.30588415 -0.2548791 0.26741114
-0.30178145 0.018633025 -0.08587495 -0.21870959 -0.16273545 -0.31468177 -0.11396355 -0.4774103
00000000: 7023 f13d b5cc 973e d9f3 89be 83cb dc3e
00000010: c010 813d c63d 8e3d d26e 86bd 3d87 b03e
00000020: 9c2f e33e 6820 ccbe ffde 0c3f aff8 e93d
00000030: d046 b33e 951f 95bc a220 ed3e 6a96 843d
00000040: fdc1 033e fb99 823e 471a 04be 10d8 ce3b
00000050: 4733 d43d 776e a13b 9669 1bbd 4c3d a23e
00000060: 90a7 b5be 9f07 a1be 864d a6bd e397 febd
00000070: 0191 06be 599d eebe 0dc1 dc3e ac73 2dbf
00000080: 3a36 3b3e 47b6 313e d206 05bc 7822 173f
00000090: 457a 823e ee46 993e 235a 033e 6d57 57bd
000000a0: 2e32 8c3c 7cc6 363e 68c4 1dbb 70f0 a23e
000000b0: cca9 bd3e 0e18 4abe 4044 a93e d09c 9038
000000c0: df11 c43e 9ccf 91be 9022 0abf 6d7c 97be
000000d0: 52be 86be 3100 4b3f 006e e33d 0f36 193e
000000e0: c165 a73e d584 983e 149c e13e 5477 8fbe
000000f0: 4c95 06bd d365 64be d231 123e c5de 21be
00000100: 6789 273e 73ba cbbd 5bc2 033f ae31 a9be
00000110: 7025 ebbd 8b60 cbbd 8a08 093f f3f0 9a3e
00000120: ac82 c83e 591f 89be 8cce 04bf 24f5 a6bd
00000130: 51e9 eebd ebfa 5a3e aa12 803e c837 9f3e
00000140: 44ac 92be 582b e2be 9507 563e 66df 983c
00000150: 2e88 bf3e 2d43 71bc 966a 823e 8cdd 42be
00000160: 5b07 11bf 1730 8fbc be45 50bd e6c9 083d
00000170: dcf4 8f3e 4d1f 9b3e 7325 153c c530 e2be
00000180: 03ba 6d3e b6c4 dd3a 3c83 39be 11a9 d5be
00000190: 320e 44be 96d3 93bd c9a9 15be 552c 74be
000001a0: a56a 18bc 87b8 f3be 3964 d6be 6472 80be
000001b0: 93f8 72be 2c5f 9fbe 037f f53e 4a8e 86bb
000001c0: 8a67 4f3e e7b6 a0be 5741 1abe 2034 5bbe
000001d0: 1e4c 463e 56c0 1bbf fafe b4bd 9640 52be
000001e0: 9d86 c93c ac3b 5cbd 3c5f 43bc c1fd 4d3e
000001f0: 1c6e 23bf 6854 8abe 2d5f 2abe c3d3 c1be
00000200: 3943 873e d920 d0bc bf3a fe3e 4c65 b03e
00000210: 22be cbbe 02a8 113f 658c e23d 5737 1f3d
00000220: 8c07 4cbe 651f 3cbf e355 27bd 1636 4cbd
00000230: 036a 513d 8f4b a8be 6301 a33e 54d7 2abe
00000240: 0389 9abd f592 3a3e 2b31 973e 7aba 6f3e
00000250: d26e b43e 93fc ebbe 4611 863e 1fde 7e3c
00000260: bc70 02be 16b7 4dbd c9ed 8b3e 6ae1 9abe
00000270: fb3b 0a3e 22b0 a03e a5ce 963e 6029 0cbe
00000280: 3676 9e3e d103 6d3c 6f2a 13bc fa8e e2be
00000290: 9a9c 203e 5cae 8e3d 51d3 64bd 991e ba3e
000002a0: 3412 35bc 7b2c 9abe e268 86be 3c10 003c
000002b0: 85c3 de3e 19b5 a3bc d0ef f5bd 1876 46be
000002c0: 7345 c8be 5e58 cf3d 4705 d23e 2e3c eabe
000002d0: 83a4 dfbd 0215 3f3e ea95 a33d b767 d5bd
000002e0: c967 e53d 566d ac3e be7e a33e 45f0 173b
000002f0: 0115 03be ee18 d7bc 7779 52bd 9742 f7bd
00000300: 5dcd 843e d022 aa3e 6ecb c2bd dc42 4d3c
00000310: 0fbe 833e 6236 1b3d e22b 193d 9012 313e
00000320: fa08 33bf 67b0 c2bb 519d b53e f5ad c53c
00000330: 3d2b 34be eaab 72be 3712 3ebe ee13 0ebf
00000340: 206b 6abd 79f4 b03e 7b5e 553e 0447 a23d
00000350: e597 c0be e67c 50be 9d48 b2bd d72b 043f
00000360: e57a 113e fd2d ffbd cd1d 563e 534f bdbb
00000370: 41cd aabe b334 fd3e cc81 1bbe d7ea 5fbe
00000380: 46f6 cbbe d6d7 b33e c96a a33e 74bf 2f3e
00000390: 463b 7dbe 40d0 e8be e1b1 a4be ca20 be3e
000003a0: 0061 753e 2d17 813e f255 9c3e 3ac6 033e
000003b0: 94cb 5a3e 7202 7dbe 82e6 e3be 37b6 e2be
000003c0: 78de 2e3e 3d62 243c 727c d7be 5bb0 ab3b
000003d0: aa54 71bd d99c 9cbe 837f 82be 1dea 883e
000003e0: 1983 9abe 49a4 983c 35df afbd 68f5 5fbe
000003f0: 1fa4 26be f81d a1be b965 e9bd 1f6f f4be

shared.0.bias f4 [64]
0.5596313 -0.36126915 0.11971463 -0.35655737 -0.086806536 0.23799309 0.34383333 0.0438323
-0.00742073 0.5284644 0.19500135 -0.05646275 -0.01242069 0.07538679 0.17167908 -0.33711886
0.17318287 -0.418211 -0.09267553 0.0076998128 0.5344028 0.5455318 0.48813403 0.39730787
0.33441672 -0.1686647 -0.24709195 0.43831125 -0.19755192 -0.24057382 -0.3136497 0.1692719
0.29122102 -0.20504165 -0.47643787 0.24427624 -0.19847342 -0.30646637 0.39362264 0.12189144
0.46813557 0.45310912 0.15110393 0.23419274 0.27973148 0.12990272 0.027891837 0.11094397
0.39268214 0.49089962 0.016122803 -0.13339761 -0.1180613 -0.14443916 0.14992815 0.48570868
0.47369412 0.3764971 -0.3508264 -0.16068302 -0.038358197 0.05285419 0.19374527 -0.2525219
00000000: ff43 0f3f 45f8 b8be f22c f53d b08e b6be
00000010: a0c7 b1bd 76b4 733e ec0a b03e 7f89 333d
00000020: 9829 f3bb 7149 073f 6fae 473e 7c45 67bd
00000030: 2680 4bbc 6464 9a3d a4cc 2f3e d89a acbe
00000040: da56 313e c11f d6be abcc bdbd b64e fc3b
00000050: 9fce 083f f9a7 0b3f b4ec f93e f06b cb3e
00000060: ab38 ab3e 70b6 2cbe ac05 7dbe 556a e03e
00000070: 0d4b 4abe fc58 76be b296 a0be 9d55 2d3e
00000080: ec1a 953e 70f6 51be aaef f3be 8d23 7a3e
00000090: 9e3c 4bbe 29e9 9cbe e888 c93e 38a2 f93d
000000a0: 77af ef3e ebfd e73e fdba 1a3e 39d0 6f3e
000000b0: f738 8f3e 3805 053e 6c7d e43c 9836 e33d
000000c0: a20d c93e 3257 fb3e f813 843c 6299 08be
000000d0: 1fca f1bd dce7 13be c486 193e cfae f83e
000000e0: 0988 f23e 3ac4 c03e 859f b3be 178a 24be
000000f0: 7c1d 1dbd a37d 583d 2965 463e 8d4a 81be

actor.0.weight f4 [64, 64]
0.11174181 0.13359314 -0.096430935 -0.34205294 0.59971756 -0.17314202 0.10511193 -0.1803032
-0.040085338 0.19473381 -0.11940013 0.0019216867 -0.080529 -0.10299591 0.033531405 -0.00876658
-0.046600156 0.34708536 -0.21698959 -0.28297684 -0.022710457 0.17038144 0.15868072 0.01586694
-0.17421025 0.12505364 0.1312822 0.13849989 -0.11234868 0.07793485 -0.16258618 0.32652777
0.20333125 0.16234767 0.3208262 0.18849635 0.17134786 0.3196817 0.051147416 0.19331932
0.0367864 0.16606444 -0.018183786 -0.12787315 0.24272117 0.045001402 -0.20958784 -0.026263138
0.17744917 0.12947015 -0.11931768 -0.32946742 -0.2807882 0.051056907 0.03126608 -0.025908412
0.029440617 0.077628665 -0.08925413 0.2421731 -0.25789765 0.079109766 0.059787273 0.12303322
0.09098424 -0.15845849 -0.025999537 -0.09130388 -0.4032705 0.10491547 0.1999801 0.32119572
0.37557063 0.019668175 -0.31263962 -0.18433313 -0.10699989 -0.11220113 0.11249122 0.19241892
-0.004517787 -0.34989232 0.27926072 -0.19940723 0.07351203 -0.0036032365 0.21300583 0.14079851
0.12035743 -0.090245806 -0.26896307 0.15698524 -0.36782852 -0.44682255 0.04349465 -0.085714564
-0.03218532 -0.23116744 -0.12710059 -0.11037454 -0.2047232 -0.34197867 0.07242252 -0.38500533
-0.034128144 -0.2545496 -0.059804853 0.31838635 -0.2036816 0.26234254 0.055303093 -0.4142876
0.0365861 0.005949678 -0.12080705 0.0490676 -0.25538668 -0.37829906 -0.23667024 0.06930173
-0.31922975 0.09201604 0.01422594 -0.35789213 0.16016056 -0.029310234 -0.026779054 -0.27381718
0.16271107 0.25119436 0.1331793 -0.02089124 -0.096405976 -0.054319244 0.048107445 -0.25600255
0.009370345 0.042665575 0.015803538 -0.20429926 -0.17700505 -0.074111775 -0.020696528 -0.038247205
0.026123317 0.15932485 -0.27895552 -0.2271021 -0.2868251 0.13134162 -0.025975192 0.0974455
-0.015977353 -0.09463733 0.3199199 0.09183909 -0.33457482 -0.37346992 0.011375679 0.42528087
0.29384223 0.20932886 -0.2288788 0.11401295 0.08991248 0.33189654 -0.07282586 0.046412956
0.04565856 0.18924949 -0.6727463 0.004118489 0.04246929 0.17210609 -0.25871837 -0.28456518
-0.041943543 -0.060317468 -0.15209784 -0.12375222 -0.25554416 -0.20557173 0.041071225 0.085713565
0.03029477 0.1432387 -0.18186255 0.57187134 -0.012335754 -0.0936185 -0.25707877 0.043871745
0.07144584 -0.20452595 0.19104858 0.083955355 -0.21824034 0.18894294 0.06146009 0.043806504
0.24570443 -0.1035724 0.23973814 0.19466366 0.120397605 -0.030943546 -0.12984985 -0.28310937
0.20124915 0.035805188 -0.08476724 0.15651311 0.018121995 0.16326854 0.07497528 -0.03712314
-0.27602622 -0.32188433 -0.056707207 -0.29299048 -0.0663764 -0.014799435 0.36564037 0.0974156
0.037475124 -0.11339632 -0.2793556 -0.012709522 0.10287222 -0.010111937 0.13799472 0.2403418
-0.11157516 0.071461655 0.06453426 -0.26495877 -0.043487813 0.13400991 0.26043287 0.13842042
0.14201067 0.09440558 0.21284193 0.02678103 0.07048057 0.023593618 0.042513564 0.133106
0.013229399 0.07945742 -0.169426 -0.1621348 -0.2777642 0.07827872 -0.0754929 -0.10267305
00000000: e4d8 e43d a4cc 083e 957d c5bd 9021 afbe
00000010: 1787 193f 244c 31be ec44 d73d 67a1 38be
00000020: 8630 24bd 4d68 473e 0e88 f4bd 1be1 fb3a
00000030: 63ec a4bd 85ef d2bd 3a58 093d b4a1 0fbc
00000040: cedf 3ebd 2cb5 b13e 8532 5ebe 57e2 90be
00000050: 480b babc 7978 2e3e 337d 223e 63fb 813c
00000060: 2c64 32be 100e 003e d76e 063e ead2 0d3e
00000070: 1117 e6bd 4e9c 9f3d fe7c 26be a62e a73e
00000080: 1136 503e 783e 263e 5543 a43e 3005 413e
00000090: d075 2f3e 52ad a33e f47f 513d 80f5 453e
000000a0: 56ad 163d cc0c 2a3e 2af6 94bc 2ef1 02be
000000b0: e68b 783e 6453 383d 329e 56be cb25 d7bc
000000c0: 3cb5 353e d393 043e d45c f4bd f4af a8be
000000d0: 79c3 8fbe 0c21 513d dc10 003d e13d d4bc
000000e0: 732d f13c c7fb 9e3d dfca b6bd 3afc 773e
000000f0: 290b 84be 4d04 a23d 80e3 743d d7f8 fb3d
00000100: f255 ba3d f142 22be fbfc d4bc 87fd babd
00000110: 7979 cebe ecdd d63d 95c7 4c3e c473 a43e
00000120: cb4a c03e 271f a13c 4d12 a0be d3c1 3cbe
00000130: c222 dbbd b5c9 e5bd cc61 e63d 7709 453e
00000140: f209 94bb 1625 b3be 43fb 8e3e 6931 4cbe
00000150: 7a8d 963d 4724 6cbb 331e 5a3e 7c2d 103e
00000160: f57d f63d cbd2 b8bd 87b5 89be bdc0 203e
00000170: 0554 bcbe edc5 e4be 7227 323d 1e8b afbd
00000180: c1d4 03bd 28b7 6cbe a826 02be 0c0c e2bd
00000190: f5a2 51be d417 afbe 4252 943d 6b1f c5be
000001a0: f4c9 0bbd 5354 82be eff5 74bd 8903 a33e
000001b0: e991 50be c351 863e 7f85 623d 811d d4be
000001c0: 4edb 153d 84f5 c23b b069 f7bd 1cfb 483d
000001d0: 0bc2 82be 6ab0 c1be af59 72be 11ee 8d3d
000001e0: 1572 a3be e872 bc3d eb13 693c a33d b7be
000001f0: 2101 243e 041c f0bc bf5f dbbc c431 8cbe
00000200: bb9d 263e 8c9c 803e 2860 083e 1b24 abbc
00000210: 7f70 c5bd db7d 5ebd 500c 453d c412 83be
00000220: 1386 193c 19c2 2e3d 6c76 813c d333 51be
00000230: d040 35be eac7 97bd c48b a9bc 1aa9 1cbd
00000240: 9100 d63c 0e26 233e 42d3 8ebe 748d 68be
00000250: bdda 92be 6b7e 063e edc9 d4bc 8291 c73d
00000260: f0e2 82bc 37d1 c1bd 8bcc a33e 2216 bc3d
00000270: 644d abbe 7337 bfbe 0e61 3a3c 6abe d93e
00000280: 7d72 963e 4e5a 563e 345f 6abe 9f7f e93d
00000290: 0924 b83d 58ee a93e b925 95bd 831b 3e3d
000002a0: 7804 3b3d 9eca 413e 1a39 2cbf 64f4 863b
000002b0: 47f4 2d3d 943c 303e bc76 84be 87b2 91be
000002c0: fecc 2bbd 730f 77bd 89bf 1bbe ce71 fdbd
000002d0: afd6 82be 6581 52be 4d3a 283d 988a af3d
000002e0: bd2c f83c 2aad 123e 2d3a 3abe 2966 123f
000002f0: e71b 4abc 0ebb bfbd d49f 83be dcb2 333d
00000300: 3252 923d 406f 51be 3da2 433e c9f0 ab3d
00000310: 657a 5fbe 427a 413e 93bd 7b3d 736e 333d
00000320: f199 7b3e c41d d4bd ea7d 753e e955 473e
00000330: 0593 f63d 527d fdbc 5cf7 04be b6f3 90be
00000340: 4214 4e3e 76a8 123d 729a adbd f944 203e
00000350: 9474 943c de2f 273e a48c 993d 6f0e 18bd
00000360: 4f53 8dbe 06ce a4be d145 68bd d902 96be
00000370: 5af0 87bd 5479 72bc 3735 bb3e d581 c73d
00000380: 847f 193d 543c e8bd b207 8fbe 993b 50bc
00000390: acae d23d 8aac 25bc 7d4e 0d3e 291c 763e
000003a0: 8481 e4bd 7d5a 923d 8a2a 843d ada8 87be
000003b0: 4720 32bd e539 093e 7557 853e 15be 0d3e
000003c0: 3f6b 113e b657 c13d 3cf3 593e e463 db3c
000003d0: 1e58 903d 6747 c13c b422 2e3d f04c 083e
000003e0: 1fc0 583c 92ba a23d 027e 2dbe aa06 26be
000003f0: 1c37 8ebe 9850 a03d 069c 9abd 3f46 d2bd

actor.0.bias f4 [64]
0.032307293 0.03422566 -0.0039574555 -0.045563158 -0.047196604 0.16359411 0.16285555 -0.03506728
-0.053640824 -0.0211122 -0.018160282 -0.050570406 0.16169384 0.0054599284 0.10690253 0.027188865
0.101019934 0.14460179 0.11537574 0.08301067 -0.13050164 0.03211409 0.11080569 0.21737142
-0.04616981 -0.0385555 -0.107984126 0.0716076 0.07563462 0.0725883 -0.06490929 0.19537899
-0.049256563 0.054362234 0.11050467 -0.11517025 0.09602473 0.14658786 -0.036384348 0.09780325
0.16766244 0.0984389 0.07158849 -0.071665175 -0.036196105 0.072977364 0.040267862 0.12801759
0.03703615 0.06929862 0.008867003 0.18175063 0.1382191 0.032106113 0.055330545 -0.005602254
-0.012946018 -0.04363754 0.09559067 0.053282157 -0.05393589 0.059916724 0.081943035 0.13927838
00000000: a754 043d 3530 0c3d 8bad 81bb 6fa0 3abd
00000010: 3a51 41bd 3785 273e 9bc3 263e b5a2 0fbd
00000020: 7bb6 5bbd 7ef3 acbc dfc4 94bc ea22 4fbd
00000030: 1293 253e 33e9 b23b b7ef da3d 2fbb de3c
00000040: 8ae3 ce3d 7e12 143e 1e4a ec3d 8001 aa3d
00000050: 39a2 05be 108a 033d 18ee e23d 9d96 5e3e
00000060: 8e1c 3dbd 5fec 1dbd c826 ddbd 01a7 923d
00000070: 53e6 9a3d 2da9 943d 29ef 84bd 6e11 483e
00000080: 40c1 49bd efaa 5e3d 4650 e23d 61de ebbd
00000090: 9da8 c43d 211b 163e c107 15bd 124d c83d
000000a0: b4af 2b3e 569a c93d fc9c 923d 31c5 92bd
000000b0: 5e42 14bd 2875 953d eaef 243d 0b17 033e
000000c0: 38b3 173d 6fec 8d3d e846 113c d61c 3a3e
000000d0: 4f89 0d3e b381 033d 48a2 623d 1d93 b7bb
000000e0: 891b 54bc 47bd 32bd 0bc5 c33d 643e 5a3d
000000f0: e1eb 5cbd 3d6b 753d c0d1 a73d fe9e 0e3e

actor.2.weight f4 [3, 64]
0.033333264 -0.11795868 0.055559106 0.087202184 0.15415812 -0.03566138 -0.10557131 0.032780483
-0.054746773 -0.055267733 -0.04986267 -0.0051147724 -0.0357324 -0.22696412 0.1355028 0.050400615
-0.26717368 0.05925271 -0.127305 -0.08422193 0.11816004 -0.13184471 -0.06164998 -0.18197875
0.15434466 -0.04751131 0.0865008 0.08895487 0.12706025 0.0141167 0.09605049 -0.18935245
0.10030057 5.2582785e-05 -0.0035443332 0.19131741 -0.14413914 -0.2747065 0.08458614 0.052525636
-0.26656976 -0.03707746 -0.3157408 -0.07150809 0.059980854 -0.013114874 -0.07670962 0.21720399
0.15905564 0.13481542 -0.31693336 -0.27733287 -0.017016865 0.04590865 -0.12548067 0.0072120125
0.049698673 -0.11128586 -0.13236167 0.14091511 -0.0074263406 0.0966987 -0.2729195 -0.09313381
0.3273042 -0.35947236 0.15995109 -0.4311365 0.03697056 -0.33058164 0.32455164 -0.100381285
0.19099163 -0.47858864 -0.43651006 -0.25388527 -0.33390555 0.43622592 -0.22310588 0.40166837
-0.036606558 0.2306537 0.3821051 -0.29726225 0.05905859 0.37964126 -0.33378756 -0.2916938
0.21527237 -0.29276833 0.20353046 0.10367692 0.15989135 0.05235889 -0.2502168 -0.09517619
0.11752127 0.054696452 -0.25342107 -0.33669603 -0.41867867 0.328071 0.344507 -0.20711029
0.32309866 0.28937304 -0.22818504 0.023365349 0.30640438 0.44884992 0.34167928 -0.44026282
-0.015890166 -0.25702298 -0.10698913 0.1553681 0.3401211 -0.40715876 -0.17728372 -0.2050227
-0.02891961 0.39611003 0.2487307 -0.17306773 -0.04695036 -0.59839594 -0.26311585 0.35394776
-0.40075222 0.5348415 -0.46247497 0.25868943 0.17156227 0.37818474 -0.2250734 0.14147583
-0.48003808 0.4595389 0.22958894 0.3206953 0.2590707 -0.2350271 0.29256275 -0.31599185
0.26687315 -0.50723636 -0.2715446 0.36669657 -0.38783503 -0.08571754 0.54462147 0.4345864
-0.5565449 0.20219992 -0.54995334 -0.54497933 -0.35356897 -0.20371114 0.24049588 0.29550436
-0.20765617 -0.011347305 0.32972676 0.15220508 0.46226078 -0.027136382 -0.49843338 -0.006475522
-0.128493 -0.3156573 0.41106972 -0.07615385 -0.37377402 -0.21019204 -0.27081797 0.44714418
-0.24801913 0.11653217 0.29769504 0.102034025 -0.15597895 0.3961622 0.32371148 0.27254823
0.004333954 -0.39301664 -0.27212548 0.17315775 -0.03203993 0.5042342 0.30451784 -0.37456235
00000000: 7688 083d 5294 f1bd f291 633d 0f97 b23d
00000010: a0db 1d3e ab11 12bd c535 d8bd d444 063d
00000020: 273e 60bd 6b60 62bd cd3c 4cbd d299 a7bb
00000030: 235c 12bd 4869 68be 3fc1 0a3e e070 4e3d
00000040: fdca 88be f8b2 723d 3e5c 02be 8c7c acbd
00000050: e4fd f13d 4d02 07be b084 7cbd a358 3abe
00000060: 870c 1e3e 389b 42bd 5527 b13d f92d b63d
00000070: 151c 023e bb49 673c 1fb6 c43d 9ce5 41be
00000080: 636a cd3d 568c 5c38 0b48 68bb b6e8 433e
00000090: 3699 13be 55a6 8cbe 803b ad3d 1f25 573d
000000a0: d57b 88be 89de 17bd c7a8 a1be d572 92bd
000000b0: 7cae 753d c5df 56bc ef19 9dbd b96a 5e3e
000000c0: 7bdf 223e 0e0d 0a3e 1745 a2be 93fe 8dbe
000000d0: f466 8bbc b50a 3c3d 017e 00be bf52 ec3b
000000e0: d690 4b3d d7e9 e3bd d189 07be 0d4c 103e
000000f0: a958 f3bb f809 c63d 1bbc 8bbe f0bc bebd
00000100: 6b94 a73e c30c b8be 38ca 233e ecbd dcbe
00000110: 716e 173d ff41 a9be a22b a63e b494 cdbd
00000120: 4f93 433e 9209 f5be 3f7e dfbe 40fd 81be
00000130: abf5 aabe 0159 df3e de75 64be 7aa7 cd3e
00000140: c2f0 15bd 7c30 6c3e 48a3 c33e c232 98be
00000150: 6ce7 713d 5760 c23e 34e6 aabe e458 95be
00000160: 5c70 5c3e bbe5 95be 4a6a 503e 9154 d43d
00000170: 8fba 233e 4776 563d 6b1c 80be bceb c2bd
00000180: feae f03d 6309 603d 68c0 81be 6c63 acbe
00000190: 0d5d d6be ecf8 a73e 3963 b03e b814 54be
000001a0: 306d a53e b428 943e 57a9 69be b068 bf3c
000001b0: 09e1 9c3e a8cf e53e 96f0 ae3e 216a e1be
000001c0: 182c 82bc 8498 83be 1e1d dbbd d118 1f3e
000001d0: 5a24 ae3e 1d77 d0be dd89 35be 78f1 51be
000001e0: d1e8 ecbc efce ca3e 43b3 7e3e ab38 31be
000001f0: 054f 40bd 7a30 19bf 1fb7 86be a438 b53e
00000200: 652f cdbe 5feb 083f 85c9 ecbe f172 843e
00000210: 05ae 2f3e 6ea1 c13e a479 66be 0adf 103e
00000220: 8dc7 f5be af48 eb3e 5d19 6b3e 2d32 a43e
00000230: eaa4 843e f2aa 70be c9ca 953e afc9 a1be
00000240: 99a3 883e 3eda 01bf e507 8bbe a7bf bb3e
00000250: 5092 c6be ad8c afbd 506c 0b3f 1c82 de3e
00000260: ba79 0ebf 7f0d 4f3e bec9 0cbf c483 0bbf
00000270: fe06 b5be a799 50be 8d44 763e 594c 973e
00000280: d2a3 54be 0cea 39bc f2d1 a83e a6db 1b3e
00000290: 72ad ec3e 1e4d debc a932 ffbe 9e30 d4bb
000002a0: ab93 03be d59d a1be bb77 d23e 8df6 9bbd
000002b0: 4f5f bfbe 953c 57be a7a8 8abe 15f0 e43e
000002c0: baf8 7dbe 6ba8 ee3d 7c6b 983e 37f7 d03d
000002d0: f2b8 1fbe c6d5 ca3e 83bd a53e 718b 8b3e
000002e0: d703 8e3b 7a39 c9be 0854 8bbe 4450 313e
000002f0: 4d3c 03bd 7e15 013f c3e9 9b3e a3c6 bfbe

actor.2.bias f4 [3]
-0.005294374 0.054487947 0.14695328
00000000: 6e7c adbb c12e 5f3d ec7a 163e

critic.0.weight f4 [64, 64]
0.106331356 -0.08917172 0.08775932 0.12141395 0.20586972 0.026521312 0.07868075 -0.03796428
-0.10134343 0.16942075 0.10538865 0.008546035 -0.060259353 0.1198716 -0.036136247 0.099744126
-0.16523458 -0.261011 -0.06993473 -0.07503208 0.073483855 0.14397515 -0.06579487 -0.0063889343
0.13285738 -0.03475344 -0.13326502 0.17331837 0.1555782 0.076047674 -0.030503593 0.010650595
0.08027668 -0.1123612 0.23191749 0.0012324245 0.06833305 0.09271209 -0.013920501 0.10140998
-0.04231831 0.097481884 -0.14605711 0.1602035 0.23786505 0.030331047 0.007943675 -0.05613728
0.04381955 -0.05815807 -0.08024867 0.12114364 -0.054042432 0.012936611 -0.012806373 -0.061499663
0.12733163 0.2397885 -0.062327392 0.042556655 -0.010143069 0.12498606 -0.020553492 -0.06774003
-0.036281914 -0.045610968 -0.039348356 0.053945377 0.046272736 -0.10608308 0.14911659 -0.07693168
-0.1518652 0.10179462 -0.09332452 -0.20049989 -0.26785117 0.05152568 0.028438583 0.14039347
0.027490368 -0.06693934 0.05860156 -0.31961325 0.095135786 0.05113129 0.18126376 0.07245612
0.116280966 0.04645778 -0.079082 0.032165818 0.5105178 0.022503747 -0.1353055 0.018336713
0.102495685 -0.06459236 0.13540128 -0.054092817 0.21668157 0.009109359 -5.488604e-05 -0.27992156
0.14710177 0.08863721 -0.1383081 -0.00964332 0.18341851 -0.07675232 -0.15656565 -0.5601313
0.19776458 0.024184976 -0.12273285 -0.5135383 -0.42959785 -0.1393169 0.21355611 0.19350731
-0.2035786 0.3624267 -0.08520179 -0.120018445 -0.040134873 0.1598094 0.12290952 -0.06439161
0.28010654 -0.032647144 0.09930972 0.02650538 0.0540013 0.09067141 0.01572398 -0.09356261
0.010297765 0.31601098 0.006354626 0.08667673 0.095922336 0.017068818 -0.108170204 0.105086565
-0.14571007 -0.040647883 -0.15423656 -0.092290685 0.12708756 0.19590786 -0.022903595 -0.018822864
-0.016658561 0.22864462 -0.024329117 -0.042602573 0.2270462 0.13063939 -0.20170593 -0.096135765
0.20989373 -0.035881396 0.40673074 -0.087269336 0.064196534 0.15507828 -0.12983918 -0.07928018
0.18658894 -0.018195564 0.030047696 -0.17806028 0.106135175 -0.033055864 0.13765751 -0.04226631
0.25803316 0.03922659 0.15653361 0.10630129 0.08002261 0.18576792 0.0751168 -0.06187237
0.12075048 0.40983576 -0.17536402 -0.18203376 -0.4387637 -0.04846339 0.042904615 -0.07719033
-0.00896917 0.054228596 0.049727727 -0.19156362 0.032685507 0.019037982 0.07691206 -0.35650823
-0.044227816 0.16514458 -0.0012812703 -0.0045683407 -0.09682494 -0.0022339234 -0.06956675 -0.09986273
-0.031679038 -0.096559115 -0.07000243 0.11980825 0.008233601 0.15039936 0.018134292 0.00011468667
-0.20718946 -0.03291703 -0.02723641 -0.19695847 0.07011225 0.065697774 -0.19121276 0.14926559
-0.15955856 0.14772268 -0.20633176 -0.07798065 0.044272956 0.0875504 0.025583722 0.11974025
0.009811227 0.0053379326 0.08102477 -0.269958 0.052083965 0.12447006 0.03596939 0.021676954
0.1299923 0.053980906 0.002747582 -0.023575708 0.094804846 0.07222002 -0.029047033 0.20418471
0.07143066 0.02323142 -0.12502727 0.0084288735 -0.018743016 -0.13507974 -0.116162434 -0.030533573
00000000: 41c4 d93d aa9f b6bd 29bb b33d e1a7 f83d
00000010: 83cf 523e 3943 d93c 6023 a13d 6f80 1bbd
00000020: 258d cfbd a27c 2d3e 01d6 d73d ab04 0c3c
00000030: 83d2 76bd 3e7f f53d 9a03 14bd a646 cc3d
00000040: 4133 29be 3ca3 85be f139 8fbd 6baa 99bd
00000050: b47e 963d 396e 133e 76bf 86bd 445a d1bb
00000060: c40b 083e a059 0ebd a076 08be 5f7a 313e
00000070: e44f 1f3e e2be 9b3d ace2 f9bc d57f 2e3c
00000080: 1a68 a43d a11d e6bd c77b 6d3e 4e89 a13a
00000090: 33f2 8b3d d6df bd3d d012 64bc 09b0 cf3d
000000a0: f755 2dbd 95a4 c73d ff8f 15be 630c 243e
000000b0: e592 733e d178 f83c 3026 023c 34f0 65bd
000000c0: 217c 333d 2837 6ebd 6a59 a4bd 281a f83d
000000d0: 995b 5dbd 14f4 533c d2d1 51bc 12e7 7bbd
000000e0: 3963 023e 1e8b 753e 024b 7fbd e34f 2e3d
000000f0: 1d2f 26bc b1f8 ff3d cc5f a8bc 49bb 8abd
00000100: 589c 14bd 91d2 3abd be2b 21bd d4f5 5c3d
00000110: 7b88 3d3d 1642 d9bd 05b2 183e 5b8e 9dbd
00000120: 8d82 1bbe b379 d03d ed20 bfbd d84f 4dbe
00000130: ca23 89be 970c 533d 08f8 e83c 4ec3 0f3e
00000140: 7b33 e13c 7e17 89bd 3008 703d 59a4 a3be
00000150: 8dd6 c23d 0b6f 513d 359d 393e e063 943d
00000160: b724 ee3d 834a 3e3d bef5 a1bd 4ec0 033d
00000170: 4bb1 023f c759 b83c 868d 0abe e036 963c
00000180: 42e9 d13d 0049 84bd a2a6 0a3e 6e90 5dbd
00000190: c6e1 5d3e 6c3f 153c 7035 66b8 e151 8fbe
000001a0: d9a1 163e 6d87 b53d a3a0 0dbe 04ff 1dbc
000001b0: 10d2 3b3e 5230 9dbd bf52 20be c464 0fbf
000001c0: cc82 4a3e 921f c63c 5c5b fbbd 3f77 03bf
000001d0: 40f4 dbbe 17a9 0ebe 74ae 5a3e c826 463e
000001e0: e976 50be fe8f b93e 477e aebd 3bcc f5bd
000001f0: 7764 24bd 13a5 233e fdb7 fb3d c0df 83bd
00000200: 206a 8f3e 03b9 05bd e562 cb3d d021 d93c
00000210: 7830 5d3d efb1 b93d 93cf 803c c19d bfbd
00000220: f5b7 283c 31cc a13e 773a d03b 9283 b13d
00000230: ee72 c43d e8d3 8b3c 5788 ddbd a037 d73d
00000240: 0535 15be 657e 26bd 30f0 1dbe e602 bdbd
00000250: 3e23 023e 129c 483e 52a0 bbbc 6832 9abc
00000260: 8977 88bc d121 6a3e db4d c7bc 0980 2ebd
00000270: cd7e 683e 55c6 053e 008c 4ebe d4e2 c4bd
00000280: 62ee 563e 5ff8 12bd 033f d03e 44ba b2bd
00000290: 7979 833d d7cc 1e3e 90f4 04be a65d a2bd
000002a0: 2c11 3f3e dd0e 95bc 9626 f63c 6f55 36be
000002b0: 665d d93d 9665 07bd 17f6 0c3e 701f 2dbd
000002c0: ec1c 843e 10ac 203d 594a 203e 7eb4 d93d
000002d0: e5e2 a33d f239 3e3e d6d6 993d e26d 7dbd
000002e0: 074c f73d fed5 d13e a092 33be 0f67 3abe
000002f0: a3a5 e0be 8c81 46bd c0bc 2f3d f715 9ebd
00000300: 6df3 12bc ce1e 5e3d 4daf 4b3d 4129 44be
00000310: 3de1 053d 8bf5 9b3c 1284 9d3d 3f88 b6be
00000320: 3a28 35bd a91b 293e 4cf0 a7ba 05b2 95bb
00000330: 274c c6bd 0467 12bb 0379 8ebd d584 ccbd
00000340: e1c1 01bd c9c0 c5bd 6f5d 8fbd 075e f53d
00000350: 3ae6 063c 4a02 1a3e 5e8e 943c f083 f038
00000360: 7929 54be 02d4 06bd e41e dfbc 7baf 49be
00000370: 0397 8f3d 8e8c 863d 47cd 43be 14d9 183e
00000380: 5263 23be 9d44 173e a248 53be 52b4 9fbd
00000390: 8f57 353d a04d b33d f494 d13c 603a f53d
000003a0: 45bf 203c d3e9 ae3b 51f0 a53d ef37 8abe
000003b0: ff55 553d 29ea fe3d a454 133d de93 b13c
000003c0: b41c 053e 151b 5d3d c710 343b d821 c1bc
000003d0: 0b29 c23d 17e8 933d 0bf4 edbc cc15 513e
000003e0: 3d4a 923d d24f be3c 2607 00be 4219 0a3c
000003f0: f48a 99bc 5852 0abe 92e6 edbd 8b21 fabc

critic.0.bias f4 [64]
0.1850335 0.16050202 0.13113502 0.17344819 0.056266792 0.14347854 0.18910077 -0.04690986
-0.028927222 0.107947975 0.06772094 0.17246705 0.11047857 0.22229862 0.007493077 0.13257582
0.08935918 0.077483654 -0.005109718 0.24436247 0.06482211 0.08359523 0.10096847 0.20435424
0.057289455 0.0055235033 0.15748343 0.099822305 0.057236742 0.13521002 0.162423 0.027030226
-0.052592475 0.19373588 -0.0216535 0.05375619 0.016667653 -0.19459446 0.13562444 0.058300916
0.16718332 0.0864915 -0.004872336 0.1653428 0.16115566 0.0037240328 0.070995115 0.17072026
-0.1185841 0.054146476 0.081638046 -0.016496032 0.08474288 0.15595506 0.15287234 -0.13950473
0.20198101 0.16702944 0.1460525 0.18573488 0.071576685 0.20283659 0.17762104 0.0044753784
00000000: 6c79 3d3e a45a 243e 4248 063e 679c 313e
00000010: 0278 663d 0aec 123e a2a3 413e 8e24 40bd
00000020: c8f8 ecbc d413 dd3d 47b1 8a3d 349b 303e
00000030: 9742 e23d 40a2 633e 7c88 f53b f5c1 073e
00000040: f201 b73d c0af 9e3d 6c6f a7bb 283a 7a3e
00000050: 74c1 843d fa33 ab3d 8fc8 ce3d 3d42 513e
00000060: 59a8 6a3d 81fe b43b 5643 213e a36f cc3d
00000070: 1371 6a3d 7f74 0a3e 3752 263e 7e6e dd3c
00000080: 356b 57bd b362 463e ae62 b1bc 732f 5c3d
00000090: 9a8a 883c c543 47be 22e1 0a3e f1cc 6e3d
000000a0: 1b32 2b3e 7522 b13d 1ea8 9fbb 9f4f 293e
000000b0: fd05 253e e70e 743b e365 913d 4bd1 2e3e
000000c0: 38dc f2bd b2c8 5d3d d931 a73d b022 87bc
000000d0: ad8d ad3d afb2 1f3e 918a 1c3e 54da 0ebe
000000e0: 1cd4 4e3e c409 2b3e c98e 153e 4931 3e3e
000000f0: cc96 923d 65b4 4f3e 4ae2 353e 32a6 923b

critic.2.weight f4 [1, 64]
0.18435788 0.29680848 0.14120606 -0.08818258 -0.097141795 -0.07686419 0.36454418 -0.20642439
-0.3260331 -0.1766921 0.17924012 0.11655401 0.28484726 0.25659814 -0.15110822 0.34733224
0.25706026 -0.11390351 0.22657438 0.34686178 -0.03407925 -0.11280692 0.20413586 0.36589134
0.28327745 0.28065172 0.29522663 0.32765156 -0.072905116 -0.3182757 0.17129691 -0.13104276
-0.3922849 0.14107528 -0.02020504 0.3469449 -0.01493478 -0.25873694 -0.038923975 -0.05166417
0.10916086 -0.10272362 -0.35564193 0.22505961 0.46119657 -0.15780404 -0.06561726 0.4284383
0.07541541 0.34473103 -0.10743797 -0.071980536 -0.24308437 0.37262467 0.25240055 0.18798131
-0.2789433 0.41997445 -0.06981741 0.107742794 0.1522549 0.3192915 -0.09414915 0.18158008
00000000: 50c8 3c3e 48f7 973e 5298 103e 1299 b4bd
00000010: 47f2 c6bd f96a 9dbd 89a5 ba3e ea60 53be
00000020: cfed a6be c6ee 34be b98a 373e deb3 ee3d
00000030: 80d7 913e d560 833e 1dbc 1abe 88d5 b13e
00000040: 679d 833e 3e46 e9bd 1d03 683e de97 b13e
00000050: af96 0bbd 5107 e7bd fe08 513e 1c56 bb3e
00000060: be09 913e 95b1 8f3e f227 973e f2c1 a73e
00000070: 474f 95bd 08f5 a2be 7568 2f3e 1330 06be
00000080: 91d9 c8be 0a76 103e 0a85 a5bc c3a2 b13e
00000090: 02b1 74bc 2b79 84be bf6e 1fbd cf9d 53bd
000000a0: bb8f df3d c360 d2bd b316 b6be 0776 663e
000000b0: f521 ec3e 6297 21be 5862 86bd 445c db3e
000000c0: 6573 9a3d 9680 b03e 7008 dcbd 886a 93bd
000000d0: 1ceb 78be a9c8 be3e a53a 813e 2c7e 403e
000000e0: a8d1 8ebe e406 d73e 6efc 8ebd 41a8 dc3d
000000f0: b5e8 1b3e 2d7a a33e 45d1 c0bd 21f0 393e
