models/ppo_trading_model_ba.pt (torch, 40430 bytes, 9 tensors)

shared.0.weight f4 [64, 7]
000000 e8 ba 83 3e dc a7 a0 3e 85 5e 80 bd 89 01 11 3f
       0.25728536 0.31378067 -0.06268028 0.5664297
000010 fb 9a ee bd d9 96 b8 3d f0 1f 62 3e 8f de 0e bd
       -0.11650654 0.09013147 0.22082496 -0.034880217
000020 fd 3b a2 3e 81 9d 99 be 32 15 f2 3e 67 30 2f 3f
       0.31686392 -0.30002978 0.47281796 0.6843323
000030 16 b5 67 3e 5c d2 c2 3e 39 16 6a 3e f0 fa 63 3d
       0.22627673 0.38051116 0.2286004 0.055659235
000040 16 b6 90 3e 02 8b f3 3b 5c 14 a1 be 8f 8f 28 3e
       0.2826392 0.0074323425 -0.31460845 0.16461013
000050 31 9d 4e bf 3d f2 12 be c5 a8 5c be 4d b1 8b 3e
       -0.80708605 -0.14350219 -0.21548755 0.27283707
000060 a8 67 9f be 7e 64 a4 be 6e ef 8f 3c c5 2c 8b be
       -0.3113377 -0.3210792 0.017570224 -0.27182594
000070 8a 8f a4 bd 40 37 eb be fc cc 50 3e 45 59 da be
       -0.080351904 -0.4594059 0.20390695 -0.42646232
000080 16 68 6d 3e 99 42 84 3e 7a 56 96 bf 8e 28 98 3e
       0.23184237 0.2583206 -1.174514 0.2971844
000090 a4 ae a8 3e 52 f0 f2 3e c1 6b 28 3e c9 76 10 be
       0.3294574 0.47448975 0.16447355 -0.14107813
0000a0 21 c7 c1 3c b1 a7 a1 3e 3a cd 20 3e cb 5b 33 3f
       0.023654522 0.3157325 0.15703288 0.7006194
0000b0 b9 bd 42 3f ed 18 0d be 37 16 4b 3f 35 45 b9 3d
       0.76070744 -0.1377904 0.7933077 0.09046403
0000c0 8c e4 c2 3e a1 b8 17 bf b4 a9 2c bf 03 54 66 bd
       0.38064992 -0.59266096 -0.67446446 -0.056232464
0000d0 94 23 fc be 6d 15 09 3f 68 bf 51 3e e5 3f c5 bc
       -0.49245894 0.5354832 0.20483172 -0.024078319
0000e0 58 55 aa 3d bd 9d 14 be 68 61 c3 3c 59 23 56 be
       0.08317059 -0.14513297 0.023850158 -0.20911922
0000f0 ef a7 96 3e 2d 7d 19 bf 5c e9 a8 3e b9 fd 24 3e
       0.29424998 -0.5995663 0.3299054 0.16112413
000100 07 6b a7 3e b9 a4 8e bc b5 02 01 3f a5 78 a4 be
       0.32698843 -0.01741253 0.50394756 -0.32123294
000110 28 06 e8 bd 75 2f d7 be dc d5 88 3e 22 1e 0c 3f
       -0.11329299 -0.42028394 0.26725662 0.5473348
000120 2b 24 11 3f d6 da ec 3c 85 ee a0 bf 98 37 8d 3c
       0.5669581 0.028912943 -1.257279 0.017238423
000130 01 64 b1 3d a4 8a 28 3e 82 10 ea 3e 1b 3b cf 3e
       0.08661652 0.16459137 0.4571572 0.4047478
000140 02 fb 44 bb 1a 93 83 bf 08 0e 32 bc a3 08 50 3e
       -0.003005684 -1.0279267 -0.010867603 0.20315795
000150 da 7c 0b bd 5a ba 06 3d 71 6e 00 3f 02 f8 9e be
       -0.034054615 0.032892562 0.5016852 -0.3104859
000160 49 2c 02 bf 11 a0 6c 3e 2d b4 c7 3e 1e 10 12 bd
       -0.50848824 0.23107935 0.3900465 -0.0356599
000170 2d 10 52 3f 30 fd 47 3f e2 87 33 be f2 84 58 3e
       0.8205593 0.7812071 -0.17532304 0.21144465
000180 2c 97 95 3e 0d 63 2b bd 44 b3 23 bf d6 9a 8a bf
       0.29216897 -0.04184251 -0.6394541 -1.0828502
000190 1b 74 5b bf a5 61 21 bb 48 c5 54 bd 91 c6 4b be
       -0.8572404 -0.002462485 -0.051945955 -0.19899966
0001a0 7a 40 88 3d 1d 50 12 bf 42 4f fe be ee da f4 bd
       0.06652923 -0.57153493 -0.49669844 -0.1195582
0001b0 60 2a 93 be 6a 84 29 bf 1b df fe 3e 6c a0 7a 3e
       -0.28743267 -0.6621767 0.4977959 0.24475259
0001c0 4e d9 63 be f6 56 64 be 06 f5 78 3d 3d b7 46 be
       -0.22250864 -0.22298798 0.060780548 -0.19405837
0001d0 7f ee 54 be 5f 07 1b bf 93 ca 11 be f0 68 f4 be
       -0.20794104 -0.6055812 -0.14237432 -0.4773631
0001e0 b3 4c 60 be f7 64 d9 be fc e5 a2 3e 28 d0 01 bf
       -0.21904258 -0.42459843 0.3181609 -0.50708246
0001f0 14 4f 46 be c3 15 66 3d 29 3b b3 bd ec 16 b5 bd
       -0.19366103 0.056173097 -0.08751518 -0.088422626
000200 d9 09 20 3f a5 c8 5b 3d a8 31 3f 3f c2 ca 86 3e
       0.62515026 0.053658146 0.74685144 0.26326567
000210 e9 de 97 be 65 13 7d 3e e2 0f a2 3e 17 30 7a bc
       -0.29662254 0.2471443 0.31652743 -0.015270255
000220 5d 22 4b bd 00 7e 96 bf fe ee bb bd 21 f5 91 bb
       -0.04959332 -1.1757202 -0.091764435 -0.0044542705
000230 3d 11 24 3e dd 4b 09 bf c8 d4 d5 3d 00 1d bc be
       0.16022201 -0.53631383 0.104409754 -0.36740875
000240 ff 9c dc 3e 74 5b 82 3e f0 de 1b 3e 1d 25 c6 3e
       0.4308853 0.25460398 0.15221763 0.3870019
000250 09 a2 0d 3f 43 e3 f3 bd 96 f0 ba bd df 0f 58 be
       0.5532537 -0.11908581 -0.091279194 -0.21099804
000260 6c bd ef bc a9 c2 3a bc 51 7d e8 3e f5 f6 9e be
       -0.029265128 -0.01139895 0.4540811 -0.31047788
000270 78 cd a0 3d c0 e0 ee 3d db 58 15 3e 0b 62 42 bf
       0.0785169 0.116639614 0.14584677 -0.7593085
000280 7d 14 1b 3f 58 82 46 3d 73 31 59 3d 1d cf 97 be
       0.6057814 0.04846415 0.053025674 -0.29650202
000290 63 f8 9a 3e bb 4b 87 3e 74 2d a2 bd a2 05 01 3f
       0.3026763 0.26424965 -0.07918826 0.5039922
0002a0 2d 4e 59 3e 88 85 5b be 2f 63 44 be bb 7f 63 3e
       0.21221228 -0.21437657 -0.1917846 0.22216694
0002b0 f5 b6 3b 3f 8d b1 8d 3e 7a 9c aa 3d 2c 77 42 bf
       0.73326045 0.27674523 0.08330627 -0.7596309
0002c0 d7 10 86 bf 76 92 19 bf 12 ad 1f 3e 60 a4 28 be
       -1.0473889 -0.59989107 0.15593365 -0.16468954
0002d0 ec ab ff 3d 94 f2 c9 3e 3c ac be be 67 0d ea be
       0.12483963 0.39442885 -0.3724078 -0.4571335
0002e0 7f fa 92 bd f7 1d bd 3e 8f 98 1c 3f d4 b5 9d 3d
       -0.071766846 0.36936924 0.61170286 0.077006966
0002f0 fc f8 80 bd e1 db 9e be 23 65 fa be d2 d8 9f be
       -0.0629749 -0.3102713 -0.48905286 -0.31220108
000300 15 6f fc 3e 47 27 af 3f 57 70 2c 3e f4 c4 b9 bd
       0.493035 1.3683861 0.16839729 -0.09070769
000310 46 5e 8f 3d e3 61 df bd f8 b0 01 be 0e 95 77 be
       0.07000403 -0.10907342 -0.12665164 -0.24177954
000320 d9 81 2f bf bd 60 c7 3b b6 c6 0a 3f 80 b6 2f be
       -0.68557507 0.00608453 0.5420946 -0.17159462
000330 f1 68 87 bd d6 08 43 be 70 30 bd bd 79 e9 40 bf
       -0.06611813 -0.1904634 -0.09237754 -0.7535625
000340 07 cd c4 3d 8e 23 23 3e 0f 57 d5 3e 5f fe 1e 3f
       0.09609418 0.15931532 0.41667983 0.6210689
000350 a5 6d e1 bc 1b 34 45 be 28 7b 63 3f e6 0a 8c 3e
       -0.027518103 -0.19258158 0.88859797 0.27352065
000360 a4 39 0e 3d 32 3e 65 be f2 29 eb 3d bb 31 46 3d
       0.03472294 -0.22387007 0.1148261 0.04838727
000370 7e e6 83 be 50 5f 67 3e a6 50 00 bf 5d 98 a0 3e
       -0.2576179 0.22594953 -0.5012306 0.31366244
000380 8f a9 f7 bd c4 86 0e 3f 7b 44 9e 3e f0 a4 d8 3e
       -0.120928876 0.55674386 0.3091162 0.42313337
000390 33 5d a0 3d cb 40 aa be fb 5e 26 bf 9f 23 dd 3e
       0.07830276 -0.33252558 -0.6498868 0.4319124
0003a0 75 9f b1 3e c3 c8 06 3f 2e 4f 72 bc 60 00 1b 3d
       0.3469197 0.5265009 -0.014789386 0.037842155
0003b0 3b d4 2e bd d7 bf 40 be 60 af 0c bf 59 49 0f bf
       -0.042682867 -0.18823181 -0.549551 -0.55971295
0003c0 fa 1a 66 bb a8 74 14 3d 58 34 03 3d 17 fe ac be
       -0.0035111294 0.036244065 0.03203234 -0.33787605
0003d0 73 cb 21 3e ed 9d 01 bf c7 8e 12 bf 99 1a fd 3c
       0.15800266 -0.506316 -0.5724911 0.030896472
0003e0 3e 27 a5 bd 5e e2 43 3f 2b d5 0c 3e 90 ef 77 be
       -0.080641255 0.76517284 0.13753192 -0.2421248
0003f0 24 51 bd be 23 a4 af be 99 74 32 bc 23 b9 e8 be
       -0.36975968 -0.34304914 -0.010892057 -0.45453748

shared.0.bias f4 [64]
000000 a5 39 4a 3f 78 55 ab be 59 7d b0 be 8c cc fa be
       0.7899421 -0.33463645 -0.34470633 -0.48984182
000010 dc 4f 8a bd 0a dc e8 3e 68 6e 86 3e 47 76 25 be
       -0.06753513 0.45480376 0.26256108 -0.161584
000020 84 8c b6 bd 1b 1b 0d 3f 78 a3 55 3e ed 59 77 bc
       -0.0891352 0.55119485 0.2086314 -0.015097124
000030 3f 42 4e 3e 61 d9 fa 3e de 93 1e bd a2 e3 d3 be
       0.20142458 0.48993972 -0.038715236 -0.41384608
000040 37 20 0d 3e 02 62 64 be 83 03 ab be 87 b8 e9 3d
       0.1378182 -0.22303012 -0.33401117 0.11412149
000050 11 b4 6b 3f 00 e4 45 3f 78 5f a8 3e 73 ce 30 3f
       0.92071635 0.77301025 0.32885337 0.69065017
000060 ec 16 85 3f 23 29 a4 3b d8 6b ab be 9f 89 4d 3d
       1.039762 0.0050097867 -0.33480716 0.050180074
000070 2b 37 46 be 74 d7 3b be 53 ed 24 3e a9 10 4e 3e
       -0.19356982 -0.18343908 0.16106157 0.20123543
000080 97 1e 8e 3e d7 a6 c8 bc 62 67 5a be 84 62 e6 bd
       0.27757713 -0.024493618 -0.213285 -0.11249259
000090 24 ef dc bd ac 02 e6 be d9 d4 fd 3e aa 06 b3 3e
       -0.107878 -0.44923913 0.49576452 0.34966022
0000a0 9e 1b 4a 3f 97 c3 4e 3f 38 bd 04 3f 29 14 27 3e
       0.7894839 0.80767196 0.51851225 0.16316284
0000b0 62 3d c2 3e 35 3d 13 3d dd a7 7f bd 25 e9 20 3e
       0.37937456 0.035947043 -0.062415946 0.15713938
0000c0 d5 f0 1a 3f fc 29 3b 3f f9 4d c0 be b3 0a 78 be
       0.6052373 0.7311094 -0.37559488 -0.24222831
0000d0 6b ac ef bd 2a b5 a7 be 12 5c 21 3e 0b d6 0a 3f
       -0.11702808 -0.32755405 0.15757778 0.54232854
0000e0 84 a3 22 3f 1d 68 ce 3e 8c 61 e5 be 0f e4 a7 be
       0.63530755 0.40313807 -0.44800985 -0.32791182
0000f0 d6 b4 21 be c2 9e 27 be 9e 59 9f 3e dd d3 c4 be
       -0.1579164 -0.16369155 0.3112306 -0.3844289

actor.0.weight f4 [64, 64]
000000 73 5e 07 be 78 4e 8b bd 42 a9 fa bc fb 0b 25 3e
       -0.13219623 -0.06802076 -0.030598287 0.16117851
000010 3c 2a 0b 3f 29 5f dc bd 06 47 21 3e b5 00 12 3e
       0.5436132 -0.10760338 0.1574975 0.14258082
000020 20 38 8c bd 76 cc 08 3c 73 f8 3d 3d d7 5b 34 3e
       -0.068466425 0.008349529 0.046379518 0.17613159
000030 f9 83 73 3e af 03 80 3d f2 94 3b 3d 4e 4d 51 bd
       0.23780812 0.062507026 0.045796342 -0.051099114
000040 53 bf 1f 3e a5 b0 ba 3d 3b 25 24 3e ba 28 a3 3d
       0.15600328 0.091157235 0.16029827 0.07966752
000050 36 a4 8f 3c e3 dc cb 3c ba eb 39 3d e8 96 35 3b
       0.017534357 0.0248856 0.045390822 0.0027708355
000060 98 46 d9 bd 82 47 bf bd 64 49 07 be b1 5d 21 3e
       -0.10609168 -0.09339811 -0.1321159 0.15758397
000070 a1 34 05 be 6a 7a 51 3e 76 e0 eb 3d 68 62 e9 3d
       -0.13008358 0.20456854 0.11517422 0.11395723
000080 35 24 82 3d fa 25 03 be c7 53 00 3e 7b 59 d0 3e
       0.06354562 -0.12807456 0.12531959 0.40693268
000090 ed 1f d6 3e e1 2e cd bd 89 52 49 3d 7b 9e ea 3d
       0.41821232 -0.10018707 0.049150977 0.11456009
0000a0 49 33 4e 3c 6e 7a c0 bd 67 76 22 bc 1c 53 7a 3d
       0.0125854695 -0.093983516 -0.009915925 0.061114416
0000b0 a6 a6 03 bd ef 96 d2 bd bd ba 21 3e 08 c2 65 3e
       -0.03214135 -0.102826945 0.15793891 0.22437298
0000c0 52 6a d9 3c 64 eb d7 3d 69 42 7a bc f4 bd de bc
       0.026539955 0.10542944 -0.0152746225 -0.027190186
0000d0 33 e9 1d bd 3f e5 f8 3b 50 02 01 3e 7b f3 e6 bd
       -0.038552474 0.0075956876 0.12598538 -0.11276909
0000e0 ad f8 1e bd 9e bf 3c be fb fa 94 bc fc cd 01 bd
       -0.038811374 -0.18432471 -0.018186083 -0.031690583
0000f0 46 64 04 3d 8a 51 00 3d db d6 3b 3e f1 4e 16 be
       0.03232219 0.03132776 0.1834368 -0.14678551
000100 f9 b0 1f 3e a8 cd 23 bd 23 40 b3 bd 25 cd 4e bd
       0.15594853 -0.03999105 -0.087524675 -0.05048861
000110 22 8e 4a be 6b 54 20 be ef d3 71 be 79 ae 2b 3e
       -0.19780782 -0.15657203 -0.23616003 0.16765775
000120 fe 18 0f 3e 62 0d ee bd 48 c4 00 bf 3f 51 77 be
       0.13974378 -0.11623646 -0.502995 -0.24152087
000130 f0 06 36 bb 4f 33 f5 be 7b 7a 33 3e 5e 37 8f 3e
       -0.0027775131 -0.47890708 0.17527191 0.2797193
000140 f2 e7 ea bd 27 98 bc 3d 4e 4e 37 be 56 6d 99 be
       -0.11470021 0.09208708 -0.17900965 -0.2996623
000150 71 85 38 3e e0 9b 20 be 70 1e 60 3e 8f 78 3c 3e
       0.18019654 -0.15684462 0.21886611 0.18405364
000160 55 41 83 3d f2 60 80 3e b7 37 02 bd 45 b6 92 bd
       0.064089455 0.25073963 -0.031791415 -0.071636714
000170 6c 28 38 3e de d9 c9 bd 27 88 01 bf 8e 64 4b 3d
       0.1798417 -0.09856008 -0.50598377 0.049656443
000180 47 1c bf 3c 91 c8 f1 3d e4 9d 1d 3e 41 ef 7d be
       0.023328913 0.11805833 0.15392262 -0.247983
000190 22 e1 54 be 36 2f c2 bd af 5c 1b 3e 05 f3 09 bf
       -0.20789006 -0.09481661 0.15172075 -0.53886443
0001a0 bb 35 14 3e d0 3f 6b bd fb 09 f2 3d d1 93 3d 3e
       0.14473622 -0.057433903 0.1181831 0.18513419
0001b0 cc 92 45 3e 12 82 8e 3d 3f 29 43 bf da 96 4b be
       0.1929428 0.06958403 -0.7623481 -0.19881764
0001c0 72 09 e2 bc 7f c1 8a 3d 22 45 25 be b9 26 a5 3e
       -0.027592395 0.06775188 -0.16139653 0.32256106
0001d0 84 76 41 be c8 af 14 3e 50 7a a3 be 90 f1 df 3d
       -0.18892866 0.1452018 -0.31929255 0.10934746
0001e0 88 16 b1 bd 34 25 20 3d 3f a0 92 3d c9 0e a1 be
       -0.086468756 0.03909798 0.07159471 -0.31456593
0001f0 93 98 36 be b8 84 3a 3d 18 0f c8 ba 3f c9 fe bc
       -0.1783164 0.045536727 -0.0015263287 -0.031101821
000200 a5 5e d8 bd 51 32 74 bd 18 35 1f 3e cd 1f b2 3e
       -0.10564927 -0.059618298 0.15547597 0.34789887
000210 e7 20 a0 3e 23 4a 83 bc d8 37 c0 3d 0e d1 18 3e
       0.31275102 -0.016026562 0.09385651 0.14923498
000220 f8 8b 30 bd 5f 2c 24 be 50 0b 37 3e 0b e1 d8 3c
       -0.043102235 -0.16032551 0.17875409 0.026474496
000230 88 ac 55 3e 4e f6 e3 3d 9b 1f 06 3d 9a fb d3 3b
       0.20866597 0.11130963 0.032744985 0.006469202
000240 89 fa 99 3d c1 3a f0 bc 2d 97 a8 3d 6b 60 58 3e
       0.07518489 -0.029324891 0.082319595 0.2113053
000250 70 6a 8f bd 88 9a 5d bd 2e 73 09 be 4f 99 bd 3d
       -0.07002723 -0.05410245 -0.13422844 0.09257757
000260 13 f4 97 3d c0 b4 e9 bc 2d aa d9 3c 52 06 fc 3d
       0.074196 -0.028528571 0.026570404 0.12305893
000270 5d 71 ba 3d e3 8e 00 3e 74 6e 93 3d bc 85 ee 3d
       0.091036536 0.12554507 0.07198802 0.116466016
000280 75 6b b0 3c ba ad 48 bd b6 5e 9e bd 5c 0a dc 3e
       0.021535615 -0.048993804 -0.077329084 0.42976654
000290 d2 d8 7e 3e b6 2f 19 bd 47 21 56 bd fe 45 99 bc
       0.24887398 -0.037399016 -0.05227783 -0.018710133
0002a0 06 79 d0 3d 60 1a 0d be 7f 68 47 bd f4 f6 30 3e
       0.101793334 -0.13779593 -0.04868364 0.17281705
0002b0 99 06 67 bd a6 32 2d 3d 95 5e 2d bb 45 f4 a6 3c
       -0.056402776 0.04228463 -0.002645408 0.020380149
0002c0 b5 fa 53 be fe 8e e8 bc 12 8e 5f 3d 47 02 58 3e
       -0.20701106 -0.028388496 0.05457885 0.21094619
0002d0 02 c4 a8 3d 49 23 5f 3e 37 3b 3f 3e da a9 55 3d
       0.082405105 0.21790804 0.18674932 0.052163936
0002e0 c6 aa 1c 3e dd 47 84 3b 5b fb 50 bd c2 df 63 3e
       0.1529952 0.004036887 -0.05102096 0.22253326
0002f0 8e 44 6d 3e 74 f6 b1 bd 9b 3b e8 3c 83 cf 7a be
       0.23170683 -0.08689585 0.028348735 -0.24493222
000300 a5 f4 03 3d 8a b3 ab bd ce c9 21 3d 10 dd 87 3b
       0.032215733 -0.08383854 0.039499097 0.0041462258
000310 cc 0e e9 bd c2 fb d0 3c 5c 16 80 bc 3b a1 a3 3d
       -0.113797754 0.025510672 -0.015635662 0.07989737
000320 40 9e 59 3d a8 8a 29 be b0 db bc 3d a7 bb ba 3d
       0.053129435 -0.165568 0.092215896 0.09117823
000330 51 66 15 3d a0 7c fc bd 35 89 61 bd 56 7d 63 bb
       0.03647453 -0.12328458 -0.05506249 -0.0034712157
000340 d4 5f 4b bd ef 44 33 3d 5a 9f 50 3d 55 8b 9e 3d
       -0.049651936 0.043766912 0.05093322 0.07741419
000350 70 64 78 bd 7a c9 1b 3d e6 a5 1d 3d 4d b7 05 be
       -0.06064266 0.03803394 0.03848829 -0.13058205
000360 a0 41 fc bd 2a 7f d7 bd 74 3c a1 3d f6 66 06 be
       -0.123172045 -0.105223015 0.07872859 -0.13125214
000370 36 f0 1a be 88 43 6f 3d 38 56 b0 3d 60 91 9f 3d
       -0.15130696 0.058414012 0.08610195 0.077914
000380 12 03 17 be ca be b5 bd 1f 91 4f 3d 77 04 ce 3d
       -0.14747265 -0.08874281 0.050675508 0.10059445
000390 fe cc 80 3d e8 99 23 3c d3 7d 5f 3c 4a 85 f3 3d
       0.06289099 0.009985425 0.013640839 0.11890657
0003a0 04 8d af bd b4 5d 9b bd 45 19 b1 3d 64 f5 b4 bd
       -0.085718185 -0.07586232 0.08647398 -0.08835867
0003b0 c8 86 b0 bd ae 6f a2 3d ea dc 41 3a be 04 b2 3c
       -0.086194575 0.079314575 0.00073952845 0.021730777
0003c0 90 3d 9a bd 53 3e 54 bc c3 4d c1 3d e4 c1 eb bd
       -0.07531273 -0.012954312 0.0943866 -0.11511591
0003d0 11 70 a4 bc 41 c5 21 3d 6f be a2 bd 87 de e9 3d
       -0.020072969 0.039494757 -0.079464786 0.11419397
0003e0 64 6a a1 bd c1 10 53 bd d2 78 1e bd 01 b4 9a bd
       -0.078816205 -0.05152965 -0.038689442 -0.07553864
0003f0 a4 00 ea bd 36 2a 6a 3d 7d f0 35 3d 2f 5f f6 bd
       -0.114259034 0.05716916 0.0444188 -0.120298736

actor.0.bias f4 [64]
000000 8d 5e 01 bd 67 94 43 3d 9c 38 c9 bb a8 c5 f3 bd
       -0.03158431 0.04774895 -0.0061407816 -0.11902934
000010 1b b1 6a bd bf a3 0b 3e 90 9f 5a 3e 99 ed 18 3e
       -0.057297807 0.13636683 0.21349931 0.14934386
000020 ef 03 39 bb 46 b3 e0 3b e9 db 0f 3d 3d 28 ea bb
       -0.0028231104 0.0068573086 0.035121832 -0.00714591
000030 7a 44 26 3e 7e db 89 bd 12 76 10 3e c0 a1 e0 bb
       0.16237059 -0.06731318 0.1410754 -0.0068552196
000040 ad 80 ed 3c d9 93 84 3e d5 6c 72 3d 3e 1e 74 3c
       0.028992021 0.2589405 0.05918582 0.014899788
000050 7d c7 b1 bd f8 c2 27 bd f3 b2 9d 3d ae 32 12 3e
       -0.086806275 -0.04095742 0.077001475 0.14277145
000060 f2 84 81 3d 23 bb 25 bc ad 69 63 be e7 2f 01 3e
       0.063241854 -0.010115418 -0.22208281 0.1261593
000070 c1 a7 a1 3d 83 95 6c 3e 01 ca a4 bc 55 9f c3 3d
       0.07893325 0.23103909 -0.020115854 0.095518745
000080 63 42 8b bd 8d 55 c5 3d 14 29 31 3e 8c 3c 31 bd
       -0.06799772 0.09635458 0.17300826 -0.043270633
000090 e0 2e 53 3d 62 6b 4d 3d a7 20 80 3b 9d a3 15 3d
       0.051558375 0.050151236 0.0039101425 0.036532987
0000a0 90 67 31 3e 36 e4 95 3d 7e e7 86 3d ec 53 9c bd
       0.17324662 0.073189184 0.065871224 -0.07633194
0000b0 54 85 a1 bd ee 30 28 3d 3c 1b 27 bd 7d f1 d9 3d
       -0.078867584 0.041062288 -0.040797457 0.10641763
0000c0 c9 a2 15 3e af 72 dc 3d 59 ae 1a be f4 6a 02 3e
       0.14612879 0.10764062 -0.15105571 0.12736112
0000d0 b1 dd b1 3d c8 07 25 bd 46 4e aa bd 9a 66 50 3d
       0.086848624 -0.040290624 -0.08315711 0.0508791
0000e0 06 f5 40 3d 9b c6 ec bd b2 23 ce 3b a2 ac ea 3d
       0.047108673 -0.115613185 0.0062908763 0.11458708
0000f0 19 57 a1 bc 75 e9 ca 3c 08 47 1e 3d 07 0f 45 3e
       -0.019694852 0.024769524 0.03864196 0.19244014

actor.2.weight f4 [3, 64]
000000 4a f6 9c bb 07 4a bb 3d 58 07 b1 bd 7f 0b 2f 3d
       -0.004790102 0.09144979 -0.08643979 0.042735573
000010 82 d0 af 3c 49 b5 13 3c 13 35 3c be f8 aa 45 3e
       0.021461729 0.00901539 -0.18379621 0.193035
000020 3f 58 cc bd ea 8d 37 bc ba e0 be bd 0f 9b 45 bd
       -0.09977769 -0.011203269 -0.09320207 -0.04824358
000030 e8 9d 34 bd 60 59 09 be 25 cc 57 3d 74 b3 99 3b
       -0.044095904 -0.13413 0.05268492 0.004690582
000040 3b ea 54 be 9c e6 ae 3d d9 37 29 be 0f f9 6c bc
       -0.20792477 0.08540079 -0.1652521 -0.014463677
000050 2c 62 f6 3d 32 26 b4 bd 1a 99 ec 3a 24 92 1f bd
       0.120304435 -0.08796348 0.0018050999 -0.03895773
000060 26 ec 0c 3e 1f 2e 1e be 59 ba b8 3e 91 de 60 3d
       0.13761958 -0.15447281 0.36079672 0.054899756
000070 22 d0 ad 3b af 9c 1f 3d 7e 2c bc 3d c1 05 3d 3d
       0.0053043524 0.038967784 0.09188174 0.046148065
000080 46 b1 9b 3d 3a 9a a9 bd 81 10 cd 3d 28 f0 82 3d
       0.076021716 -0.082813695 0.100129135 0.063934624
000090 8d 2e d5 bd 72 fd d6 bd 1f 5b 16 3e 99 8a 96 3b
       -0.104092695 -0.104975596 0.14683197 0.004594159
0000a0 1d a9 ba bd 71 8c 53 bd 6b c5 26 be 89 46 91 bd
       -0.09114287 -0.051647607 -0.16286246 -0.07093532
0000b0 77 ee 3c bd 18 52 a5 b8 42 06 b1 bc 1a 6c a2 3d
       -0.046125855 -7.883104e-05 -0.02160943 0.07930775
0000c0 3f d1 22 3e df b4 5a 3e 66 75 45 be 05 aa 2f be
       0.15900134 0.2135806 -0.19283065 -0.17154701
0000d0 1e 4a 0e bd 1a 17 b3 3d 9d 65 cd bc 49 cd 0f bc
       -0.034738652 0.08744641 -0.025072867 -0.008776971
0000e0 55 d5 9b 3d 43 4a 87 be fc 20 06 be 0e c4 10 3e
       0.07609049 -0.26423845 -0.1309852 0.14137289
0000f0 e3 18 b3 bb 81 23 c7 3d c8 ea 3e be f5 2e 89 3c
       -0.005465613 0.09723569 -0.1864425 0.016746024
000100 87 55 8d 3e 15 53 8b be 7a 92 46 3e 72 84 e6 bd
       0.27604315 -0.27211824 0.19391814 -0.11255731
000110 a4 92 9f 3e 41 57 b3 be 2f 9c d3 bd dd 07 e7 be
       0.31166565 -0.35027507 -0.10332524 -0.45123187
000120 03 7b a1 be 5f cf bd be 3a a1 d0 be 07 c0 8a be
       -0.31539163 -0.37072274 -0.40748006 -0.2709963
000130 13 bd 5e be 4f bc 9a 3e fb 67 9a be c3 ea 8b 3e
       -0.21751814 0.30221793 -0.30157456 0.27327546
000140 3d ad 09 bd 2c 2f a5 3e 70 31 86 3e 05 d0 c3 be
       -0.03361248 0.32262552 0.26209593 -0.38244644
000150 74 57 f3 3e 4e ec 85 3e 48 0f d5 be 7a cc a7 be
       0.4752766 0.2615685 -0.4161322 -0.3277319
000160 9e 16 3a be 4c df 58 be da e7 db 3e de 36 01 bf
       -0.1817269 -0.21178931 0.42950326 -0.50474346
000170 9c d9 d9 3e f3 9c bf 3e 5b 61 c2 be 05 08 a0 be
       0.42548835 0.3742443 -0.379649 -0.31256118
000180 b0 e1 84 3e 7b 59 9a 3e 02 2e dd be ca 6e c8 be
       0.25953436 0.30146393 -0.43199164 -0.39147025
000190 0a 18 94 be c9 f4 c2 3d fb 94 7c be a4 f3 2d 3e
       -0.2892459 0.09519345 -0.24666207 0.16987473
0001a0 48 92 cb bd 87 a5 55 3e bf 8b 12 be f0 6e f8 3c
       -0.0994001 0.20863925 -0.14311121 0.030326337
0001b0 89 85 83 3e 13 47 a8 3e 17 51 3f 3d 78 78 ae be
       0.25687817 0.32866725 0.046708193 -0.34076285
0001c0 cc 4f 96 be ea 8d b2 be 87 b0 ac 3e 5a 86 29 be
       -0.29357755 -0.34873897 0.3372843 -0.16555157
0001d0 46 c5 81 3e 91 f3 c2 be ec 4d 09 3d 70 b9 95 be
       0.2534582 -0.3807645 0.033521578 -0.2924304
0001e0 6e 24 8f be 94 68 c0 3d 09 fc 41 3e 1b d6 f1 be
       -0.2795748 0.09394947 0.189438 -0.47233662
0001f0 12 f6 b8 3e db e8 d8 be 74 4f 92 be f0 8d 81 be
       0.36125237 -0.42365155 -0.28576243 -0.25303602
000200 a5 fe 40 be b6 44 9d 3e 17 17 c3 bd cd d5 29 3d
       -0.18847139 0.30716485 -0.095258884 0.041463662
000210 63 ed c5 bb 74 2a 71 3e e1 fc 81 3e 9c e1 f7 3e
       -0.0060402616 0.23551351 0.25388244 0.48414314
000220 d0 1c 48 3e 52 04 b5 3e db f1 03 3e 69 2a aa 3e
       0.19542241 0.3535486 0.1288523 0.3323548
000230 06 be fe 3d bc 4b 0b be 6c 00 a4 3e 6e 8e a6 bd
       0.12438588 -0.13603109 0.32031572 -0.08132635
000240 08 6c 57 3e e4 ee ab be 9c 8f 00 be b1 ee a7 3e
       0.21037304 -0.33580697 -0.12554783 0.32799295
000250 3e 5b 18 bf f5 11 ce 3c eb c1 df 3e ce a8 a8 3e
       -0.59514225 0.025155047 0.43702635 0.32941288
000260 26 c6 ab 3d ad 4d 1b 3e d6 f0 1a bf 2b fa 57 3e
       0.08387403 0.1516635 -0.60523736 0.21091525
000270 e2 9b ae be 2b 02 e6 be f9 fd 9e 3e 3b cb 83 3e
       -0.34103304 -0.4492353 0.3105314 0.2574099
000280 5e ec 5f be 01 72 2e be b3 4c c7 3e 90 73 81 3e
       -0.2186751 -0.17035677 0.38925704 0.2528348
000290 65 7d 95 3e 65 a4 2d 3e 95 d8 bc 3d 49 5e df be
       0.2919723 0.16957243 0.09220997 -0.4362662
0002a0 5f 2d 88 3e 1a 24 20 be b8 4f 6b 3e ca 59 9d bd
       0.26597115 -0.15638772 0.22979629 -0.076831415
0002b0 0d 0f 47 bd 34 fb d9 bd 1b 6c f1 bc d0 6b af 3e
       -0.048598338 -0.10643616 -0.029470494 0.34261942
0002c0 30 7e 87 3c e2 2e 81 3d 77 24 88 be 9d ef a3 3e
       0.016539663 0.0630777 -0.2659032 0.32018748
0002d0 c5 b5 00 bd 3a 27 8a 3e 00 09 1a 3d 9a fd a6 3e
       -0.03142335 0.26983052 0.03760624 0.32615358
0002e0 d4 0e 4c 3e c0 6f d4 3d ab 8e fd bd 77 22 9a 3e
       0.19927531 0.10372877 -0.123807274 0.3010442
0002f0 9c 92 e3 be f4 8f 8e 3e c4 47 4f 3e 40 2d 92 3e
       -0.44447792 0.27844203 0.2024222 0.28550148

actor.2.bias f4 [3]
000000 5d 7e 12 3e 82 d4 08 bd f2 5d 0e 3e
       0.14306016 -0.03340579 0.13903025

critic.0.weight f4 [64, 64]
000000 0e ab 97 3e 0a 33 14 be 28 da 24 be f5 a4 17 3d
       0.29622692 -0.14472595 -0.16098845 0.03702255
000010 ea 87 bd 3e 69 57 8a 3e 51 ea 74 3e 49 b6 88 3d
       0.37017757 0.27019814 0.2391751 0.06675393
000020 f3 b7 bd bd 2e 33 99 3e 86 59 9e 3e 5d 76 c6 3d
       -0.09263601 0.2992186 0.30927676 0.09690545
000030 83 d4 fa 3d eb 4c 58 3e 67 34 99 be 81 a2 0d 3e
       0.12247565 0.21123092 -0.29922792 0.13831522
000040 6b 3c 4f bd b8 68 30 3e 8d 19 f3 be 45 d1 74 3e
       -0.05059473 0.17227447 -0.4748043 0.23907955
000050 3a 03 43 3e 8a d7 e9 3e b7 46 e5 bd 9c 3d 05 3e
       0.190442 0.45672256 -0.111951284 0.13011783
000060 71 08 87 3e bf 51 29 be e8 67 b3 be f1 cd cc 3e
       0.26373628 -0.1653509 -0.35040212 0.4000087
000070 79 f6 94 be a7 ba 11 3e 7c 4f 7a 3e 09 53 8a 3e
       -0.29094294 0.14231358 0.24444383 0.27016476
000080 1e 27 83 3d 35 50 5b be 93 bf 88 3d d7 e3 02 3e
       0.064039454 -0.21417315 0.06677165 0.12782227
000090 45 16 ba 3e cc 50 45 be 9f 44 04 3e be 1b 9b 3e
       0.36345115 -0.19269103 0.12916802 0.30294603
0000a0 f0 f5 99 3d 5e 16 93 3e 3b 84 16 3d 03 f6 58 3e
       0.07517612 0.28728002 0.0367472 0.21187596
0000b0 a4 28 87 3d f0 60 e3 3d 30 d0 79 3e 4e 2c 95 3e
       0.065995485 0.11102474 0.24395823 0.29135364
0000c0 1a fc a9 3e ff f3 3c bd 1e 7b 74 be 12 ce cc bc
       0.3320015 -0.04613113 -0.2387509 -0.025000606
0000d0 51 f2 db 3d ef 0a 06 3d 1d 42 a3 3d 3e 75 e2 3d
       0.107395776 0.03272527 0.079715945 0.110575184
0000e0 c8 65 cd 3e 32 cc ae 3e 57 5c 8a 3d 9d 9f 82 be
       0.40116715 0.34140164 0.06755894 -0.255124
0000f0 4f 21 04 3f d2 96 dd 3d e6 9d 1b 3c c7 af 4f be
       0.51613325 0.10819782 0.009498095 -0.20281897
000100 c6 7b 40 3e a4 72 9f bd a3 ee 1b be c3 3c 2a be
       0.18797216 -0.07785538 -0.15227751 -0.16624741
000110 b3 08 4a 3e e2 91 68 3e d7 39 90 3e b1 79 9c 3d
       0.19729881 0.227119 0.28169128 0.07640398
000120 27 3a 06 be b5 45 4d 3e 9f 50 8a 3e f9 4a 13 3e
       -0.13108121 0.20046122 0.27014634 0.14384069
000130 80 a3 3e 3e 13 72 31 3e 52 d8 5b be 0f 22 67 3e
       0.18617058 0.17328672 -0.21469238 0.22571586
000140 e8 17 8b bc ea 56 9d 3e 92 4c da be 67 b7 81 3e
       -0.016979173 0.30730373 -0.42636544 0.25335237
000150 46 f1 e3 3d 78 fc a1 3e d6 97 a2 3a 9a 1d 06 3e
       0.11130004 0.3163793 0.001240487 0.1309723
000160 4b a9 8a 3e 28 b8 85 3d d7 40 76 be 1a 51 a4 3e
       0.27082285 0.06529266 -0.24048172 0.32093126
000170 63 c0 ae be 4a 77 c5 3d 78 8a a3 3d 2b 41 15 3e
       -0.34131154 0.09641893 0.07985395 0.14575641
000180 38 3a 20 3e a5 d0 e0 bd 0a 25 b9 3d 40 47 d7 3d
       0.15647209 -0.10977296 0.09040268 0.10511637
000190 a1 8b dc 3e 28 6f 9a be 5e 84 8c b9 2e 5b 61 3d
       0.43075278 -0.3016293 -0.00026801502 0.055018596
0001a0 5f b5 47 3e 3d 69 88 3e c6 7b 05 3d d8 fb a0 3b
       0.19502781 0.2664279 0.032588743 0.0049128346
0001b0 f3 40 d4 3c c1 19 9f 3d 6f dc 33 3e 2e c2 40 3e
       0.025909876 0.07768584 0.17564557 0.18824074
0001c0 e5 b5 ed 3e 5a fb da 3c 35 8e b7 bd 05 be 97 be
       0.46427837 0.026731182 -0.08962671 -0.2963716
0001d0 5d 34 95 bc a2 fa 11 be 99 3d 65 3e 26 fa 9a 3e
       -0.018213445 -0.14255765 0.22386779 0.30268973
0001e0 bc af d6 3d 3f 1b c2 3e 66 d5 04 3e a9 5f e8 be
       0.104827374 0.37911412 0.1297203 -0.45385483
0001f0 36 6e 16 3f 05 d3 17 3e 64 52 43 3e 26 1b 44 be
       0.5876192 0.14826591 0.19074398 -0.19150981
000200 8f 9b d9 3e 79 cb d2 bd 8b f1 44 be 73 78 ae bd
       0.42501494 -0.102927156 -0.19232766 -0.085190676
000210 af 0d ae 3e 83 50 8c 3e 4f 7b c2 3d 1a 8b 8e 3e
       0.33994815 0.27405176 0.094961755 0.278405
000220 c2 d1 8c bd 79 00 a2 3e 75 42 36 3e 1e d9 0e 3e
       -0.06875946 0.31640986 0.17798789 0.13950011
000230 13 9c 71 3e 1c 55 8b 3d 8b 5a 91 be 8f 14 88 3e
       0.23594694 0.06803343 -0.2838939 0.26578185
000240 eb e5 2d bd 4e 6d bb 3e 39 ba 85 be 85 71 2c 3e
       -0.042455595 0.3660683 -0.2611864 0.1684018
000250 d0 d9 20 3e 65 93 d7 3e a3 95 28 be b8 4f 51 3e
       0.15708089 0.4210464 -0.16463332 0.20440567
000260 2c 71 92 3e a2 21 a9 3d 05 ae 4d be 29 14 8c 3e
       0.28601968 0.08258368 -0.20085914 0.2735913
000270 16 a7 91 be 99 0c 2c 3e 93 71 51 3e 15 c9 7b 3e
       -0.2844779 0.1680168 0.20453481 0.24588425
000280 32 05 0f 3e 8d d7 23 be 22 b7 35 3e ee ad 2b 3e
       0.13966826 -0.16000195 0.17745641 0.16765568
000290 11 83 e4 3e ae bc 70 be 68 d4 98 3c 3a 1f 9c 3d
       0.44631246 -0.23509476 0.01865597 0.076231435
0002a0 dd 29 5a 3e 56 47 de 3d 99 ef 53 3e f8 fe 82 3c
       0.21305032 0.1085345 0.20696868 0.01599072
0002b0 24 7e 2c be 90 7c 37 bc 25 58 9f 3e 44 9b 8f 3e
       -0.16844994 -0.011199132 0.31121936 0.28048146
0002c0 05 1d fd 3e 33 34 32 3e 8c fd 3e bd be 5f c4 bd
       0.49436203 0.17402725 -0.04662852 -0.09588574
0002d0 4c dd 38 3e ca ea a9 3d fc 6b d3 3d 09 e4 31 3e
       0.18053168 0.082967356 0.10323331 0.17372145
0002e0 8c e2 84 3e b5 1d d4 3e 08 32 31 3e 1f fe c9 be
       0.25954092 0.41428915 0.17304242 -0.39451692
0002f0 aa 3f 01 3f 9d 5a 25 3d 6a 03 21 3e cf 17 8d be
       0.5048777 0.04036962 0.15723959 -0.27557227
000300 24 84 8a bd 86 9c 81 be 6d 3f 9c 3e d2 72 92 be
       -0.06763485 -0.2531473 0.3051714 -0.28603226
000310 50 c7 11 3f 61 ba e6 3c 99 1b 5d 3d 99 f8 8e bd
       0.5694475 0.028165044 0.053981397 -0.0698101
000320 3b ce 66 be a2 e9 41 3d 74 11 14 3e 42 d1 3f 3e
       -0.22539608 0.04734195 0.14459783 0.1873217
000330 49 28 59 bb 1f 19 8b 3d eb 4e 9a bd d8 d0 11 3f
       -0.0033135584 0.06791901 -0.07534584 0.56959295
000340 22 34 00 3d 5a 7f c4 bc 9c 63 8f 3e fa 62 97 3e
       0.031299718 -0.023986507 0.28005683 0.295677
000350 d3 ec 66 be 1b 3b 54 3d 21 90 94 be 38 59 dc be
       -0.22551279 0.05181418 -0.29016212 -0.43036819
000360 00 91 85 bf 85 1f 41 be 3f 25 44 be 1b 08 57 be
       -1.0434875 -0.1885968 -0.19154833 -0.20999186
000370 81 18 3f 3e 80 54 65 be 3c a0 0b 3d 63 c5 c0 bd
       0.18661691 -0.22395515 0.03408836 -0.094126485
000380 ac d1 0d be 5f 38 27 3e 29 8e f7 bc 73 c0 db bd
       -0.13849515 0.16330098 -0.030219154 -0.10730066
000390 62 4b 93 bb ed 8f 2b 3e ab ee f9 be 8b dc 20 3e
       -0.0044950703 0.16754122 -0.48814902 0.1570913
0003a0 bd 24 f7 be 80 1f e5 bc ab b6 0e be 80 2a 47 be
       -0.48270217 -0.027969122 -0.1393687 -0.19449806
0003b0 fc f4 12 3e b0 47 75 3d 4e a9 97 3e 47 04 2e 3e
       0.14351267 0.05988282 0.29621357 0.16993819
0003c0 6a 3b a7 3c f3 e3 90 be 2c f0 67 3e 08 a4 a9 bb
       0.020414073 -0.2829891 0.22650212 -0.0051770248
0003d0 e0 6e 80 3e d4 6b 1c 3e f6 9c 25 3d 39 8c 50 be
       0.2508459 0.15275508 0.040432893 -0.2036599
0003e0 d0 f6 12 3d ea 4d 0d bd ee 8f 48 3d 2c 4d 87 bd
       0.03587991 -0.034498133 0.048965387 -0.06606516
0003f0 0b 09 d0 bd ac d7 0c bf 53 0b 14 bf 0e 7e e6 bd
       -0.10157975 -0.5501659 -0.5782978 -0.11254512

critic.0.bias f4 [64]
000000 49 6d b4 3e 7b 6f 70 3e 7f 68 68 3e 0a d3 5c bd
       0.35239628 0.23480026 0.22696112 -0.0539122
000010 46 ab e6 bd e4 a9 36 3e ff 6e 69 3e a9 2d 9b be
       -0.112631366 0.17838246 0.22796248 -0.30308273
000020 55 82 02 be 07 70 7f 3d 80 cf 4d be f4 52 83 3e
       -0.1274503 0.062362697 -0.20098686 0.25649226
000030 95 61 ef bd 48 29 7e 3e 22 3e 9c be b7 f3 35 3e
       -0.11688534 0.24820435 -0.30516154 0.17768751
000040 6d 66 0a bf 36 67 91 bd 12 35 66 3e 49 d2 a6 3e
       -0.5406254 -0.07099764 0.22481182 0.3258231
000050 6a e1 e0 3d a0 66 72 bd 5d 74 4f 3e 3a 71 9c 3e
       0.10980494 -0.059179902 0.20259233 0.30555135
000060 05 8a 06 3e 4a eb e2 3d 4a 2d 34 3e 7a c5 11 3e
       0.13138588 0.11080034 0.17595401 0.14235488
000070 a3 b5 6f be 33 86 39 3e 3f cb 8f 3e d9 fd 90 bc
       -0.23409133 0.18117599 0.28084752 -0.017699169
000080 1c 82 94 be 9b 93 a4 3e a7 4b 97 3e 21 b9 1b 3e
       -0.29005516 0.32143864 0.29549906 0.1520734
000090 96 1d 08 be 61 14 33 3d cc 27 08 3e 01 e4 8a bd
       -0.13292536 0.043720607 0.13296431 -0.067817695
0000a0 eb 33 84 3e fb 2b 05 be 54 b5 df 3e 2d ed 80 3e
       0.2582086 -0.13005058 0.4369303 0.2518095
0000b0 c9 d7 31 3e ac a8 c6 bc 16 36 3c be 9c 2b a3 3e
       0.17367472 -0.02425035 -0.18380007 0.3186921
0000c0 75 9b e6 bd 42 f4 ed 3d 71 21 43 be d7 3d 6f be
       -0.1126012 0.11618854 -0.19055726 -0.23363434
0000d0 38 fa 2e be 2e 2e f8 3e 46 0d 7f 3e cf d8 b5 bd
       -0.17087638 0.48472732 0.24907407 -0.088792436
0000e0 19 d9 d8 ba 27 63 b0 3c 6f bf cd bd 54 29 92 3e
       -0.0016544192 0.021531655 -0.10046279 0.28547156
0000f0 f4 9b 6d 3e 13 d9 0e 3e f6 17 98 bd 74 2c 1c 3e
       0.23204023 0.13949995 -0.07426445 0.15251333

critic.2.weight f4 [1, 64]
000000 ac c3 13 3f 10 7b dc 3e 73 6b ae 3e 35 c4 9d be
       0.57720447 0.4306264 0.34066352 -0.30813757
000010 8d 00 18 bf a0 32 ff be 6b 2f ec 3e 2b 14 83 be
       -0.5937584 -0.4984331 0.46129927 -0.25601324
000020 24 8b a8 be fb ca dc be a9 4e 16 bf 51 98 e7 3e
       -0.32918656 -0.43123612 -0.58713776 0.45233396
000030 e1 fa 4d 3c 7d 28 b7 3e 09 56 a5 be 60 77 d5 3e
       0.012572021 0.35773078 -0.32292202 0.41692638
000040 5d 87 b5 bf fe 9b c6 be d5 9f ea 3e bf 2d f4 3e
       -1.4181935 -0.38790888 0.45825067 0.47691151
000050 3a 8a d2 be 0a 43 ee be 05 95 f7 3e d9 b1 fc 3e
       -0.41121083 -0.46535522 0.4835588 0.49354437
000060 2f 5c ab 3e a3 0b e2 3e 3e ae d4 3e 1c b2 c5 3e
       0.33468768 0.44149503 0.41539186 0.3861245
000070 3e a5 81 be 6a 88 d0 be 7e 1b e8 3e 6c 71 f8 be
       -0.25321382 -0.40729076 0.45333475 -0.48524034
000080 95 eb 35 bf b2 43 d2 3e df dc ff be ad e3 00 3f
       -0.71062595 0.41067272 -0.499732 0.50347406
000090 50 fc 9d be d0 fb e6 be d5 40 f8 be fe fa fc be
       -0.30856562 -0.45113993 -0.48486963 -0.49410242
0000a0 11 17 bc 3e bd 6f d3 be e3 8e e7 bf 39 b4 b5 3e
       0.36736348 -0.41296187 -1.809048 0.3548906
0000b0 ae 99 ff 3e 9c 9d e5 be 16 4a b2 be 50 f8 f6 3e
       0.49921936 -0.4484681 -0.34822148 0.48236322
0000c0 1c 6c b6 3d db e1 f0 3e ed cc 09 bf ca 53 06 bf
       0.08907339 0.47047314 -0.53828317 -0.524716
0000d0 4a 50 bb be aa 1a 25 3f fd 27 dc 3e f9 aa 70 3f
       -0.36584693 0.6449381 0.4299926 0.94010884
0000e0 38 7c 18 bf 4f 20 69 3d c0 81 a4 be 65 d1 cc 3e
       -0.5956454 0.056915578 -0.3213024 0.40003505
0000f0 00 02 e0 3e 70 5f a6 bf 21 d6 a6 be c4 e9 e0 3e
       0.43751526 -1.2997875 -0.32585242 0.4392835
