models/ppo_trading_model_axp.pt (torch, 40444 bytes, 9 tensors)

shared.0.weight f4 [64, 7]
00000000: 71bb 933e 672d df3e 01ce 90bb 369d 833e
00000010: 478e 1dbe f6cb 07bc d782 3cbe e330 8a3e
00000020: 61f0 913e 5217 89be 0b29 143f 807a 87be
00000030: 44d3 0b3f fc35 73bd 7975 bd3e b4b5 ea3e
00000040: 06a3 243f af5a 893e 632a acbe ac0f 613e
00000050: 9566 e53c 51fc 07be 7562 c3be 6b5b d4bb
00000060: fed2 04bf ecf0 443c e8fd 08be fe44 06bf
00000070: aa99 a4be 0222 d8be b75e af3e bef8 9fbe
00000080: 9c83 1a3e 52b3 c0bc 930f 45be 9a43 4b3e
00000090: 5de8 933e 6494 cd3e 87b2 333e d3ae 5cbe
000000a0: 0bf9 cc3e 2182 903c e9bc c43c 57bc 0e3f
000000b0: f27a 863e 3238 30be c2b4 9d3d 2ced 7c3e
000000c0: ae70 c93e 590d d5bd 7505 d8bd 649f cd3d
000000d0: ce08 7dbe 0bdf 723e 0c14 f23e 8121 8a3d
000000e0: fccf 613e adcf 13bd 3d0e b93e 8b59 0cbf
000000f0: 6a70 01be dbcd dcbe fe56 9a3e 48fc acbe
00000100: 26f8 063e d23b 5fbd 1065 803e 75b5 b1be
00000110: 4444 6fbd 7477 47bd a8dd ea3e f20b 333e
00000120: d519 013f d3dc cdbe 6566 10bf 3721 ecbe
00000130: e861 76be e77c a13e 4e65 973d 9aed c83e
00000140: 0c5b 86be 63db 04bf d1b7 fe3e 3764 c1bd
00000150: 7c54 773e e094 e8bd 10b0 213e f12a debd
00000160: cedd 7e3d 4ad0 603c d944 96bd 4c6d 42be
00000170: 1fa2 b03e b9e0 843e 267f 8dbe 54f9 5abe
00000180: 2013 8d3e 26cc 1ebd f94d 903d 5519 a1be
00000190: 4476 4abe 6b04 9d3e 66cb aabd a30f 33be
000001a0: b68a a03c f523 11bf abbc f2be c746 81be
000001b0: 0007 67be bad5 63bd bc75 263f 43b6 8cbd
000001c0: 20d0 2b3e 9bc7 c5be c9c2 9fbe 7654 2ebe
000001d0: 0175 443d 8831 8abe 0c7a 4abe a83a eebe
000001e0: 4a98 81be e2d8 2abe c4c9 f33d 1c63 77be
000001f0: 7b14 86be c4c8 4abe 9887 cdbe 3e64 abbe
00000200: 427d ad3e 1adf d13d 61cc b63e 6bf0 c03e
00000210: 73f5 f1bd a4f8 a13e 77fa b8be 2641 8fbe
00000220: 633e 21bf fde2 92be 41d7 713e 116d 9e3e
00000230: ac1b 52bd 1825 97be 87a7 8f3e c736 90be
00000240: ef7a b6bd cde2 c43c ed66 8d3e c6e1 813e
00000250: 44f7 e93e e401 6ebe 1a7a 30bd 32c3 5dbe
00000260: 60b3 48bd 962b 00be 28e2 3b3e b6c2 9ebe
00000270: 329d 263e 5ed0 4b3e 0123 5e3d 33b4 94be
00000280: c40f d13e 2c8c 44bd 227b 0a3e 8d18 89be
00000290: 26e8 b03d d564 9abd 81e8 83bd 1a3c c93e
000002a0: 2b21 dcbb 0d46 ccbd 349a d8bd e12d 993a
000002b0: 7238 693e ecdb dc3b 7564 e9bd cc8a bcbe
000002c0: b751 96bd 3b73 a93e 5e0e 8c3e 59cb b1be
000002d0: 7d1b b73e 0ea1 983e 77e4 bc3e ff48 013e
000002e0: 5db7 143f 139c ff3d a716 c23d a31b e23c
000002f0: a350 823e 4821 733c dcb7 413d 4fcf 84bd
00000300: 59f6 873e a205 013f aa71 803d b28f eabd
00000310: 7a57 6abe aae9 773d 38fc 2a3e 7b0d 883d
00000320: 260c adbe ba3f aabe 89af dc3e f71f 04be
00000330: 353c d63d 93e7 5cbe 91bf f0be 1ec0 f3be
00000340: d827 87bd a069 703e 7f49 5c3d d36c 883e
00000350: 94fc b0be 04c9 b3be cf0a 25be daf2 0a3f
00000360: ac0f e33d ff3b 7cbe df2a 473e 124c d0bd
00000370: f69b b3be d158 c13e c0c3 82be d0ea 37be
00000380: 4e83 03bf 3df7 a73e 1253 aa3e 6b9c a53d
00000390: e5a2 8cbe ac7e 09be 405b fabd ee89 f53e
000003a0: 5764 b63e ed20 0e3f ec09 053e 3a81 3a3e
000003b0: ee05 013d aede 51bd 8975 0bbf 9c14 fcbe
000003c0: 66ab 2a3e 555c 7abe f27e 84be 41b8 13bd
000003d0: 5a3d abbe 4364 eabe f9d9 b1be 5944 343e
000003e0: 24d0 a7be b359 473e d499 203d 4e3d fcbe
000003f0: 5722 bbbe 8b64 67be cf93 b6bd 5ac6 34bf
0.28853944 0.43589327 -0.004419089 0.2570588 -0.15386306 -0.008288374 -0.18409286 0.26990423
0.28503707 -0.26775604 0.57875127 -0.26460648 0.5461924 -0.059377655 0.37003687 0.45841753
0.64311254 0.26827 -0.33626089 0.21978635 0.028003016 -0.13279845 -0.38161054 -0.0064806244
-0.5188445 0.012020331 -0.13378108 -0.52449024 -0.32148486 -0.42213446 0.3425195 -0.31244463
0.15089267 -0.023523007 -0.19244222 0.19850007 0.28888217 0.40152276 0.17548572 -0.21551065
0.40033755 0.017640175 0.02401586 0.55756134 0.26265675 -0.17208937 0.077004924 0.24699849
0.3934378 -0.104029365 -0.10547916 0.10040167 -0.2471039 0.23717897 0.4728092 0.067446716
0.22051996 -0.036086727 0.36143675 -0.5482413 -0.12640539 -0.43125805 0.30144495 -0.33786225
0.13180599 -0.05450041 0.25077105 -0.34708753 -0.058414713 -0.048697904 0.45872235 0.17485026
0.5043004 -0.40207538 -0.5640624 -0.4611909 -0.24060786 0.31540605 0.07392369 0.39243776
-0.26241338 -0.5189726 0.49749616 -0.094429426 0.24153322 -0.11356521 0.15789819 -0.10848034
0.06222325 0.013721535 -0.073373504 -0.18987006 0.3449869 0.259527 -0.2763607 -0.21384174
0.27553654 -0.03876891 0.07046122 -0.3146464 -0.19771677 0.30667433 -0.083395764 -0.17486434
0.019597393 -0.5669549 -0.47409567 -0.2524931 -0.22561264 -0.055623747 0.650234 -0.06870701
0.16778612 -0.3862885 -0.31203297 -0.17024407 0.047963146 -0.26990914 -0.1977312 -0.46529126
-0.253115 -0.16684297 0.11903718 -0.24158901 -0.261875 -0.19803149 -0.40142512 -0.33474916
0.33884627 0.10247631 0.35702804 0.37683424 -0.11814394 0.3163501 -0.3612859 -0.27979392
-0.6298582 -0.28688803 0.23617269 0.30942586 -0.05129592 -0.29520488 0.280575 -0.28166792
-0.089101665 0.024033928 0.2761759 0.25367564 0.4569646 -0.23242909 -0.043085195 -0.21656492
-0.04899919 -0.12516627 0.1834799 -0.31007928 0.16270903 0.19903705 0.0542326 -0.2904373
0.4083234 -0.04798524 0.13523534 -0.26776543 0.08638029 -0.075387634 -0.06440831 0.39303666
-0.006717821 -0.099742986 -0.10576287 0.0011686647 0.22775438 0.006740084 -0.11396114 -0.36824644
-0.073398046 0.33095726 0.2735471 -0.34725454 0.3576316 0.29810375 0.36893055 0.12625502
0.5809229 0.12480941 0.09476977 0.027601069 0.25452146 0.014839478 0.047294483 -0.064848535
0.26555136 0.5039922 0.0627168 -0.11453189 -0.22884932 0.060525574 0.16697776 0.06643196
-0.3379833 -0.33251745 0.43102673 -0.12902819 0.10460702 -0.21572714 -0.47021154 -0.4760751
-0.065993965 0.23477793 0.05378103 0.26645526 -0.34567702 -0.351143 -0.16117404 0.5427681
0.110869735 -0.24632262 0.19449948 -0.10170759 -0.35079926 0.37763074 -0.2553997 -0.17960668
-0.5137223 0.32805815 0.33266503 0.08086475 -0.2746803 -0.13427228 -0.12224436 0.47956795
0.35623428 0.5551899 0.12992066 0.18213359 0.031499796 -0.051237755 -0.5447622 -0.49234474
0.16666946 -0.24449284 -0.25878102 -0.03606439 -0.33445245 -0.4577962 -0.34736612 0.17604198
-0.32775986 0.19467811 0.039209202 -0.49265522 -0.36549637 -0.22596948 -0.08914911 -0.7061516

shared.0.bias f4 [64]
00000000: 9406 353f 9290 7cbe b31c 793e 441e eabe
00000010: dc3d 5cbe 5438 ae3e dd67 873e 91ff eb3e
00000020: ca96 1fbe 3116 3a3f cc9e a83c 6b90 dfbe
00000030: a4e4 cd3e 7821 f83e 397d e43e 61ab 953e
00000040: f676 da3e 9ae1 14be 4f05 bdbe c5f3 803e
00000050: a443 3c3f feff 403f 3cda 283f 8696 1b3f
00000060: e8ee 243f 8dec 0f3e df32 80be 0632 153f
00000070: b349 873c 6c1f 9fbe 4d9f 473e 2d69 c63e
00000080: 62ab 2b3f fb39 a8be c54b 59be 3407 3b3e
00000090: 1f15 45bd b51d 99be fb02 153f c02b 0abf
000000a0: 2d64 473f 89e8 4a3f 102d f93e 750b 163f
000000b0: dde8 fb3e 2b90 06bd 346b 0b3e 18de 4e3e
000000c0: 076a 073f 7298 f33e 7237 553e b548 403d
000000d0: cdbf 35bd 5c25 083e fb7e f63e fee5 093f
000000e0: 95c5 4c3f 801d 193f 80eb f6be 1a50 d3be
000000f0: a1a7 bdbc b550 003e a3a7 dc3e 9d5d 1cbf
0.7071316 -0.24664524 0.24327354 -0.45726216 -0.21507972 0.3402735 0.2644643 0.4609342
-0.15584865 0.7269011 0.020583533 -0.4366487 0.402135 0.48463035 0.44626787 0.29232314
0.42668885 -0.14539185 -0.36918113 0.2518598 0.7354071 0.75390613 0.65958 0.60776556
0.6442704 0.1405508 -0.25038812 0.58279455 0.016514635 -0.3107866 0.19494362 0.38752118
0.67058384 -0.32856736 -0.2122031 0.18264467 -0.048115846 -0.29905477 0.5820767 -0.5397301
0.7788723 0.7926107 0.48667192 0.5861123 0.49201098 -0.032852333 0.13615113 0.2020191
0.5289616 0.47577244 0.20821932 0.04694434 -0.04437237 0.13295501 0.48143753 0.53866565
0.79988986 0.5981064 -0.48226547 -0.4127205 -0.02315122 0.12530787 0.43096647 -0.6108034

actor.0.weight f4 [64, 64]
00000000: 040d 743c 74e9 ebbb 1aa8 f9bc 37f8 8cbd
00000010: fdec 553e c814 a4bd e8f6 843d de70 1d3e
00000020: 6b3e bc3d 1830 b33d 7957 103e 7161 d33d
00000030: e4aa 4f3e 78f1 933d 964d d0bc 04c5 133e
00000040: 261d 3dbe 51d7 163e 05b7 8c3d a406 63ba
00000050: 7b0c 713d 7482 043e 6dee 18bd b5c5 03bd
00000060: 5d5f 4bbe a543 b93e d39c 18be f845 8ebd
00000070: d22b 293e 7f47 243e 8135 ce3e 56a1 533d
00000080: 2397 223e 9eba 34bd 42e1 753d b0fe 1b3e
00000090: fe1d 92bc bc40 b63e 389f 75bd 226f 1dbc
000000a0: 1c65 243d 353c e73c a945 e93c e9b7 e3bd
000000b0: 2dc7 263e d3c9 903c f0d6 b4bc bfdb 093f
000000c0: c039 043e 254d aa3d b17e 433d 95b9 29be
000000d0: 58f5 2b3d 28c4 7fbd 3930 633d 28e2 33be
000000e0: c5cd 8fbd 5fbe 01be b601 913d 4946 4fbe
000000f0: 2bb9 c8bb 53d5 853d 919e 8a3e e0a3 ebbd
00000100: e051 23bd 907c 993d 34df 84bd 9070 93bd
00000110: f1d3 693d bcb5 cbbd 1c8d c83c ef57 e23d
00000120: ad1d e13c 12e3 803c 7b05 97bd 02b0 84bb
00000130: beb1 aa3c ce02 353d 73ed 3f3d 1b48 d83d
00000140: 7f37 cbbd f55f bcbb d52c bcbd f3f5 eebd
00000150: 9036 6bbc fed8 dabd 0128 b93d 327e 263c
00000160: 6b4c 95bd 6eed 783d aa5f f8bd 2de2 56bd
00000170: 8baf f8bc 3469 e4bd a7a5 8fbd 92b0 dabc
00000180: 7e50 9f3d 4ec4 ef3d 7fdc 993d db72 a2bd
00000190: 0ec5 aebd 7762 ea3d 822b 253d a63c 933c
000001a0: 4827 413c 801f c1bd 4192 39bd 2edb f03d
000001b0: 942b e6bc c387 60bb f78d fbbd 8a3d 8abd
000001c0: 3120 cbbc c9a1 9fbd 1dff b5bc 6c98 393d
000001d0: 3ad8 ddbd f3c3 043d 0705 98bd dd88 a5bd
000001e0: 1c3a 663d aacf ac3d f727 14bd 03ad 6abd
000001f0: 559e efbd 9efa 85bd 60aa ebbd ae2a 1abd
00000200: cb3e c43c d6f9 55bc cfae 233e c0d3 c43d
00000210: 970d c8bb 4fdd 8ebc ca97 fd3b 104f 193e
00000220: 40ce 583d c517 b8bc 155f 493e 6ca2 00bd
00000230: f606 403e d806 2d3e ca11 19bc a728 713e
00000240: c8ac 52be db7d 683d ceb6 383d e8bb 333e
00000250: d38b 01bd 5f22 3d3d 1b4f 71be 6bfb 543d
00000260: 57fe fdbb af50 ac3e 1f5f 28bb 21c1 11be
00000270: 35f8 933e 571f 073d 57aa b83e 64d2 b43d
00000280: b676 293e 2bb7 4a3c 153b c9bd 790f 173e
00000290: 45b5 e7bd b61b 933e bd29 09be 3feb 8cbd
000002a0: f36d 2a3e 33e2 93bc 19ba 89bc c4f1 e13c
000002b0: 7ffd 813d 13d6 d63d 8082 32be b80c a13e
000002c0: 174d 7abd 25cc 38bd 773b 9f3d f972 a13d
000002d0: c441 d83d 9ce0 0d3e d799 513e 7207 15bc
000002e0: 842f 063e d307 ee3d 5c37 c23d 6f46 1c3d
000002f0: f98a 1a3e 41aa b6bc b76f f13d 87f0 28be
00000300: 7c0c e23d d24f 4ebe 6175 873d 4e7b 373e
00000310: c025 50be 19c0 fd3c 8e1b 7b3d 5001 a1be
00000320: e460 583e dd45 0abe 97c1 a03e a299 a73d
00000330: 7767 cc3d 3a6a f5bd 6019 d7bd 6f31 1dbe
00000340: 37a2 c93c f6ce 043d c95c c3be 6865 0a3e
00000350: 63e0 94bd f4b2 113e 5f7c 1c3e 5913 39be
00000360: 46a0 1dbe 3c43 babe 672d 533e 47a7 91bc
00000370: fc0d 9cbd 0955 243e 67f4 99be 22d6 6b3e
00000380: 1f5e d4bb 8c43 dc3c 252c 063d 32f3 463e
00000390: cdff 223e 9a50 02bc 829c 933d f5f3 453e
000003a0: ad5c 5cbd 06fb ea3d 16d3 453d bcfe 24be
000003b0: 6a9f 00be b0c1 493e b677 303e c6c8 77bc
000003c0: 0383 1fbd 1425 8ebe 020e 053e 0023 833c
000003d0: 3c31 6c3d 4ab1 933d 7a37 99be f6ad c63d
000003e0: 812e 8ebc 7787 8f3d 96cc 89be 0d44 853d
000003f0: 9a18 19be 46cf 8d3c 54c2 b2bd cf90 423d
0.014895681 -0.0071994606 -0.030475665 -0.06883281 0.20891185 -0.08011776 0.06492406 0.15375087
0.09191593 0.087494075 0.14095868 0.1032132 0.20280033 0.07223791 -0.02542762 0.14430624
-0.1846815 0.14730574 0.06870846 -0.00086603523 0.058849793 0.12940389 -0.037336756 -0.03217097
-0.19860597 0.3618442 -0.14903574 -0.06946939 0.16520622 0.16042899 0.40275195 0.051667534
0.15877967 -0.044123285 0.060029276 0.15233874 -0.017836567 0.35596263 -0.059966296 -0.009609016
0.040135488 0.028226951 0.0284756 -0.111190625 0.16286917 0.017674362 -0.022075146 0.5385093
0.12912655 0.083154954 0.047728244 -0.165747 0.041982025 -0.06244293 0.05546591 -0.1756674
-0.07021669 -0.12670277 0.070804045 -0.20241655 -0.0061255894 0.06534829 0.27074102 -0.11505866
-0.039873004 0.074944615 -0.06487885 -0.07199204 0.05708689 -0.099467725 0.024481349 0.11051928
0.02747997 0.015733276 -0.07374092 -0.004049302 0.020836707 0.044192128 0.04685731 0.10560628
-0.099226944 -0.0057487437 -0.091882385 -0.11668005 -0.01435627 -0.10685919 0.09040833 0.010161923
-0.07289966 0.060773306 -0.121276215 -0.05246179 -0.030357143 -0.111528784 -0.070140176 -0.026695523
0.077790245 0.11707364 0.075127594 -0.07932063 -0.08533679 0.11444562 0.040324695 0.017973255
0.011789151 -0.09429836 -0.045305494 0.11760555 -0.028096952 -0.0034260608 -0.12282937 -0.06750019
-0.024795623 -0.0779453 -0.022216374 0.045311376 -0.108322576 0.032413434 -0.07422834 -0.08082745
0.05620776 0.08438046 -0.036170926 -0.057293903 -0.11700121 -0.06541942 -0.11507106 -0.03763836
0.023955723 -0.013060054 0.15984653 0.096107006 -0.0061051357 -0.017439513 0.007739042 0.14971566
0.05293107 -0.022472272 0.19665177 -0.031404898 0.18752655 0.16897142 -0.00934262 0.23550664
-0.20573723 0.05676065 0.04509621 0.1755215 -0.031627487 0.046175357 -0.23565333 0.051997583
-0.007751267 0.33655307 -0.0025691462 -0.14233829 0.28900304 0.032988872 0.3606746 0.08829191
0.16549191 0.012372772 -0.09825722 0.14751996 -0.11313871 0.2873208 -0.13394828 -0.06880807
0.16643505 -0.018052196 -0.016812371 0.027581103 0.06347179 0.1049005 -0.17432594 0.31455016
-0.061108675 -0.045116562 0.07775014 0.078832574 0.10559419 0.13855213 0.20468841 -0.009096013
0.13104063 0.11622586 0.09483215 0.03815311 0.15092076 -0.02229798 0.11788886 -0.16498004
0.110375375 -0.20147637 0.06614185 0.17918131 -0.203269 0.030975388 0.061305575 -0.31446314
0.21130711 -0.13503213 0.31397697 0.081836 0.09980672 -0.11983152 -0.10502887 -0.15350889
0.024613483 0.032423936 -0.38156727 0.13515246 -0.07269361 0.14228421 0.15281819 -0.18073787
-0.1539317 -0.3637942 0.20622788 -0.01777996 -0.07619855 0.16048063 -0.30069277 0.23030904
-0.0064809467 0.026887678 0.032756943 0.19428709 0.15917893 -0.007953787 0.07207586 0.19331343
-0.05379932 0.1147366 0.04829701 -0.16112798 -0.12560812 0.19702792 0.17233166 -0.015123552
-0.038943302 -0.27762663 0.12993625 0.0160079 0.05766414 0.072115496 -0.29925138 0.09701149
-0.01735616 0.0700826 -0.269139 0.0650712 -0.14950791 0.01731075 -0.087284714 0.04750138

actor.0.bias f4 [64]
00000000: 66ad 98bc 2426 cbbd 6281 ba3c ff6c c2bd
00000010: 15ad 77bd 5f77 143e 35c2 0e3e d114 8d3d
00000020: fe1d 79ba 16a0 62bd 837a 7cbd d8d2 193b
00000030: 1abb b73d be31 8fbd ebe1 283e 981b 7ebc
00000040: 58c0 393d cfcd b73d 6bb2 9a3d 5a64 ae3d
00000050: cc25 bebd 02d0 23bd 243a c63d 4015 733e
00000060: 5259 89bd cdae c7bb 5603 09be 92ea 283d
00000070: 1181 a83d 4e78 d73d d065 bdbd ff0c 123e
00000080: ff52 b2bd 93b5 8b3d 8b61 bf3d 3172 e4bd
00000090: 5c12 a63d a32f 1b3e 4fae 84bd f55e f93d
000000a0: 0c0e 333e 1093 943d fafe 263d a30a 8dbd
000000b0: 5abf 8dbd 8dd4 693d f6a1 043d d86e 593e
000000c0: 2c86 9e3d 47e7 1d3d 2bd8 49bd 077e 0a3e
000000d0: 251a 163e b5a9 6ebc 68a2 73bc a88a 4fbd
000000e0: 5d5c 8b3c 3f38 abbd 0022 073e 8a1d 6e3d
000000f0: c008 7abc 71c8 42bd 4f72 fd3c 402d 1f3e
-0.01863737 -0.09919384 0.022766773 -0.094934456 -0.0604678 0.14498661 0.13941272 0.06888736
-0.00095030654 -0.05532845 -0.061640274 0.002347162 0.08971234 -0.069919094 0.16492431 -0.015509509
0.04534945 0.08974802 0.07553562 0.08515234 -0.09284553 -0.039993294 0.09679058 0.23738575
-0.067064896 -0.006093836 -0.13380179 0.04123933 0.082277425 0.10520993 -0.09247935 0.1426277
-0.087072365 0.06821742 0.09344777 -0.11154593 0.081089705 0.1515489 -0.06478559 0.12176315
0.17485827 0.072546124 0.04077051 -0.068867944 -0.06921263 0.05708747 0.03238102 0.2123369
0.07740435 0.03855064 -0.04927842 0.13524638 0.14658411 -0.0145668285 -0.014870264 -0.050669342
0.017011816 -0.083603375 0.13196564 0.05813364 -0.015260875 -0.047554437 0.030938296 0.15544605

actor.2.weight f4 [3, 64]
00000000: 271d 993d f181 ea3c 0155 873c 2b62 923e
00000010: d31e 113e 414e e73d 8634 9abe 99a6 9b3c
00000020: 386d 90bd dc13 82bd cddc 2cbb 8a21 8dbc
00000030: db1f 133e a35c ebbd f94b c63d 87ea 133e
00000040: c762 9dbe 8eaf 4b3e c06f 89bd ace2 373d
00000050: 0245 693e 8c43 9fbd 8eea 093e 1136 c0be
00000060: f459 6d3e 5dc2 f93d 6258 c33c 8503 0f3e
00000070: 7233 183e 9729 bc3e f5cb dc3d 6eab 52be
00000080: a8d8 843e 26c8 06be dd49 123e ac4e 8a3e
00000090: 938a 86be bcea 98be 5c90 093e 13f5 093e
000000a0: 43a9 b1be 193d be3d 1f74 a9be 9b0e 9ebd
000000b0: 58c9 003d 431f 913d 5349 f5bd a3eb 0c3e
000000c0: de01 bc3e a84a 6d3e bafd 4bbe 4bd5 9bbe
000000d0: f89e 8ebd f455 8a3e 0fad 33be 4155 a63c
000000e0: 0a7e 2f3e 6698 01be ad4b 27be 5dc8 963e
000000f0: 788c 0d3e d979 043e 12f7 05bf 015d 29be
00000100: 4f42 333e bdd4 95bc a2f2 0e3e c821 d4be
00000110: 1213 7c3e 4d9d aebe dc2c 823e 7cfc 9cbe
00000120: fc83 b4be a94e 9bbe e910 ef3c d442 99be
00000130: 984d 0abc beb5 593e 459f 84be cfd7 643e
00000140: 3508 0b3c ad71 a43d eabe 783e 68a1 fbbe
00000150: 0f40 0fbe 5f97 873e 4264 d3be 019d 38be
00000160: 6b76 e63d 7976 03bf 2ff1 b43b 3390 32be
00000170: ef14 073e 5c01 b8bc 7bee 51bd 6f14 8fbe
00000180: f2fb 503c 41d1 c73e 03b5 debe 6e6d d4bd
00000190: 9bdb 9abe 83f9 513d 2fd8 433e 9e8b 80be
000001a0: 7a0c c33d f47a cb3d 479b c9bd 670a e43c
000001b0: 7f13 5e3e 8b17 803e b641 823e 7215 b4be
000001c0: 43b4 3fbe 675d 31bd 960f 073e 1623 b4bd
000001d0: f6a0 6b3e ec59 4fbe 4db8 223e b120 80bc
000001e0: 711d e03c fc57 6f3e 478f 4cbd ec5b e8bc
000001f0: 70c5 0ebe ab1a 21be 6018 21bd 6d18 e63d
00000200: 4f03 bbbe fcbb a43d 9673 74be ae2b c63d
00000210: ebcb 7abe ce30 7e3e 2a40 c8bc 68b5 c33e
00000220: 4902 7d3e 04ce a93e dc85 27bf 556a c33e
00000230: 7c35 e5be eeb5 4cbe c3b1 9a3e d860 cbbe
00000240: c3b8 993e 981c 04bf 31ea b9be 7359 cd3e
00000250: cbcc 8bbe 891b 4fbd 7b12 bd3e 2456 0a3f
00000260: 5ec1 0bbf d1b8 403e 7323 dfbd a79b cfbd
00000270: 8cb5 f6be c859 19bf b57b 4d3d af26 013f
00000280: 7ac8 09bf bea5 d6be d10c 943e 8d70 85be
00000290: a2c4 f03e 35e2 c73e 81c5 acbe 4c5b 8ebd
000002a0: 5813 933e 7982 cabe a68d df3e 83d2 93bd
000002b0: ffce 2dbe 68bf 9cbe beb3 90be 41d7 c53e
000002c0: d75d f3be ea42 99be bc30 05be 4b1b e03e
000002d0: ff14 0abd a055 4fbd bd9c 853d 3d4e bc3d
000002e0: e1c9 b4be c26f e4bd 6e65 263e b998 a3be
000002f0: 2dde 08be afae 143d 341c bd3e b8be da3d
0.074762635 0.028626414 0.016520025 0.2859052 0.14171915 0.112942226 -0.30118197 0.019000338
-0.07052082 -0.06351444 -0.0026376725 -0.017227907 0.1436762 -0.114922784 0.096824594 0.14444934
-0.30739424 0.19891188 -0.06710768 0.044893906 0.2278023 -0.077765554 0.13468382 -0.3754125
0.23178846 0.12195275 0.023845855 0.13966186 0.14863375 0.3675048 0.10781089 -0.20573208
0.25946546 -0.13162288 0.14285989 0.27013147 -0.262776 -0.29866588 0.13433975 0.13472395
-0.3469945 0.09288997 -0.33096406 -0.077176295 0.031442016 0.07086041 -0.11976876 0.13761763
0.36720175 0.2317301 -0.19921008 -0.30436167 -0.06963915 0.27018702 -0.17546485 0.020304324
0.17137924 -0.12655792 -0.16337462 0.2944974 0.13823116 0.12937106 -0.52330124 -0.16539384
0.17505763 -0.018289918 0.13959745 -0.41432023 0.2461665 -0.34104386 0.2542485 -0.3066138
-0.35256946 -0.3033345 0.029182868 -0.29933798 -0.008441351 0.21260735 -0.25902763 0.2234795
0.008485843 0.080294944 0.24291578 -0.4914658 -0.1398928 0.26482674 -0.41287428 -0.18028642
0.11253055 -0.5135265 0.0055219154 -0.1743782 0.1319158 -0.022461586 -0.051252823 -0.27945277
0.012755381 0.39026836 -0.43497476 -0.103724346 -0.3024567 0.051263344 0.19125436 -0.2510652
0.09523864 0.09935561 -0.0984407 0.027836991 0.21687125 0.25017962 0.25440758 -0.3517261
-0.18721108 -0.043301966 0.1318954 -0.087957546 0.2301062 -0.20249146 0.15890618 -0.015640588
0.027357789 0.23373407 -0.049941327 -0.028364144 -0.13942504 -0.1573283 -0.039329886 0.112351276
-0.36525962 0.08043668 -0.23872218 0.096763 -0.24491851 0.24823305 -0.024444658 0.3822434
0.24707903 0.3316499 -0.6543863 0.38167062 -0.44767368 -0.19991276 0.30213746 -0.39722323
0.30023775 -0.5160613 -0.36311486 0.40107307 -0.27304682 -0.05056337 0.36928162 0.5403769
-0.5459193 0.18820502 -0.10895433 -0.1013711 -0.48185384 -0.5990262 0.050166804 0.5044965
-0.5382153 -0.41923326 0.28916028 -0.26062432 0.4702502 0.3903977 -0.33744434 -0.06951007
0.28725696 -0.39552668 0.43662757 -0.07217886 -0.16973494 -0.3061478 -0.28262132 0.38640788
-0.47532532 -0.29933864 -0.13006872 0.43770823 -0.03371143 -0.050618768 0.06524036 0.0919461
-0.3531027 -0.111541286 0.1624963 -0.31952456 -0.13366003 0.036299404 0.3693558 0.10680908

actor.2.bias f4 [3]
00000000: be6d 883d ca7a ed3c 0d06 f03d
0.06661557 0.028989214 0.11719904

critic.0.weight f4 [64, 64]
00000000: 4a9c 4c3e 165e b5be 63c1 2b3e ad75 8fbe
00000010: 4f8f 053e 865d 363e 00ad cc3d 256d 803c
00000020: eb21 b0be 16bc a03e 5c92 31bd 97f9 a3be
00000030: aba9 5c3c 8ef3 583e 4582 27bd a4d9 463e
00000040: c21f d4bd 3f23 a53a 6422 8d3e 33de 80be
00000050: 3e07 6d3e 61db bb3e 875f a13d 46c9 0d3e
00000060: 11d8 893e 6cd2 363e 4707 a4be f2db ab3e
00000070: 5a86 503d 1f75 533e 54ff 033e e39a a63e
00000080: 7294 8b3e 0d27 80be 2cc4 9f3d 1e93 4e3e
00000090: 29dd 5a3e e882 9d3e 8492 2a3e 183b 1cbe
000000a0: fbcb 4e3e ac0f 883e de3a 6b3d f9be 5c3e
000000b0: 1644 8e3e e235 9abc a36c 9dbd be8a fb3d
000000c0: d00d 7b3e 428c 343d e994 83bb 66fa 553e
000000d0: 974b a8bc 4fc8 9d3d 92ef 8b3d 4a20 303e
000000e0: 8bb1 a13e 8e6d fc3e 19e4 0fbe 46a2 11be
000000f0: 6967 babb ddcf 9c3e 1325 633e 8f4d adbe
00000100: e7b5 003e 5cd3 abbe 6b26 3b3e 924b dcbe
00000110: 3b29 15bd 5109 3e3e 93d8 5b3e 877f a5bc
00000120: c1f2 9cbe 78b1 6f3e edee 48bd 46f4 76be
00000130: 2888 053e ed23 673e 5f3f 7abc 8ab0 763e
00000140: 8a03 0abc 245b ff3d e289 a43e b21b 34be
00000150: dee6 783e a7a0 913e 7f73 863e 4afe 013e
00000160: 5ab5 803e 44fb 9f3e bd42 83be 92e9 4c3e
00000170: 424e e23c dc8f 2b3e 9f95 b83c 961c 953e
00000180: 9341 bd3e d10e 05be a559 b93d 8581 df3d
00000190: 5944 963e 983a 5f3e a653 fc3d 884e b2be
000001a0: d177 bd3e e5b1 993e 125d 273d c86f 923d
000001b0: 946c 8c3e e2b6 43bc 6987 d4bd 2b19 833d
000001c0: de55 d83e 73bf 253d a5d5 223e 9ca7 973a
000001d0: 9e39 a4bd b9fa bcbc 2ad6 933e e480 a03e
000001e0: cce3 ca3d 1a84 103f 9763 48be d046 a7be
000001f0: 7e1c 3cbd 4d73 8d3e 080a c43e 5a71 a8be
00000200: d4d1 bd3e 8098 b1be 18a7 1b3e eef9 bebe
00000210: f722 243d 82ea 643e 424e 4e3c 92bd 223e
00000220: a698 80be 8ddb ca3e ae9d 19be d7a8 83be
00000230: d1fb 3d3e b00a 003e c4b4 ddbd ce62 8a3e
00000240: b55d 94bd 84a4 153e 891f e23e cb9a 7dbe
00000250: d9ca a13e dfc5 d13e 99cc 1c3e dcff 5b3e
00000260: 11dc 783e 918f b03e 0421 87be e5ab 3e3e
00000270: 17ac da3d 71ab 5b3e 2c02 0f3e c951 b43e
00000280: 4faf c23e 5f32 66be 9e4a 263e b286 043e
00000290: 235e 8f3e 0917 b53e 4cec ff3d 99ac c4be
000002a0: 421e c03e 2e9e 183e 6613 563e bf94 8a3d
000002b0: 2954 053e 87c2 01be 7485 313d f0b6 2d3e
000002c0: 3292 f83e 3b94 2d3e 5153 6f3e 500a 5b3e
000002d0: 2a46 0b3e a28d 593e 93bc 263e 4573 423e
000002e0: 08a0 8a3e 79c5 1d3f db38 31be 9dfc a9be
000002f0: 3c5a 4cbe baf3 1d3e 6472 b43e 6d1b c1be
00000300: e116 d83d 4323 c03e 6862 743e 2ada 893e
00000310: ce1d 23bd da45 fd3d 895f f13d c2ff 1ebc
00000320: c487 823e 43a5 433d 1f01 893e 3605 e13e
00000330: 4767 6ebc e7a1 b43d 798f e23d 313b ed3c
00000340: d139 b4bd 2a20 2f3e b717 b13d a331 773e
00000350: 614f 4bbd 7002 fc3d 543e 03be b695 35be
00000360: b312 55be bdde 0b3e 43c3 9c3e 629e 6cbe
00000370: c6c1 833d 2f0d 06bd 88c6 4e3e 6773 c1be
00000380: 4243 dfbd df72 9c3e 64b5 233e 81df 93be
00000390: 629b 9abe 88ed 983d 3b2e 8abe 72f8 d53e
000003a0: ed95 77bd 35a0 4c3c 5a8e 243d f78e a2be
000003b0: f62b 373e f798 9d3e d79c bb3e 0800 443e
000003c0: 1018 33be 719d 5fbd 0819 5f3e a6e9 20be
000003d0: 9673 3f3e 43ca 60bd 8a7d a23d c834 2e3e
000003e0: a9be b03d e2c8 2bbe 40e5 923e 1207 423e
000003f0: ae07 4c3d b26e 97be 8e1c 88be 5771 063f
0.19981495 -0.35423344 0.1677299 -0.28019467 0.13042949 0.17809114 0.09993935 0.015677044
-0.34400877 0.31393498 -0.04335247 -0.3202636 0.013468186 0.21186659 -0.04089572 0.19418961
-0.1035762 0.0012599005 0.275653 -0.25169525 0.23147294 0.3669081 0.078795485 0.13846311
0.26922658 0.17853707 -0.32036802 0.33566242 0.050909378 0.20650147 0.12890369 0.32540044
0.27261692 -0.25029793 0.07801089 0.20173308 0.21373428 0.30763936 0.16657454 -0.15256917
0.20195 0.26574457 0.057429187 0.21557225 0.2778632 -0.018824521 -0.076867364 0.12282322
0.24516988 0.044079073 -0.004015554 0.208963 -0.020543857 0.077042215 0.06832804 0.17199817
0.31580767 0.49302334 -0.14051856 -0.14222059 -0.005688597 0.30627337 0.22182111 -0.33848235
0.1256939 -0.33559692 0.18276374 -0.43026406 -0.036416274 0.18558241 0.21469335 -0.020202411
-0.30653957 0.23407543 -0.049055982 -0.2411662 0.1304022 0.22572298 -0.015273898 0.24090782
-0.008423695 0.124685556 0.32136446 -0.1758869 0.24306819 0.2844288 0.26259992 0.1269466
0.2513836 0.31246388 -0.25636855 0.20010975 0.027625207 0.16754097 0.022532282 0.29123372
0.36964092 -0.12993933 0.090503015 0.10913376 0.2934902 0.21799695 0.12320642 -0.3482554
0.37005475 0.30018535 0.040860243 0.07150227 0.2742659 -0.011945458 -0.1037739 0.06401285
0.4225301 0.040465783 0.15901811 0.0011570337 -0.08018802 -0.023068773 0.28874332 0.31348336
0.0990673 0.5645157 -0.1956924 -0.32671213 -0.04592561 0.2762703 0.38288903 -0.3289898
0.3707415 -0.3468666 0.1520046 -0.37300056 0.040072408 0.22355083 0.0125919 0.15892628
-0.25116462 0.3962063 -0.15001556 -0.25714752 0.18553092 0.12504077 -0.10825494 0.27028507
-0.07244436 0.14613539 0.44164684 -0.2476608 0.31600073 0.40971276 0.15312423 0.21484321
0.24302699 0.34484532 -0.26392376 0.1862026 0.10677355 0.21452118 0.13965672 0.35218647
0.38024375 -0.22480153 0.16239402 0.12942007 0.28001508 0.35369137 0.12496242 -0.38412932
0.37523085 0.14904091 0.20905837 0.06766652 0.13020386 -0.12671863 0.04334016 0.16964316
0.48549038 0.16951077 0.23371626 0.21390653 0.13600984 0.21245435 0.16282873 0.18989284
0.2707522 0.61629444 -0.17306845 -0.3320054 -0.19956297 0.15425006 0.35243523 -0.37716237
0.10551239 0.37526903 0.23865664 0.26924258 -0.039823346 0.12366839 0.117858 -0.009704532
0.25494206 0.047765028 0.26758668 0.43949288 -0.01455099 0.08819943 0.110625215 0.028958889
-0.0880009 0.17102113 0.08647101 0.24140029 -0.04963625 0.123051524 -0.12816745 -0.17732891
-0.20807914 0.13659187 0.30617723 -0.23107293 0.06433444 -0.032727417 0.20192921 -0.37783358
-0.109015 0.3055639 0.15987164 -0.28881457 -0.30196673 0.074671805 -0.26988396 0.4179111
-0.060445715 0.012489368 0.04017482 -0.317497 0.17887864 0.30780765 0.36643097 0.19140637
-0.17489648 -0.054593507 0.21786892 -0.1571413 0.18696436 -0.05488039 0.07934101 0.17012322
0.086301155 -0.1677585 0.2869053 0.1894801 0.04981201 -0.2957664 -0.26584285 0.5251669

critic.0.bias f4 [64]
00000000: f2bb bb3e 4b7e 9e3e 24f4 ac3e 7182 3d3d
00000010: bc9b a33d 76b8 c83e 0004 933e 9afb 4f3e
00000020: 78b9 a53b 1781 1fbd 7128 693e d339 b83e
00000030: 077c 4e3e dca5 b73e 513d 0bbe 4c15 803e
00000040: aea2 463e fb17 9e3d b6ef 993e b8aa b63e
00000050: 3337 ba3e d963 11be be48 913e d263 b53e
00000060: 03c5 353e fbb2 363e 7156 813e e160 573e
00000070: 1935 983e 4149 db3e b577 9e3e 72da 14be
00000080: 2eb0 cabc 7035 bd3e 0487 0bbd 0dba 693e
00000090: be5e 9f3c 6c02 123d 9386 bd3e c250 b5bd
000000a0: 60d8 a33e 5d05 2b3d e2da 893c 7e35 b63e
000000b0: 531a 6b3e 2aa9 fcbd a858 203e 9a9a 633e
000000c0: 08c8 ccbd 2174 1d3e fbc0 2abd f14c 6b3e
000000d0: 1971 953d ce1d a03e ac4f b13e 1931 3a3e
000000e0: b0b2 a23d 0090 a23e 9cf6 aa3c a886 c13e
000000f0: 4804 9b3e ed61 8b3e aaf4 ab3d 4bb4 493e
0.36666828 0.3095573 0.33780015 0.046266977 0.07988688 0.39203233 0.2871399 0.20310822
0.00505751 -0.03894147 0.22769333 0.35981616 0.201645 0.35868728 -0.13597609 0.25016248
0.19397995 0.07719418 0.30065697 0.35677123 0.3637024 -0.14198245 0.2837581 0.3542772
0.17750935 0.17841713 0.25261262 0.2103305 0.2972801 0.42829326 0.30950704 -0.14536455
-0.024742212 0.36954832 -0.034064308 0.22824879 0.019454356 0.03564684 0.37016734 -0.08853294
0.3200102 0.04175316 0.016828004 0.35587686 0.2295926 -0.12336953 0.1565882 0.22226945
-0.099990904 0.15376331 -0.041687947 0.2297857 0.07296962 0.3127274 0.34631097 0.18182792
0.07944238 0.31750488 0.020869546 0.37798047 0.30276704 0.2722315 0.08396275 0.19697683

critic.2.weight f4 [1, 64]
00000000: 0c73 ca3e 8f52 cb3e 2390 a03e 48cc e0be
00000010: caee d7be 9656 8f3e 6b73 e13e 5786 903e
00000020: 669f e4be 7bb9 0ebd 7997 893e 20ed b03e
00000030: 739e 9f3e d61c 9b3e 9c55 f7be 4b4f bd3e
00000040: 6eac 913e 0cac e7bd a309 c93e 2597 e13e
00000050: d287 8e3e e057 45be dfc8 c33e 24d9 da3e
00000060: ca50 a83e 1e87 cb3e ce30 ab3e adf1 b03e
00000070: 41e4 9f3e 8b28 963e dd66 d13e b00a edbe
00000080: 3f46 19bf e2e7 ba3e 1507 a4bc f1d6 cd3e
00000090: 5ee0 84bc c26d 8abf f25d 9f3e 214b babe
000000a0: 2329 a43e a8da 9dbd b29f 1ebf 3d76 973e
000000b0: a7ff d33e 73e0 95bd 87eb 19bf 399d 9b3e
000000c0: d0b6 bf3d 8a55 da3e 784f 8bbc 9989 9e3e
000000d0: c5e4 f8be 301c d13e 09a7 b33e a113 9c3e
000000e0: 1e8e dcbd 15c3 bf3e f9d7 d9be 6a5a a23e
000000f0: 1f0d aa3e 49c0 b53e f1b5 3abd e53b ce3e
0.395409 0.39711425 0.31359968 -0.43905854 -0.4217437 0.27995747 0.4403337 0.28227493
-0.4465286 -0.034844857 0.26873377 0.34555912 0.31175575 0.30295438 -0.48307502 0.36974558
0.28451866 -0.11312112 0.39265165 0.44060627 0.27837998 -0.19271803 0.3823919 0.4274379
0.32874137 0.39751524 0.33435673 0.34559384 0.3122883 0.29327807 0.4089879 -0.46297216
-0.5987281 0.36505038 -0.020022908 0.4020305 -0.016220268 -1.0814745 0.31126362 -0.36385444
0.32062635 -0.07707721 -0.61962426 0.29582396 0.41405985 -0.07318201 -0.6012501 0.3039339
0.093610406 0.42643386 -0.017005667 0.30964354 -0.48612037 0.40841818 0.35088375 0.30483726
-0.10769294 0.37453523 -0.42547587 0.31709605 0.33213136 0.35498264 -0.04558367 0.4028007
