models/ppo_trading_model_cvx.pt (torch, 40444 bytes, 9 tensors)

shared.0.weight f4 [64, 7]
00000000: 7df4 a13e 68f5 033f ff8a f2bd a002 2b3e
00000010: 5eb0 8abe 0dc5 ecbc 11a3 c03d 8817 7b3e
00000020: 6695 233e a8fd dbbe c4f9 153f ecb1 783e
00000030: 139d a33e fb34 47bd 14e5 eb3e 2d17 8f3e
00000040: 5233 7f3e a01f 5c3e 2eac e4be 0ef2 c13d
00000050: 2cde 16be 70f5 b13d b839 56be e915 543e
00000060: 856d aebe a4ab 27be 312e 283e 199f 2ebe
00000070: 2edf 903d a339 04bf 270b 173f 6469 c5be
00000080: eb0a 7b3e 12dd 6a3d cfec a3bd 6f16 c53e
00000090: 4311 363e 51de 1b3e b76a 6b3e bc34 fcbe
000000a0: f88b 023e 5968 463c ac24 3fbd 6daf b03d
000000b0: 5986 803e 8aa0 753d 9acb 423f 02c1 363e
000000c0: ed46 a23e 9675 45be 7393 03bf 8a3c 12be
000000d0: 49f9 76bd 5012 313f 7b26 613e ef91 483e
000000e0: d3a7 523e 03fa 75be 575d 2c3f b153 20be
000000f0: f815 323c 471a c2be 1358 1c3d ce88 5abe
00000100: 4cce 893e 45e6 82bd 0a62 923e 8ba6 79be
00000110: 98fe 15be 2ed7 cdbd eddb 043f f2a6 0b3e
00000120: 3e4a 3a3f 1a8f a0be 89e2 f8be 6280 9fbe
00000130: ae74 33be c80f df3e 35dc cb3e 05f6 663e
00000140: b02f 41be 6517 cbbe 8374 f43e 7c1e bebe
00000150: 7867 6d3e e8b4 70bd 5497 eb3e 5557 a5be
00000160: d47a 8abe e194 5abd 5c19 c93d 449f debd
00000170: f3e1 6d3e 92c8 bf3e 2455 02bf e42a d03c
00000180: 4ae4 a63e 25de 3ebe 1e60 71be 6d8d b3be
00000190: cc1e 35be db3f 613e b425 803d 1370 cbbe
000001a0: 0a31 353d cb53 8abe 8501 e6be b002 b5bc
000001b0: 91b2 e8be f091 49bf a8b2 a93e 2afa c53d
000001c0: 4b6a 6fbe 0710 0dbf d8e0 c1be d270 71be
000001d0: 186b f63d 465f 56be da2d 26bc f5c5 29bf
000001e0: 885b cc3e 6d04 e1bd 02ac 85bd cd25 7ebe
000001f0: afb8 b0be 5090 d0be a00e 44be a1ad afbe
00000200: 5d7c 3e3f e318 8fbe 927b 413e 6c8b d93d
00000210: e319 79bd 2a2e 4d3e 4058 d7bd 4a49 02bf
00000220: b64a 27be ffef fabe b37c 053f d505 de3c
00000230: 3bb2 cebc eb7c e0be 130d 743e aa88 b3be
00000240: d334 8b3d 6d4f 2f3e bd3e 793e fc1a c83e
00000250: 4e3d 3f3f d57d aabe 4303 f33d 2789 4bbd
00000260: 86ed f13c 2b3e 99bc 115b cd3e e34b 0dbf
00000270: 27c3 ad3e 2c92 113e a4b5 693e fa9b 13bf
00000280: 00bd 153e fd1f c2bd 6b85 d83c ab97 d8be
00000290: e3a4 9c3e 4ad3 0c3e 0596 333e 9c5e df3e
000002a0: 9e9b 86be 062d c4be a9e3 c6be c0fc 2f3e
000002b0: d075 f63e 8029 b03d e8b4 e03b b6a1 203e
000002c0: 6236 5ebe 7d25 a13d 57c0 063f e05c 09bf
000002d0: 4d54 8c3e 7977 e33c fad0 b53d e3cb eebe
000002e0: 43ea a13e c0f9 cc3d 934c fd3e 4119 8ebe
000002f0: b5d5 30bd ca3c fabb c576 bbbe 025c 1abd
00000300: f47a 9a3e d2d0 4d3f a01c af3d efe2 8dbd
00000310: 6480 6cbd 2866 8f3e f789 b53c 855b 8f3d
00000320: 82b9 01bf c0f9 f6bc e4c9 ec3e f3fd 1e3e
00000330: da24 173e fc35 07bf 2ae3 d0bd 8da4 00bf
00000340: e1d9 f5bd 54ad f5bb 73a7 923d 08b2 d33e
00000350: 1337 a4be bcec ebbe 3137 6a3e e648 063f
00000360: 7d14 183e 2f34 a8be 1efb e4bc e92a fcbe
00000370: a61d c1be 43c4 f23e 0e2d c8bd 72fe 8fbd
00000380: eeef b3be 76a1 183f 7fd7 823e 0ad5 7d3d
00000390: 2ecc b0bd 7b10 0fbf e508 95be 1fb3 e63e
000003a0: b0bd a83e 20be e53e 906a db3e 6373 6a3e
000003b0: 47dd da3d 54da 62be 43c3 86be 4f15 12bf
000003c0: 7fa0 ad3e 9293 92be 6524 cebe 654d e53d
000003d0: 1f1a c4bd 5534 f9be 4d00 00bf 6a94 393e
000003e0: 3a2b 1cbd 8e0e be3e 0f68 2b3d 9708 0a3c
000003f0: 8556 bfbe 5c11 00bf 6582 8cbe 41d1 07bf
0.31631842 0.51546335 -0.11842918 0.1670022 -0.27087682 -0.028902555 0.094061024 0.24520695
0.1597496 -0.42966962 0.5858424 0.24286622 0.31955776 -0.04863451 0.4607321 0.2794737
0.24921921 0.21496439 -0.44662613 0.094699964 -0.1473319 0.086893916 -0.20920455 0.20711483
-0.34067932 -0.1637407 0.1642387 -0.17052878 0.07073818 -0.51650447 0.5900139 -0.3855697
0.24515884 0.057339735 -0.08004152 0.38493678 0.17780022 0.15221526 0.22989927 -0.49258983
0.12748706 0.012109839 -0.046665832 0.0862721 0.251025 0.059967555 0.7609192 0.17847064
0.31694737 -0.19283137 -0.51396865 -0.14280906 -0.06029633 0.6916857 0.21987335 0.19586919
0.20571832 -0.24021153 0.67329925 -0.15656926 0.010869496 -0.37910673 0.03816993 -0.2134125
0.26915205 -0.06391577 0.28590423 -0.24379937 -0.14647901 -0.10050808 0.5189808 0.13637903
0.72769535 -0.31359178 -0.48610333 -0.31152636 -0.17524979 0.43566728 0.39816442 0.22554787
-0.18865848 -0.39666286 0.4774514 -0.37132633 0.23184001 -0.058766276 0.46013892 -0.32293192
-0.27046835 -0.05336464 0.0981929 -0.10870221 0.23230724 0.3745771 -0.50911164 0.025411077
0.32596046 -0.18639429 -0.23571822 -0.35068837 -0.1768753 0.21997015 0.06257191 -0.39733943
0.04423622 -0.27017054 -0.44923034 -0.022096008 -0.45448735 -0.7873831 0.33144116 0.09666856
-0.23380391 -0.5510258 -0.37866855 -0.23578194 0.12032145 -0.20934781 -0.010142768 -0.66317683
0.39913583 -0.10987172 -0.065269485 -0.24819107 -0.34515902 -0.40735102 -0.19146204 -0.34312156
0.74408513 -0.27948675 0.18894795 0.10622296 -0.060815703 0.20037141 -0.10514879 -0.5089308
-0.16337094 -0.49011227 0.521434 0.02710239 -0.025231471 -0.43845305 0.23833112 -0.35065204
0.06797185 0.17120142 0.24340339 0.39083087 0.7470292 -0.33299127 0.118658565 -0.049691346
0.029532205 -0.018706402 0.4010854 -0.5519392 0.33937952 0.14215916 0.22823197 -0.57659876
0.14622879 -0.094787575 0.026430806 -0.42303213 0.3059455 0.13752475 0.17537697 0.4362687
-0.26290601 -0.383156 -0.38845566 0.1718626 0.4813676 0.086016655 0.006857503 0.15686688
-0.21700433 0.078684784 0.5263724 -0.5365734 0.27408066 0.02776693 0.0887775 -0.46639928
0.3162404 0.100085735 0.49472484 -0.27753642 -0.043172557 -0.007636641 -0.3661405 -0.0376854
0.3017193 0.8039676 0.08550382 -0.0692805 -0.05773963 0.28007627 0.022160513 0.06999878
-0.5067369 -0.030148387 0.4624778 0.15526561 0.14760152 -0.5281675 -0.10199578 -0.50251085
-0.12004448 -0.007497469 0.07160845 0.41346765 -0.32073268 -0.46079051 0.22872616 0.52454984
0.14851566 -0.32852313 -0.027951773 -0.49251488 -0.37717932 0.4741536 -0.097742185 -0.070309535
-0.3514399 0.5962137 0.25555035 0.061970748 -0.08632694 -0.5588452 -0.29108348 0.45058534
0.3295722 0.44871616 0.42854738 0.22895579 0.106867366 -0.22153598 -0.26320848 -0.57063764
0.3391151 -0.28628212 -0.40262142 0.111964025 -0.09575295 -0.4867274 -0.5000046 0.18123022
-0.03812716 0.3712048 0.041847285 0.0084249 -0.37370697 -0.5002649 -0.27443233 -0.5305367

shared.0.bias f4 [64]
00000000: aaef 143f e288 e7be 9b01 e23c 917c 41bf
00000010: 4ed3 f8be 7e22 bf3d 61a6 d03e a922 af3e
00000020: 7b87 5bbe eecf 233f 6917 c2bd 60bf 8fbe
00000030: b936 0bbe 3171 b13e 82db b73e d8c2 22bd
00000040: 5c24 133e 05d8 61bd f084 dabe 9661 e8be
00000050: 682a 013f fa94 103f 41a7 883e 1e60 093f
00000060: 5aec 1d3f b1d6 64be ee82 42bd d3d5 fc3e
00000070: 61b6 93be 0782 1cbf c8ab 83be ffc1 81bd
00000080: 76a8 933e c48c 40be 1317 35be b266 353e
00000090: e2b1 01be 4a93 50be 3ce1 023f 93bd 35be
000000a0: ce74 073f 68a8 383f 6ec0 d63e 932f 943e
000000b0: 7a8b b13e 4d49 853e 3a1d ad3d f52c f03e
000000c0: e6a2 c93e a886 1f3f eacf 073c 7856 82be
000000d0: 2a64 82be 2b02 d1bd 0a61 a13d 693f 293f
000000e0: c812 113f ddf2 cf3e 183c 0a3c c89d 19be
000000f0: fc52 c33c 8e04 433e ebb3 b03e 7b75 c9be
0.581782 -0.4522162 0.027588656 -0.755807 -0.48598713 0.09332751 0.40751937 0.3420613
-0.214384 0.6398915 -0.094771214 -0.28075695 -0.13595094 0.3465667 0.3590966 -0.0397366
0.14369339 -0.055137653 -0.42679548 -0.45386952 0.5045533 0.5647732 0.26690105 0.5366229
0.6168877 -0.22347523 -0.047488146 0.49381885 -0.28850082 -0.61135906 -0.25716996 -0.0633583
0.28839463 -0.18803698 -0.17684583 0.17714956 -0.12665513 -0.20368686 0.5112493 -0.17748098
0.52912605 0.7213197 0.41943687 0.28942546 0.34676725 0.26032487 0.0845284 0.469093
0.39382094 0.62314844 0.008289317 -0.25456595 -0.25467044 -0.10205492 0.07879837 0.6611238
0.5666928 0.40614977 0.008437179 -0.15001595 0.023843281 0.19044706 0.34512267 -0.39347443

actor.0.weight f4 [64, 64]
00000000: 4134 d03d 639b b3bd 63a1 afbd 3268 55be
00000010: 7aa9 fb3c 9da7 2abe 1221 ae38 97a8 a83d
00000020: 41b8 583e bdec 343e ebb0 743d 596a e3bd
00000030: abb9 083d 6f63 d2be 7c33 c63d 43bd 20be
00000040: b11d afbd 8fb5 4b3e 5dec 27be 590b c5be
00000050: 78fe 18be ee6d 4a3e 1831 383e a09e d33c
00000060: f3cf abbd ee7b 00be 9ca5 febd e373 113e
00000070: 993b 0e3c 1e4f 04be b5c7 87be 5be9 8bbc
00000080: ef1d 583e dafa abbc 6758 91bb be22 5c3e
00000090: dfee 933d 10e0 9ebe b1c1 17bd 6f00 57be
000000a0: b7ff 09be 2aa4 b53d bdc2 14be 2ebb b2bd
000000b0: 6564 0f3e 046c a13b 304d 153e 0dce 8ebe
000000c0: 2c96 1e3d 988f 663e f610 263e 5333 993e
000000d0: 76df 83bc 0b4f 58be c77e fbbe de9c 90bd
000000e0: da85 5cbe 502b 9dbd f67c 0fbe e27b 77be
000000f0: 945d 9b3c ccf1 263e dd02 203e 9f92 063e
00000100: 8bc2 d93c 4336 803e 7727 a53d 82ff 843d
00000110: d115 003f c8a6 7e3d f430 3d3d 2973 4f3d
00000120: 42ec a73c 1932 933d da5b 833c cf51 3bbc
00000130: 90e2 b53d e612 cb3c 72ce 10be 87b8 aa3d
00000140: 72b9 b93c 9bc1 b3bd 0c73 a03e 63a4 bbbe
00000150: d4ae 7d3c 163e 8dbd 7c3e 163e ec5d 823d
00000160: ca4a eb3c 1843 053e 16b5 8f3c c354 843d
00000170: fe82 08be c0d8 9ebe b099 acbe d3cf b33e
00000180: c733 b53d 9cca 183e c48e 043d c70e 4b3e
00000190: 8a88 923d 9b3b 303e 9697 573d 164a 7dbd
000001a0: fb06 033e 70a4 b4bc 377e 5abe 23ad 8c3e
000001b0: 8207 85bd 4999 543d fde6 23be c305 bf3c
000001c0: 3887 423c 3c8e 06be 71fa fd3d 17a4 04be
000001d0: 79fd cfbd 8f01 3bbd 5517 3cbe 0f5b a03c
000001e0: f93d 053e b3f2 6c3e 34e7 21bb 7e7a 373c
000001f0: 3648 00be 5ee9 23be 7188 f2bd 4db6 02bd
00000200: fdf3 6e3d a349 31be 002a 7d3d 67b0 d2bd
00000210: 7c9f 0cbf 8856 bebd facc 8e3d 2574 5d3e
00000220: 461a 7abc bec2 06be 24dd 2e3c aa0c 8c3c
00000230: ce17 ec3d dcd2 733e 0795 523c cebc ff3d
00000240: 0a40 f4bc cbe3 603a 46c5 9bbe 7c96 6e3e
00000250: e745 cfbd d5a0 9f3d edc0 a1be 581b b73d
00000260: 02f2 243e cc3e cdbd a2d2 e2bd 595e 8b3d
00000270: 0ef3 953d c339 9cbe 01ac 933e 08bf ee3d
00000280: 914a b43d 9192 1b3e db1c 5abc a5f1 a73e
00000290: 5684 28bd bc5b 7bbe 2a33 4dbe ca32 3b3e
000002a0: 7d93 babd f338 0dbe 606e 87bd 21c5 063e
000002b0: 9bf3 ef3c 2f77 bebc 3039 1cbf 3f7e 2ebd
000002c0: 6f2d dbbd 4a51 13bd 2401 073d 7ae2 b03d
000002d0: 16e5 e73d 3d42 653e 9336 743e 1cff fb3d
000002e0: 607a bb3d 15ec 623e 8eb8 d9bc 142e 963c
000002f0: 13ef 983e 8b3c d33d 7cc1 f43d f805 03bf
00000300: 480f 0f3e 8de9 b53d e4aa aa3e 5d56 163e
00000310: 3fba 013f 6b38 9a3e d17c c6bc df0b f1bd
00000320: 558b b63d 7aad abbd 90e6 523e 881d 4f3e
00000330: 6a8c 213e 114b 2dbe 1d73 0dbf 0573 c3bd
00000340: 3357 b5bd 541f 8cbe 7368 c13e 683b abbd
00000350: c8c6 adbd d961 de3d 7828 183e 0d74 efbd
00000360: 54c4 80be 1567 073e ce41 f23d 32c2 debd
00000370: 33a7 0dbe 99b8 4ebc 12ca 9ebe 8ce2 243d
00000380: 494b 35be 5ce4 843a 2580 7f3d 8d18 123f
00000390: 12b5 093d 0461 403e 2637 26be 7c7e 283d
000003a0: ab6a acbd 5506 173c f1e7 8dbe 8fdf bf3c
000003b0: 5654 c0bc c44e c33d 413c 68bd 251f 1e3d
000003c0: d85e eebd 7c60 1fbe 9910 cc3e 0bac 25bd
000003d0: 845d 813d 5d4e 933d 6a55 47be 9454 2b3e
000003e0: a173 91bc 81b4 5abd 0fdc dfbd a95a 3bbe
000003f0: c82d 27be a65f b63c b09e d4bd a242 dcbd
0.10166217 -0.08769872 -0.08575704 -0.20840529 0.030720461 -0.16665502 8.3031264e-05 0.08235281
0.21164037 0.17668433 0.059739035 -0.111042686 0.03338019 -0.41091487 0.096777886 -0.15697198
-0.08550585 0.19893478 -0.16398759 -0.3848522 -0.14940822 0.19768497 0.17987478 0.025832474
-0.083892725 -0.12547275 -0.12433931 0.14204364 0.008681201 -0.12920806 -0.26519552 -0.017079046
0.21105169 -0.020993639 -0.004435587 0.21497628 0.072232954 -0.3103032 -0.037049953 -0.20996259
-0.13476454 0.088692024 -0.14527412 -0.08727108 0.14003141 0.0049262065 0.14580226 -0.2789158
0.038717434 0.22515714 0.16217408 0.2992197 -0.016097765 -0.21123902 -0.4912016 -0.0706117
-0.21535435 -0.07674277 -0.14012513 -0.24168351 0.01896552 0.16303176 0.15626092 0.13141869
0.026582023 0.25041398 0.08064168 0.06494047 0.5003329 0.062170774 0.046189263 0.050646935
0.020498399 0.0718729 0.01603501 -0.011433079 0.08881104 0.024789285 -0.14141253 0.08335977
0.022671435 -0.08777162 0.31337774 -0.36648855 0.015483577 -0.068966076 0.14672273 0.063655704
0.028722186 0.13013875 0.017542403 0.064614795 -0.1333122 -0.31024742 -0.33711004 0.35119495
0.08847766 0.1492104 0.032362714 0.19829856 0.07154949 0.17210238 0.052634798 -0.061838232
0.12795632 -0.022051066 -0.2133721 0.27475843 -0.064955726 0.051903997 -0.16006084 0.023318177
0.011873059 -0.13140196 0.124012835 -0.1295322 -0.10155768 -0.045655783 -0.18368275 0.01957467
0.13011922 0.23139457 -0.0024704458 0.011198638 -0.12527546 -0.16006991 -0.118424304 -0.031912137
0.058338154 -0.17313246 0.061807632 -0.10287552 -0.54930854 -0.09293848 0.0697269 0.21626337
-0.015265053 -0.13160226 0.010672841 0.017095882 0.11527978 0.23810905 0.012852914 0.124871835
-0.029815692 0.00085788657 -0.30423945 0.23299593 -0.10120755 0.07794348 -0.31592503 0.08940762
0.16107944 -0.10021743 -0.11075331 0.06805105 0.0732175 -0.3051282 0.28842166 0.1165753
0.08803285 0.1519263 -0.013312544 0.32801548 -0.04114183 -0.24546713 -0.20039049 0.18281093
-0.091101624 -0.13791256 -0.06612849 0.13161136 0.029290965 -0.02325019 -0.6102476 -0.042600866
-0.10702025 -0.035966195 0.032960072 0.08636947 0.113229915 0.22388549 0.23848943 0.123045176
0.091542006 0.2216037 -0.02657726 0.018332519 0.298699 0.10314282 0.11950967 -0.5118098
0.13970673 0.08882437 0.33333504 0.14681382 0.50674814 0.30121168 -0.024229439 -0.11769842
0.08913294 -0.083826974 0.20595765 0.20226109 0.1577622 -0.16923167 -0.55253774 -0.095434226
-0.088545226 -0.2736765 0.37775 -0.0836094 -0.0848518 0.10858507 0.14859188 -0.11692057
-0.25149786 0.13222916 0.118289575 -0.108768836 -0.13833313 -0.012617254 -0.31013542 0.040255114
-0.177045 0.0010138857 0.062378068 0.5706871 0.033619948 0.18787009 -0.16231975 0.04113625
-0.08418783 0.009217818 -0.2771602 0.02342203 -0.023477715 0.09536508 -0.056698088 0.03860392
-0.11639184 -0.1556415 0.39856413 -0.040447276 0.06316665 0.07192681 -0.19466177 0.16731483
-0.017755331 -0.0533948 -0.10930645 -0.18296303 -0.16326058 0.022262406 -0.1038183 -0.10754897

actor.0.bias f4 [64]
00000000: d9c1 c53c 6567 4fbd 28df 0f3d 3515 d9bd
00000010: faa3 e43c 7d57 383d de50 f03d 392b e13b
00000020: 2863 b3bd 55d7 d1bd 1d2e 793c 0afb c0bd
00000030: f3f6 973d a6f4 96bd 81f9 763d 7e94 8e3d
00000040: a2c3 71bd b004 173e c78c 5c3d d238 40bc
00000050: 0795 14be 7b9f 823b 8585 7e3d ff72 db3d
00000060: f5d9 77bd bb86 d1bd 0922 bcbd cc09 d83d
00000070: 4ac5 4d3e dc74 1b3e c4f6 7abd 04ee a13d
00000080: 292f 1f3c bc88 d83b 83d8 8d3d 066f 93bd
00000090: 79ed bb3c 884a d03d df0b 523c 8086 c03d
000000a0: 9141 993d f99b ca3d b463 c1bd f5bc 31bd
000000b0: 2134 3dbc 63cc 013e 7f06 69bd 3e58 ef3d
000000c0: 1880 023e 798f be3d 9a9e 58bd f405 b93c
000000d0: 9692 173e 2eaf 7f3c 3e66 55bc 81a0 20bd
000000e0: fff8 2d3e 608c f4bd 77e8 8e3d 0640 eb3d
000000f0: 23ea 033d 1cd5 1bbc ad9f c1bd 7bb3 a53d
0.024140285 -0.050635714 0.035124928 -0.10599748 0.027910221 0.04500531 0.11734174 0.0068716076
-0.08759147 -0.102461495 0.015208748 -0.09422882 0.07420149 -0.07370882 0.06029654 0.069619164
-0.05902446 0.14747882 0.053845193 -0.011732297 -0.14509974 0.0039862967 0.062139053 0.10715293
-0.060510594 -0.10230776 -0.09186179 0.105487436 0.20094791 0.15181297 -0.06127049 0.07906726
0.009715834 0.006608097 0.06926062 -0.071989104 0.022940384 0.10170466 0.012820213 0.09400654
0.07483209 0.09893031 -0.09442845 -0.043393094 -0.011548073 0.12675624 -0.05689096 0.11686753
0.12744176 0.09304709 -0.05288563 0.022585846 0.14802012 0.015605731 -0.013024865 -0.03921557
0.16989516 -0.11940837 0.06977933 0.11486821 0.032205712 -0.009511258 -0.09454284 0.08090874

actor.2.weight f4 [3, 64]
00000000: d5c6 363e 900b b5bc 3e69 5bbd ada8 e73d
00000010: ba41 283d 4099 263d 78e0 d2bd e391 3d3d
00000020: a487 43bd badf 313d f888 bbbe 97e2 023d
00000030: d25f f63d f866 8fbe 2d31 0d3d 08b9 3d3d
00000040: 0cf8 03be 59e5 60bc 74ff 4fbe ec0f e7bd
00000050: 0ddf ee3d 1380 29be c0ea bfbc 8793 5cbd
00000060: ed9a e83d 025e 29be e13b d8bd 4b4d 0d3e
00000070: 975e dc3d 547d 623d 5052 303e c0eb 893d
00000080: 6613 07bb 8c28 2dbe 5781 0f3d 8e0b 913e
00000090: 31ba 0abd 8408 a7be e7fd b73d c52b f83d
000000a0: 3859 e0bd 1237 bfbd be5d 59be f720 4fbe
000000b0: d229 1c3b 5611 97bb b137 e8bd fc7f a13d
000000c0: cdb9 653e c87e 5c3e 50a1 b6be 84f4 63bd
000000d0: 82fb 17bc 21a5 eb3c fb49 ddbe 36a6 3b3d
000000e0: e1ac 0a3e ec5b 7ebd 6dfa 3fbe 16b9 733e
000000f0: 03c0 2e3e 52e9 593e 282a 9cbd d2e5 51bd
00000100: 3ac7 e53e 7e27 62be d079 db3e 526c 22bf
00000110: 49b7 933e 1b83 a6be 6379 29be 5472 bbbe
00000120: 4090 96be cc37 d2be 272e a7bd e8df a3be
00000130: f294 cabe fb1f 9e3e 8d60 40be c22a 833e
00000140: 993f a23c de84 403e 3f98 7e3e 1d97 a9be
00000150: ef2b ecbd c337 683e 9f65 bdbe 7e81 12bf
00000160: 5f41 603c f572 82be a60b 073f 777d 103f
00000170: 507f 653e 8aac 9a3e eb89 bbbe 6577 9fbe
00000180: 1063 713e dd36 ed3e 65f1 b8be a181 f2be
00000190: 0ad8 b2be 6cb6 e03c 922d 813e bd69 cebd
000001a0: 8ad0 bdbe e302 a33e 1b7f 9cbe bc3b ca3e
000001b0: aba6 563e a8d6 863e 5629 073f 5835 8dbe
000001c0: 8c2e 0dbf e3fe b2be 6580 a73d 643e 45be
000001d0: 4ef6 cf3e 1c2a f2be 4949 cd3e bbb5 99be
000001e0: cdbd 763e fb51 c33d 1c76 afbb 77f9 b3be
000001f0: b515 713e 4907 bebe 8bf1 26bf f7e4 14be
00000200: eddd 01bf a07f 963e 0096 e9be 93c8 b83e
00000210: 0ebe 89bb 6d9a 8b3e b555 6e3e 68be d33e
00000220: b8e4 053e 55e4 913e f14e 913d 0a8b aa3e
00000230: 5ab9 613e e146 a4bd 0570 8b3e 1bff a9bd
00000240: 622c b33d ed74 2dbe ed0f efbd 12d1 bd3e
00000250: 846c 82bd 82fe ab3d 1b3e f83e dfeb f03e
00000260: f65e 41bd 1fb8 6b3e 3e14 10bf e6fb 3cbf
00000270: 9450 7fbe 5203 0bbf f2d5 583e 4ee1 593e
00000280: 8763 2dbe 6dd1 6bbe a593 973e 8c33 3b3e
00000290: 1e00 973e df69 bb3e 6b28 41be e65a 5fbe
000002a0: 933c d93e a995 86be f79d c23e 663e d2be
000002b0: b84f 96bc 0862 28bd b5b5 00bf d2b8 b93e
000002c0: 4a2a 0a3e faed 703d 2071 0a3e 1f31 903e
000002d0: b2c9 91be 399b d73e 8b8c 13bd 2ef8 9c3e
000002e0: 1b27 b7be 9086 9bbc ca08 ac3d ee72 663e
000002f0: 6e0d 13bf 9581 4d3e 8036 ca3e 5dad 6a3e
0.17849286 -0.02210024 -0.053567164 0.11311469 0.041078307 0.040673494 -0.1029672 0.046281707
-0.04773678 0.043426253 -0.36627936 0.031954374 0.12029995 -0.28008246 0.034470726 0.046319038
-0.12887591 -0.013726556 -0.20312291 -0.11282334 0.11663637 -0.16552763 -0.023427367 -0.05385163
0.11357675 -0.16539767 -0.10558296 0.13799016 0.10760229 0.055295303 0.172189 0.06734419
-0.0020610928 -0.16909999 0.035035457 0.28329128 -0.033868972 -0.32623684 0.08983975 0.121177234
-0.10954517 -0.09336676 -0.21227166 -0.20227419 0.0023828638 -0.004610221 -0.11338747 0.07885739
0.22434159 0.21532738 -0.35669947 -0.05565311 -0.009276273 0.028765263 -0.43220505 0.045812808
0.1354251 -0.062099382 -0.18747874 0.23801073 0.17065434 0.21280411 -0.07625228 -0.051244564
0.4487856 -0.22085378 0.42866373 -0.63446534 0.28850773 -0.325219 -0.16550212 -0.36610663
-0.2940693 -0.41058195 -0.081631 -0.32006764 -0.3956676 0.30883774 -0.18786831 0.2561856
0.019805716 0.18800685 0.24862765 -0.33123103 -0.11531817 0.22677521 -0.36991593 -0.5722884
0.013687461 -0.2547833 0.5275215 0.56441444 0.22411847 0.30209762 -0.3662866 -0.31145778
0.23572946 0.4633092 -0.3612167 -0.47364524 -0.3493045 0.027430736 0.2523008 -0.10078762
-0.37073165 0.3183814 -0.30565724 0.394987 0.20962016 0.26335645 0.5279745 -0.2757976
-0.5514915 -0.34960088 0.08178786 -0.19262081 0.40617603 -0.47297752 0.40094975 -0.30021462
0.24095841 0.09537121 -0.005354656 -0.35151264 0.23543437 -0.37114933 -0.65212315 -0.14540468
-0.50729257 0.29394245 -0.45622253 0.36090526 -0.0042035645 0.27266255 0.23274882 0.41356206
0.1307553 0.28494516 0.07095135 0.33309203 0.22043362 -0.080213316 0.27233902 -0.08300611
0.087487 -0.16939135 -0.116729595 0.3707357 -0.06368354 0.08398153 0.48484883 0.47054955
-0.047209702 0.23019455 -0.5628089 -0.73821867 -0.24933082 -0.5430194 0.21175364 0.21277353
-0.16932498 -0.23029108 0.2960483 0.18281382 0.29492277 0.3660421 -0.18863074 -0.21812019
0.42429027 -0.26286057 0.38011143 -0.4106323 -0.01834856 -0.041109115 -0.5027726 0.3627382
0.13492694 0.058820702 0.13519716 0.28162476 -0.28474194 0.42110613 -0.036022704 0.30658096
-0.35772023 -0.018985063 0.08400114 0.2250478 -0.5744237 0.20068963 0.39494705 0.22917695

actor.2.bias f4 [3]
00000000: fb3b e13d 825d 8d3d 98e6 2a3d
0.109977685 0.06902601 0.041723818

critic.0.weight f4 [64, 64]
00000000: 99ec e53d 896d 76be 2388 503e 2a0d 8cbe
00000010: 8643 31be ea2a a43d 15e8 ea3d b276 1a3e
00000020: 9b01 7ebe f6b0 363e 9802 02be 6861 db3c
00000030: 4e6a a6bd 74a4 4a3e 6f53 983d 0d5b 193e
00000040: 2925 0fbe d51a 0dbf 418b d1be 9d1c acbe
00000050: 72f1 0a3e 8ee1 953e 3684 9ebd e1dd 283e
00000060: c2f8 aa3e 035d 82be 7fd1 5ebe 9a9d 5b3e
00000070: b826 a6be ee82 20bf 467f 79bd b082 0b3e
00000080: 306a f13d 70d2 04be c1a4 033d f235 dd3d
00000090: 6e1d 2fbe 375b 22be cd2c bd3d 172e e9bb
000000a0: 2da6 cf3c e0a2 5c3e 22cf 7b3d 41d9 303e
000000b0: dc32 553e 9dde 0dba 73bf 543e 8fa7 913d
000000c0: 58b1 b73d b429 d73d 23a5 4cbd 4593 043e
000000d0: 3032 643d f6c8 973e 98fb e53c dae9 083e
000000e0: e7b5 823e 20f3 a13e 1d15 00bd 4ea7 22be
000000f0: 68ef a03d 5da9 8b3e f071 e73d 589f dcbd
00000100: ba1a 203d e6a1 4bbe 0af2 6e3e 5572 c7be
00000110: 328c a7be 6315 c43d d38e 763e 6725 e63d
00000120: 6e30 42be 77cf d03d 59ff dabd 7138 033e
00000130: a72d 6f3d 5b4d 6b3e 7ade ba3d d32a 4e3e
00000140: 0293 e5bc 39d4 d1be 1245 babe 48f9 6bbe
00000150: 166f 253e 2889 583e 500b f03d 44d6 123e
00000160: 1ed5 a33e 09c7 d8bd 253d 02be 6e4d a53d
00000170: 1933 a8be 1f30 23bf c86f 20be d479 d93d
00000180: eb5a 743e 4bbf 473c 4c37 843d a500 093d
00000190: bef1 7ebd 1f93 71be 5c1a 693d 0a89 35be
000001a0: 80f8 4f3e af83 823e 2955 1c3d da9a 2e3d
000001b0: e955 573e ae61 c13c 0954 543e e819 033d
000001c0: 5473 8d3e 5780 ba3d b971 e03d aed3 52bd
000001d0: bdff 1e3c 4da0 593e f6eb 863e 9572 8b3e
000001e0: e2f7 393d 0cc2 d33e 6f1c b7bd af1d 9bbe
000001f0: e680 123d a1eb 753e 25d0 853e f0eb abbd
00000200: fbcf 943e 40de 59be fd2b 563e 3964 a9be
00000210: cff0 88be 0163 0b3e 4975 243d 943c 953e
00000220: 75d7 f5bd 0c01 873e 4377 50be be23 e83d
00000230: d7e2 c23d 5824 da3d 265f a439 7f91 693e
00000240: 5cc7 bdbd d8d8 cdbe 61cb 8bbe f3b3 9dbe
00000250: 960e 643e 921f ad3e 2f1d fd3b 8107 7b3e
00000260: c2b0 a33e 562d d3bd dac3 0cbe 3d55 9e3d
00000270: 9622 85be 9410 1bbf 9922 51bd 24b8 3f3e
00000280: edf8 6a3e 665d 4dbd e3b3 0b3e 6586 493d
00000290: 4c69 a2bd 6dc6 e6bd e3fc 9f3d 1e67 49be
000002a0: 9ce1 3a3e 71aa e43d 1394 4b3e 548d fd3c
000002b0: 69fb 713d 362d 96bd 1b16 b93e 9192 f93d
000002c0: b1c8 a53e 0e17 5c3e fffe 433e 78da 223e
000002d0: a44f 603e 6b87 e53e bb96 033e ffad 1b3e
000002e0: d10b 623e e0bb e03e a36a 77bd 8033 94be
000002f0: 17f7 dfbd 1eab eb3d 0192 5b3e 3922 edbd
00000300: 918f 0c3e a770 383e da15 693e 705a 0f3f
00000310: b367 293f 8dda 703e 7589 353e d8e4 13bf
00000320: 539c 283e 6724 123d a655 3f3e bf32 d13d
00000330: 3cfc adbd 1138 093d b911 a4be 0e68 8ebd
00000340: de45 ed3a bc66 4cbe 4f49 093f 962f d13e
00000350: fa43 b43d 17c3 2c3e 6a0c 3d3e 87b3 a6be
00000360: 7f2e cdbf dee0 82be 1a4e c1bc 713b bebe
00000370: 1f2c 8b3e 9d9d 493f 28a1 253d 8ef2 d5be
00000380: 5912 b5be 0fae 2f3e 69bb e83d 2a93 73be
00000390: 3917 af3e 839b 673e b5f7 68bd 677d 953d
000003a0: fd30 5dbd fab3 923d ceb8 3ebe 85d5 80be
000003b0: 06c7 5e3e 66d5 853e 4305 e4bd 544b abba
000003c0: 97ac 65bd 8ac2 e2be db37 6d3e 5978 493e
000003d0: 5de4 583e fd03 a73c 845b 28bc fb05 30be
000003e0: 0d94 0b3e 20ad 42be f0f5 0a3e 754c aabe
000003f0: f3ec 8bbd c057 a3be 41c6 f8be 9dee 953d
0.11226768 -0.24065222 0.20364432 -0.27353793 -0.17310914 0.08015998 0.114700474 0.15084341
-0.248053 0.17840943 -0.12696302 0.026779845 -0.08125745 0.19789296 0.07437789 0.1497614
-0.13979019 -0.5511907 -0.40926555 -0.3361558 0.13568667 0.29273647 -0.07740061 0.1649089
0.33392912 -0.25461587 -0.21759604 0.21446839 -0.32451415 -0.6269978 -0.060912393 0.13624072
0.11787832 -0.129709 0.032139543 0.10801305 -0.1710107 -0.15855108 0.09237061 -0.00711609
0.025347793 0.21546507 0.061476834 0.17270376 0.20820183 -0.0005411895 0.20776157 0.071120374
0.089693725 0.10506001 -0.049962174 0.12946804 0.055711925 0.2964551 0.02807407 0.13370457
0.25529405 0.31630802 -0.031270135 -0.15884134 0.07858163 0.2727765 0.11301029 -0.1077258
0.03908799 -0.19885978 0.23334518 -0.38954416 -0.32724148 0.09574392 0.2407792 0.11237603
-0.18963787 0.10195821 -0.10693235 0.128145 0.058393147 0.22978728 0.09124465 0.20133524
-0.0280242 -0.40982226 -0.3638082 -0.23044312 0.16155657 0.21146071 0.11720908 0.14339548
0.31998533 -0.10584838 -0.12718637 0.08071409 -0.32851484 -0.637453 -0.15667641 0.1061894
0.23862807 0.012191604 0.064558595 0.03344788 -0.062242262 -0.23591278 0.056909904 -0.17728058
0.20309639 0.25491092 0.038167153 0.042628147 0.21028866 0.023606148 0.20735182 0.032007128
0.2762705 0.0910651 0.10959191 -0.051471405 0.009704527 0.21252556 0.263519 0.27235857
0.045402415 0.41358984 -0.0894097 -0.30296084 0.03576746 0.24015667 0.26135364 -0.08394611
0.29064927 -0.21276188 0.20915218 -0.33084276 -0.26746222 0.13611986 0.040150914 0.2914778
-0.12003986 0.26367986 -0.20357995 0.11334942 0.095159225 0.10651463 0.0003135141 0.22809409
-0.092665404 -0.402045 -0.27303603 -0.30801353 0.22271189 0.3381315 0.007724426 0.24514581
0.31970793 -0.103113815 -0.13746586 0.07731102 -0.2600295 -0.6057217 -0.051058386 0.18722588
0.2294652 -0.0501379 0.1364284 0.049200434 -0.0793024 -0.112683155 0.07811906 -0.19668242
0.18250126 0.111653216 0.19880705 0.03095118 0.059077654 -0.07332842 0.36149678 0.121861584
0.32379678 0.2149317 0.19140242 0.15903652 0.2190538 0.44829878 0.12850468 0.15203093
0.2207482 0.43893337 -0.06040443 -0.2894554 -0.109358005 0.115072474 0.21442415 -0.11578793
0.13726641 0.18011723 0.22762242 0.5599737 0.6617386 0.2352087 0.17728217 -0.5777106
0.16465883 0.035679247 0.18685016 0.10214757 -0.084953755 0.033500735 -0.3204477 -0.069534406
0.0018102487 -0.19961065 0.53627485 0.40856618 0.08802028 0.16871296 0.18461767 -0.32558843
-1.6029814 -0.25562185 -0.023596812 -0.37154725 0.271821 0.78756124 0.040436894 -0.41786617
-0.3536556 0.17156242 0.11363871 -0.23786607 0.34197405 0.22617917 -0.056876857 0.07299309
-0.054001797 0.07163234 -0.18625185 -0.25162902 0.21755609 0.26139373 -0.11133816 -0.0013068714
-0.056072798 -0.44289047 0.23165838 0.19674815 0.21180864 0.020387644 -0.010275725 -0.17189781
0.13630696 -0.19011354 0.1357038 -0.33261457 -0.06832304 -0.31902885 -0.48588756 0.073209025

critic.0.bias f4 [64]
00000000: 64ee a43e 9cd7 893e e333 993e 8a83 db3d
00000010: ee1f b8bd 3f78 043e aefb 863e ec6d 293e
00000020: edc2 2c3d 635d 1b3d 1f32 4ebd 7e74 a43e
00000030: 5fbc 463e 58a9 9b3e 75ee 6dbe a0cd 683e
00000040: f2b2 4abe 9a38 053e ce5a 953e 1699 bc3e
00000050: 5bac a73d 7091 e6bd e3ca 823e 1f69 ab3e
00000060: 60ba 243e 0323 1d3e fc2d 573e 7f4a 333e
00000070: cc00 873e c212 c43e 449c a33e 6bf4 45be
00000080: 6dcd c4bd 6012 ae3e 601f 0fbd 616c 4b3e
00000090: 41aa 29bd a586 50bd cf48 063e d3da a0bd
000000a0: 407c a63e f029 123e 4f6e db3c 46d1 9e3e
000000b0: 1a21 663e 2a44 10be fe78 00bd 867c 3cbe
000000c0: ef17 9abd 53b5 0e3e 14cf 253a 199f f6bd
000000d0: f643 20be 53d2 8d3e 491d a03e 5b5b 263e
000000e0: e6f8 44bc 9933 9c3e 8241 b93c 541d ac3e
000000f0: f7ee 933e fc4a 84bd 9a53 0d3e c556 2d3e
0.32213128 0.2692231 0.299224 0.107184485 -0.08990465 0.12936495 0.2636389 0.16545838
0.042178083 0.037930857 -0.050340768 0.32120126 0.19407795 0.30402637 -0.23235495 0.2273469
-0.19794825 0.13009873 0.2917084 0.36835545 0.08187171 -0.11258209 0.25545415 0.3347864
0.16086721 0.15345387 0.21013635 0.17508887 0.26367795 0.3829556 0.3195516 -0.1933152
-0.09609494 0.33998394 -0.03494203 0.19865562 -0.041422132 -0.050909657 0.13113712 -0.078542374
0.3251667 0.1427381 0.026785998 0.31019038 0.22473565 -0.14088503 -0.031365387 -0.18406877
-0.07524096 0.13936357 0.00063251075 -0.12042064 -0.15650925 0.27699527 0.31272343 0.16245787
-0.012022233 0.30508116 0.022614244 0.33616126 0.28893253 -0.06459615 0.13801423 0.16927631

critic.2.weight f4 [1, 64]
00000000: dbe9 be3e dab6 a93e aac8 8a3e ff50 2abf
00000010: d9f6 9ebf 9250 45bf af1a fc3e 8c3f 823e
00000020: ea27 50bf 3936 ccbf 8b80 bebf 39de a13e
00000030: 720c d23e 8ea5 903e f8ac b2bf 63f0 ba3e
00000040: d907 77bf 1a60 dbbf 1b59 c13e d95c d03e
00000050: ed6f c9bf 817c 88bf 2a1d b93e a2ca d03e
00000060: 14f4 dc3e b5c9 b43e 68ce 9c3e c66e 9b3e
00000070: 129e 8a3e d6d7 913e 332f b73e 0e91 9bbf
00000080: 88ca 42bf d62e 963e 4b4f 80bc e434 c13e
00000090: 9c62 a0bf 04bc bfbf f51b eebf cfcb 50bf
000000a0: f25c 8f3e 75c1 c0bf cdfa c0bd b976 893e
000000b0: f0c3 b63e 27c8 b9bf 969f 77bf 3f80 10bf
000000c0: 340b 213f 980a c03e 21eb b8bf 27d7 bbbf
000000d0: 95aa 94bf ebfc bf3e d55d b13e 5c8c 983e
000000e0: 69d2 8cbf d7d3 be3e 9aa6 00bf 50fd 8c3e
000000f0: 03e3 a43e b584 babf f46f cebf 880f a43e
0.37287793 0.33147317 0.2710622 -0.6652984 -1.2419082 -0.77076066 0.49239108 0.25439107
-0.81310904 -1.5954047 -1.4882978 0.31614855 0.4102512 0.28251308 -1.3959036 0.36511526
-0.9649635 -1.7138703 0.37763295 0.40695837 -1.5737282 -1.0662996 0.36155063 0.40779597
0.43154967 0.3531014 0.30626225 0.3035795 0.27073723 0.28484982 0.35778198 -1.2153642
-0.7609029 0.29332608 -0.01566281 0.37735665 -1.2530093 -1.4979253 -1.8602282 -0.8156099
0.280006 -1.5059038 -0.094228365 0.2684839 0.35696363 -1.4514207 -0.96727884 -0.5644569
0.6290772 0.37508082 -1.4446756 -1.4675034 -1.1614558 0.3749765 0.346419 0.29794586
-1.1001712 0.37270996 -0.50254214 0.27537012 0.32204446 -1.4571749 -1.6127915 0.320431
