models/ppo_trading_model_aapl.pt (torch, 40522 bytes, 9 tensors)

shared.0.weight f4 [64, 7]
00000000: 065f 3e3e 9e5a 843e c132 7e3c d6e6 c23e
00000010: f1e0 a13e 09bc 903e c4e3 e2bd 064c d43e
00000020: ab6b a83e ce3a 00bf 8cd9 e53e d11e 813e
00000030: b3f0 353e c7ca 753a 3a3b 083e a63a b9bd
00000040: d5f7 8d3e 25d0 913d 6950 27bf 7786 683d
00000050: f227 75be 5340 b53d 1663 6a3d 2e7e f13e
00000060: 620d fcbe 2940 c6be eff2 e3bd 32a0 86bd
00000070: 69ea 143e 14a3 e3be a246 083f 243f c1be
00000080: c463 ba3e 73b5 ca3d 51f4 0bbf ede2 0b3e
00000090: 557b e33d b6a0 f03e 346b 053d e227 15be
000000a0: 22cc 9bbb 455f 33bc f319 083e 773a ce3e
000000b0: f30e 0b3f dbdb 90bd 248e da3e d113 f83d
000000c0: c322 cd3e 4d4d 9cbe 82b9 f0be 423a 2cbe
000000d0: 5864 9cbe 6842 db3e 84f0 c53e f5d0 993e
000000e0: dd08 813e 1f46 043e 1eaf bf3e 232d 74be
000000f0: 09d2 6b3d 4ac3 7abe f26d ffbb fef0 70be
00000100: 30c0 163d 76fd 03be 92e8 e83e 4b81 33be
00000110: 572d 0e3d 307f 88bb 0f63 813e c378 d83d
00000120: fde8 bd3e 769a fbbe 0741 41bf ae9d 15bd
00000130: c5ad 78be fcbf fb3d 30b8 073e 1f48 ab3e
00000140: cb3f aebe a24c 3cbf 8748 35bc ebeb 01be
00000150: abad 9e3e dcfc 4e3e fde8 0b3f c07d 09be
00000160: d9cd a2be 9d30 bdba ee9f 2fbd 25cf 7ebd
00000170: 0e61 d63e 0610 f93e cd99 91bd 2635 dfbd
00000180: 4e7e 983e c1b0 033c d045 79be 4886 02bf
00000190: a5e5 12bf 20d3 633e becf 9a3e a305 21bd
000001a0: 0aaa 213d 2b87 b6be 4e87 ebbe 3017 ffbe
000001b0: a6da 56be 64c4 67be 837a f83e 6cd0 2fbe
000001c0: 274b 543c 76cd 01bf 8a52 03bf ff27 1abe
000001d0: ded8 bf3e e73b 4cbe 3c17 0dbe 8aa1 c3be
000001e0: 4f08 27be 98f4 fdbe 4495 913d d2c7 a0be
000001f0: f762 0bbd 70e4 b9be cb7a 6f3e 12a4 21be
00000200: 2581 ab3e 14da d73d ed80 0c3f 5e4f b63d
00000210: 9880 dc3c a17c bb3e 69a9 943d 90a2 293d
00000220: cc40 d8be bb41 dfbe 7f5b 623e 281d 52be
00000230: b8e7 04bd 90b2 d0be e85f c53e 185d a8be
00000240: aa7c 0dbe 1a53 323e 89b2 b73e 60c3 893e
00000250: ff8e ca3e 54b9 77be 27df 98bd fc4f 573d
00000260: 2a63 f83c 8399 4bbe 7335 5c3e 52ba e5be
00000270: 5ed4 e33d 639d 2d3e 78bb 123e 3787 b0bd
00000280: 9c6e df3e b68e a4bd 69fe b0bc ca9c dbbe
00000290: 557f b43e 7bc1 053d 8096 8c3d 2342 fa3e
000002a0: 2ac2 ed3d 537f 91be 5a75 19be c4f1 75bd
000002b0: 20e4 f23e b0da e6b8 e12a 3ebe c6ba 6fbe
000002c0: 0e3c 9dbe 7d96 c53c d53b 2c3e 7270 4cbf
000002d0: 0425 773d 6b26 6e3e 82e3 8cbe 986e e9be
000002e0: 172c 9abe 57a9 803d 33ef 903e a577 273d
000002f0: 310c bdbd b29a 53be 547f 9abe 9fef b4be
00000300: 6a84 ad3e d3cb fd3e b0b7 adbd 979c 8fbd
00000310: 9aaf 10be e4a2 e0bc 167a 07bd ac01 b43e
00000320: adbf 22bf cb31 a23d 94f9 5c3e c6e0 053e
00000330: 7833 7cbc b7df 99be 3945 86be e858 25bf
00000340: 17ee ebbc dfc6 d03d 1da6 a33e ac6e 963e
00000350: f29b 5dbe 7bee 04be faa5 2fbe 93f4 363f
00000360: 6718 0a3e ae7b 30be 5182 dd3c b3d8 12be
00000370: fe82 48be 3577 0b3f 19c4 893d 1d80 b33c
00000380: 2d3f 06bf 7da1 273e 200a 7e3e bc3d a13e
00000390: da90 02be 6546 7fbe 11a2 8ebe 80d8 fa3e
000003a0: 9b01 483e 5d12 2d3e cf07 d53e 5e4d af3e
000003b0: 5276 ce3c 65d3 14be 51f6 cebe 4c8a eebe
000003c0: 51f3 dcbd 402d 57bd 1514 6fbd f74f bcbe
000003d0: 7704 aebe 3921 adbe bfbf c0be 0fe0 b23d
000003e0: dbd4 283e 2f3d f83e 849c 80bc 9c91 93be
000003f0: 3e84 84be 6bcd cbbe 4e35 d4bd c78f 29bf
0.18590936 0.25850385 0.01551503 0.3806674 0.3161693 0.2826846 -0.11078599 0.4146425
0.32894644 -0.5008973 0.44892538 0.25218824 0.177676 0.00093762245 0.13303843 -0.090443894
0.27728143 0.071197785 -0.6535707 0.05676886 -0.23941019 0.088501595 0.057223402 0.4716658
-0.4922896 -0.38720825 -0.1113032 -0.065735236 0.14542545 -0.44460356 0.5323278 -0.37743485
0.3640424 0.0989789 -0.5466967 0.13660784 0.11107508 0.46997613 0.03257294 -0.14565995
-0.004754559 -0.010948007 0.13291149 0.4027898 0.54319686 -0.07073184 0.4268657 0.12113155
0.40065584 -0.30527726 -0.4701653 -0.16819099 -0.30545306 0.428241 0.3866006 0.30042234
0.25202075 0.12917374 0.3743829 -0.23845343 0.057573352 -0.2448856 -0.007795089 -0.23529431
0.036804378 -0.12889656 0.45489937 -0.1752979 0.03471121 -0.0041655526 0.25270888 0.105699085
0.37091818 -0.49141282 -0.7548985 -0.03652733 -0.24285038 0.122924775 0.13253856 0.33453462
-0.34033045 -0.7355443 -0.011064655 -0.12687652 0.30991873 0.20213646 0.54652387 -0.13426876
-0.31797674 -0.0014434044 -0.04287713 -0.062209267 0.41870922 0.48645037 -0.07109413 -0.10898809
0.29783863 0.008037747 -0.24343038 -0.50986147 -0.5738166 0.22248507 0.3023662 -0.039312016
0.039468803 -0.3565 -0.46001667 -0.49822378 -0.20981845 -0.22633511 0.4853097 -0.1716935
0.012957371 -0.50704134 -0.5129782 -0.1505432 0.37470144 -0.19944726 -0.13778394 -0.38209182
-0.16311763 -0.49600673 0.07108548 -0.3140245 -0.034029927 -0.36307096 0.23386686 -0.15785244
0.33496967 0.10539642 0.54884225 0.08901857 0.026916787 0.36618522 0.07258875 0.041414797
-0.42236936 -0.43604836 0.22105215 -0.20518935 -0.032447547 -0.40761232 0.38549733 -0.32883525
-0.13817087 0.17414513 0.358784 0.26906872 0.39562222 -0.24191791 -0.07464438 0.052566513
0.030320723 -0.19882779 0.21504764 -0.44868714 0.1112449 0.1695457 0.14329326 -0.0861954
0.43639076 -0.080350325 -0.021605687 -0.42893058 0.35253397 0.03265522 0.06864643 0.48878583
0.116092995 -0.28417453 -0.14986172 -0.06004502 0.4743967 -0.00011007988 -0.18571045 -0.23411092
-0.3070988 0.02411961 0.16819699 -0.7985908 0.060338035 0.23256843 -0.27517325 -0.4559219
-0.30111763 0.06282299 0.28307495 0.040885586 -0.09230841 -0.2066448 -0.3017527 -0.35339066
0.33890086 0.49569568 -0.08482301 -0.07012289 -0.14129487 -0.027421422 -0.033075415 0.35157526
-0.63573724 0.079196535 0.21579581 0.13074026 -0.0153931305 -0.30053493 -0.26224688 -0.64588785
-0.028800054 0.10194182 0.31962672 0.2938131 -0.2164152 -0.12981598 -0.17153159 0.7146694
0.13485871 -0.1723468 0.027039679 -0.14340477 -0.1958122 0.5447877 0.06726856 0.021911675
-0.5244015 0.16370197 0.2480855 0.31492412 -0.12750569 -0.24929197 -0.27858022 0.489933
0.19531862 0.16901536 0.4160752 0.34238714 0.025202904 -0.14533766 -0.404223 -0.46589887
-0.107885964 -0.05253339 -0.05836876 -0.36779758 -0.3398778 -0.3381441 -0.3764629 0.08734142
0.16487448 0.4848418 -0.015699632 -0.2882203 -0.25882143 -0.3980516 -0.103617296 -0.6623501

shared.0.bias f4 [64]
00000000: cca4 fe3e 6ce1 04bf a1d6 303e ca30 c5bc
00000010: 14dd 7ebe e9a5 c53e 5168 ee3e d595 293e
00000020: c2db a7be c658 343f 02c1 6d3e 1c20 5a3d
00000030: 547c c23d 3292 ca3e 0a2c 4b3d 5f86 e3be
00000040: 7a80 fa3d c953 e7be 84e4 e7be 6987 20be
00000050: 51eb 443f b6d4 b13e e8f5 273f aff4 083f
00000060: 25f1 0c3f 7d09 f3bc 507c a5be 7f56 d43e
00000070: 0cc2 fdbd cb65 bcbe f888 18be 75f0 d63e
00000080: e492 243f 4224 96be 1b7b e4be 806c 2c3e
00000090: 1fce 9d3c f636 2bbe e564 bd3e 7e98 a7bd
000000a0: 23b5 483f 84a6 063f bc06 313e bd01 053f
000000b0: 5329 043f 72ed ba3e 16e6 a7bd abd5 e23d
000000c0: 97ab f03e a67c c63e 15a5 bd3d d895 513d
000000d0: 0451 54be 5ffc 20be ceda c83e 5a38 043f
000000e0: 89bd eb3e b567 0f3f 84e9 0abf ef4b 84be
000000f0: 03e8 21bd 4576 8cbc a12d 22bd 1c67 95be
0.49735105 -0.51906466 0.17269374 -0.024071116 -0.24889022 0.38603142 0.46563962 0.16561063
-0.3278485 0.7044796 0.23218158 0.053253278 0.0949637 0.39564663 0.049602546 -0.44438455
0.12231536 -0.4518111 -0.4529153 -0.15676655 0.76921564 0.34732598 0.656096 0.5349836
0.5505546 -0.02966761 -0.32321405 0.4147224 -0.12390527 -0.36796412 -0.14896 0.4198033
0.6428664 -0.29324538 -0.44625172 0.16838264 0.019263325 -0.16720185 0.3699104 -0.081833825
0.7840139 0.5259783 0.17287725 0.5195578 0.51625556 0.3650928 -0.08198182 0.1107591
0.47005913 0.38766974 0.092600025 0.051168293 -0.2073403 -0.15721272 0.39229435 0.51648486
0.4604304 0.5601762 -0.54262567 -0.25839183 -0.039527904 -0.017146239 -0.039594296 -0.2918023

actor.0.weight f4 [64, 64]
00000000: ae8e 4e3c 1962 82bd fc0b ae3c c4f7 9f3d
00000010: 1c68 583e af22 6fbe 1190 b93d 57aa 293e
00000020: 7926 5fbe 2459 b2bc b271 ff3d a762 873e
00000030: 52fd d13c 4963 a9bd 75ae 833d 789c febc
00000040: ba67 8a3d 2dc9 6fbd b3b6 00be 7e17 183e
00000050: 9a98 973d baf8 c4bc c0bb 773d bcf7 ba3c
00000060: 5874 ad3d 99cc 2bbe 47d2 53bd 2166 8b3e
00000070: 3c90 e9be 65f7 dc3b 04b0 403e c57e be3e
00000080: 320e 213d d30b 40be 1cea 8a3d babb 013f
00000090: dfb9 b13e 640a 0bbf c996 393e 8c75 e93d
000000a0: ea51 b7bb 6b2e 12be db55 09bd aecc 5c3e
000000b0: 8a77 26bd addd b4bd 91c2 a93c a018 b13e
000000c0: 60e8 623e 1eff be3d 92f7 783d 9d98 a33d
000000d0: 3399 603d 0692 b2bc 1665 e5bd 08bd ccbd
000000e0: 8a12 71be 2ad3 9a3c 4adc b9bd 2d8b c3be
000000f0: a58c a13d e5ce f33d 3a18 ec3d eb5d 5bbe
00000100: 600b fcbc 0258 03be e044 44be 5480 87be
00000110: 064b b43e 5337 81bd 2635 d83d 0a42 803d
00000120: ca3a 20be 0947 d23c 5994 0ebe fb22 73bd
00000130: 5b2f 1e3e 9f41 853e 41f0 c23d 453a e73d
00000140: a1cf fbbb 32b4 a23d 7740 efbd 4a42 69bd
00000150: 2d85 ce3d 8ad8 39bd 985f c03d 9c3e 91bc
00000160: db55 c6bd a25f 223e f26f 39be 8cc6 6dbe
00000170: d327 29bd 7bd8 7a3c 5722 aa3d 04c3 2bbc
00000180: 0758 4c3d 2510 bc3d 698b 6c3e 8121 a3be
00000190: e7a5 0dbd c0e7 f73d e345 fc3d 4bf8 653e
000001a0: d793 103e 6d63 e9bd 6da2 f33a 4312 2c3e
000001b0: 674f 383c baf4 90bd 755d 34be 7a46 873c
000001c0: 36bc 683c 0ea9 3dbd ee1f d3bd adac edbd
000001d0: a3ba 20be 6351 363e 78c3 c73d ff94 b2bd
000001e0: 2218 043e 19d1 a53d 2cc3 ca3b ae45 27be
000001f0: b4f8 61be 7ac5 abbd 1d00 2bbe f19b a5be
00000200: 9ed6 8d3d 6e7e 0a3e bb2d 393e f05f 233e
00000210: 77ea 79be c714 c9bc 6104 6b3d 0736 3f3e
00000220: 3a8d b23d a666 d7bd 23f0 e23d 996e c83c
00000230: c51c 133e 24d3 963d c34e 813d bb43 163e
00000240: 4e2f e8bc b11d 22be 62bb a93d 855a 1d3e
00000250: 8e71 a8bd f3ee 8fbc 51ed f4bd 4aca 2d3e
00000260: d05f 823d 8187 b1bc d374 683e 2e93 da3d
00000270: 62e6 4a3e b0b6 ccbd a056 ce3d 6762 1f3e
00000280: 6de1 6e3c 6e15 e93d 039f 68be 8eec 9f3e
00000290: a159 c53d e439 4a3e 280a cfbd b877 16be
000002a0: dc06 0ebd f05c 14bd b0c8 0ebd 4c95 043e
000002b0: b5cf 933d 622f 083e bb0a 54be 06a3 e4bb
000002c0: ee10 34be f45e 5cbd d3fe 213e fd9d 863e
000002d0: 3968 203e ba6e c83d 8c19 5e3c e5e2 b23d
000002e0: 5592 0c3e 574a 383d efdf 6abb cbf0 5f3d
000002f0: c402 8a3e 11b2 f03c 7811 9f3d c042 c83c
00000300: 2c1c d63d b7d7 88be 295a 203d 206e 58bd
00000310: 334d 083e 75be ea3d 3bc1 f53d 9e46 473e
00000320: 98af 843d 6d49 3ebe ac0a 5f3d 03cf eb3c
00000330: 1b78 193e 43fd 2a3d 98a5 f4ba 3896 163e
00000340: e20d 14bd 4015 bc3d 4da1 12bb 13c3 de3d
00000350: 1acf 843d 9a42 233e 1401 ef3d 6f71 d5bd
00000360: 22c6 2fbe a394 cc3d f138 923d 31b4 85be
00000370: 1dba 26be 849d 73bc c79a 8f3e de65 583d
00000380: 2a90 b4be ef44 35be 668c 323d bcb3 34be
00000390: 63a8 263c fb10 4abd adbe 20bd da46 af3e
000003a0: 2387 8fbd 51d2 f0bc 2165 363e e69b 03bd
000003b0: 0008 7b39 7809 103e f2ee b8bc bd60 ac3d
000003c0: 830a 93bd 9c5e 353d 1c21 b33d 2db5 75be
000003d0: 8d57 c2bc 5e68 fd3d eb19 e73d f73f 843d
000003e0: a7b3 fb3b 4137 f1bc a592 853d 69dd debd
000003f0: c3ca 3cbe e94a ef3d 41ed ae3d 1a8d 5ebe
0.01260726 -0.06366367 0.021245949 0.078109294 0.21133465 -0.23353074 0.090606816 0.16568886
-0.2179202 -0.021771021 0.124728575 0.26442453 0.025633488 -0.0827089 0.064297594 -0.03108047
0.067580655 -0.058541466 -0.12569694 0.14852712 0.07402153 -0.024044383 0.060481787 0.022823207
0.084694564 -0.16777267 -0.051714208 0.27226356 -0.45617855 0.006743359 0.18817145 0.37206092
0.03932018 -0.1875451 0.06782934 0.50677073 0.3471212 -0.5431273 0.18123926 0.113993734
-0.0055944817 -0.1427552 -0.033529144 0.21562454 -0.040641345 -0.08831344 0.02072266 0.345891
0.22158957 0.093260035 0.060782976 0.07988093 0.054833602 -0.021798145 -0.11200921 -0.09996992
-0.23542228 0.018899519 -0.0907522 -0.3819212 0.07888154 0.119046964 0.11528058 -0.21422546
-0.030767143 -0.12826541 -0.19166899 -0.26465094 0.35213488 -0.063093804 0.10557012 0.06262596
-0.15647426 0.025668638 -0.13923778 -0.05935953 0.15447752 0.26026627 0.09518481 0.11290411
-0.0076846634 0.07944526 -0.116822176 -0.056947984 0.10083995 -0.045372523 0.09393233 -0.01773005
-0.096843444 0.15856794 -0.1810911 -0.23220271 -0.041297745 0.015310402 0.08307331 -0.010483507
0.049888637 0.09182767 0.23100056 -0.318615 -0.034582045 0.1210475 0.12318017 0.22457998
0.14118896 -0.11395917 0.0018587835 0.16803841 0.0112494 -0.07077928 -0.17613776 0.016513098
0.014205029 -0.0463038 -0.103088245 -0.11605201 -0.15696196 0.17804484 0.097540796 -0.08719825
0.12899831 0.08096523 0.006187817 -0.16335174 -0.22067529 -0.08387275 -0.16699262 -0.32345536
0.069257006 0.13524792 0.18083851 0.15954566 -0.24405847 -0.02454604 0.057377223 0.18672954
0.08718343 -0.105176255 0.11080959 0.0244668 0.14366443 0.07364491 0.06313851 0.14674275
-0.02834287 -0.15831639 0.082876936 0.15366562 -0.08224784 -0.017569995 -0.11959327 0.16971698
0.06365931 -0.021671059 0.22700815 0.106726035 0.19814447 -0.099957824 0.10075116 0.15564881
0.014580113 0.113810405 -0.22716908 0.31235164 0.09636236 0.19748646 -0.10109359 -0.14694107
-0.03467451 -0.036221445 -0.03485936 0.12947577 0.07217351 0.13299325 -0.20707218 -0.0069774417
-0.17584583 -0.05380149 0.15819864 0.2629241 0.15664758 0.097867444 0.013555896 0.08734683
0.13727696 0.04499277 -0.0035839041 0.054672997 0.26955235 0.029381784 0.07767004 0.024445891
0.10454592 -0.26727077 0.039148483 -0.0528394 0.13310699 0.11462108 0.119997464 0.19460532
0.06478804 -0.18582697 0.054453537 0.028785234 0.14987223 0.041745435 -0.0018665073 0.14705741
-0.036146052 0.091837406 -0.0022373975 0.10877051 0.06484814 0.15943375 0.116701275 -0.10422026
-0.17165425 0.09989288 0.07139767 -0.26114038 -0.16281934 -0.014869098 0.28047773 0.052831523
-0.35266238 -0.17702077 0.043590926 -0.17646688 0.010171982 -0.0493326 -0.039244343 0.34233743
-0.07008197 -0.029397162 0.17812015 -0.0321311 0.00023940206 0.14066112 -0.022574876 0.08416889
-0.07179739 0.04427968 0.087465495 -0.23994894 -0.023723388 0.12373422 0.1128424 0.06457513
0.0076813283 -0.029445292 0.06522111 -0.108820744 -0.18436722 0.1168421 0.08541346 -0.21733513

actor.0.bias f4 [64]
00000000: 13a4 c4ba 1512 85bc 3938 713a f12f 4ebd
00000010: 244d bcbd 1f2e 3e3e b1f7 813e 698e c93d
00000020: b40a c8bd 5c68 9dbd 7454 86bd b4aa 2dbd
00000030: 7498 f03c 9418 9bbd 3f10 e63d 4a64 35bd
00000040: 6fd0 e23c 0b19 b23d 629b 833d 966d 353d
00000050: 25ee 5ebd 3bb6 0cbd ac20 293e e920 623e
00000060: 7412 85bd 7dc5 43bc 9790 08be 175f 653e
00000070: ae3f e93d 6007 043e 6007 423c 8f55 273e
00000080: b38d c8bd 2019 ca3d 78d9 3c3e 8dd3 0dbe
00000090: f9d6 fc3d bfb7 e63d 2448 0fbe 0204 383e
000000a0: 9844 b93d 0483 063e c91d d03b 08e7 a2bd
000000b0: 4283 83bd a363 9ebc 6f63 2bbd 123c 463e
000000c0: b58a 053e ce4b 633d 001e a6bc 3cfb c93d
000000d0: 9b04 c73d 7325 f93c c458 09ba fce2 953c
000000e0: 9e86 163c ceea 04be 5e55 053d 766f 123e
000000f0: e2d0 5ebd a513 08bd 926d e43c 69fb f03d
-0.0015002511 -0.016243974 0.0009201798 -0.05033869 -0.09194401 0.18572281 0.25384286 0.09841616
-0.097676665 -0.076859206 -0.06559077 -0.042399123 0.02936957 -0.07573047 0.112335674 -0.044285096
0.02768728 0.08696183 0.06426121 0.044293962 -0.05442633 -0.034353476 0.1651637 0.22082867
-0.0649766 -0.01194894 -0.13336407 0.22399555 0.11389099 0.12893438 0.011842579 0.16341232
-0.09792652 0.098680735 0.18442333 -0.13850231 0.1234569 0.112655155 -0.13992363 0.17970279
0.09046286 0.13135916 0.006351207 -0.07954222 -0.0642152 -0.01933462 -0.041842874 0.19358853
0.13041194 0.055492215 -0.020277977 0.09862372 0.09717675 0.030413365 -0.00052393624 0.018296711
0.009187369 -0.12980196 0.032552116 0.14300331 -0.054398425 -0.03322186 0.027884278 0.11766703

actor.2.weight f4 [3, 64]
00000000: 89da 4b3e 285a eb3d cdfc aabd f279 6fbe
00000010: a9fd 673d a80e 3d3d 1ab1 193d 41c6 e63c
00000020: c384 80be 33ef 2fbe c028 73bd 5ab4 98bd
00000030: 0c38 b73b 951c 8cbd 3d7f 513c a156 743d
00000040: bade b6be efc0 c13d 5146 fdbd 7224 1cbe
00000050: 0d79 ae3d f940 72be ceee 093e edcb 83bd
00000060: 5d60 d73d 1d3a a4be e19f bb3c 74fd 7e3e
00000070: a3c7 473e b62e 6f3d 4e3d 833e 0934 5b3e
00000080: 4202 013e 6b04 c4bc cc17 3f3e 1196 2e3e
00000090: b8a7 6d3d 57c9 68be 89b7 053e 720a 743e
000000a0: 2650 89be 9373 853e 2dc4 c2be 44bb dbbd
000000b0: 8712 0a3d a261 8f3d b123 b5bd 00e2 f13d
000000c0: 1cc5 a03e 0884 913e 5504 d9be fb08 2dbe
000000d0: 0ea8 ea3b c0f0 b43e a797 d23d 75e3 34be
000000e0: 6d76 813d f1af aebd 57d3 0cbe 579d 8a3e
000000f0: 56af bdbb ec9e 2a3e e169 b8be 7102 4abe
00000100: 8872 853e 6f32 9bbe 3668 3f3e 0d67 2ebe
00000110: 6f06 de3e 6761 a8be 8581 9fbe 1d68 9abe
00000120: 495d ba3d 79f9 b8be 681a dcbd 3f88 ffbe
00000130: 6330 793e 8c08 af3e b478 0fbf 128c d83e
00000140: 0f72 823e a82c 3c3e 24cb 983e 3b6b acbe
00000150: 0632 d53d fdcc 7c3e 8624 b7be 2676 67be
00000160: 62cf 163d c5dd a43d b9c3 7c3b f75e 0ebf
00000170: 122e 173d 309e 813e 1234 83be 0a8f bbbe
00000180: 8342 ae3e 9411 e83e 31ba bebe 324b 943e
00000190: b429 d3be 3b99 c3bc d9de e93e 4ab4 aabe
000001a0: c3c7 a83c 6393 593d 93e1 6a3e 3eed 873e
000001b0: 0f80 bc3e 578e 1e3f e2fd a73e d0bd 57be
000001c0: 39ea 68be 5118 a13b 11c5 583e 922f 4fbe
000001d0: d7f7 aa3e b910 b7be 145c 5fbe e085 1bbe
000001e0: 7f15 563e a95a b33e 0552 083e b43e 60be
000001f0: ae06 38bd d778 33be 9d9a c9bd 3bed 213e
00000200: 8021 eebe 4795 993e a30a eabd e2ab a33e
00000210: 4bee 61be 6e54 853e e05e 823e 06ef b33e
00000220: 0fc5 24bd 0c7b f93e da67 f8bd 4f91 183f
00000230: 6010 b6be 2fa0 97be 3afc 203f 2b8c 8cbe
00000240: a676 9b3d 3e94 9abe b154 6cbe d9cd dc3e
00000250: a2be 8cbe aede f53d 638f c23e 245b a23e
00000260: 702d 6dbd 7922 0d3c aff4 d8bd aeb0 593e
00000270: 5e6a 13be 2ef3 d6be 0b32 c13d c576 2d3e
00000280: 3d3f f0be cedf efbe 55a4 783e 1b8e e2be
00000290: a016 983e eefe ce3e 0cd1 eebe ed99 d1bd
000002a0: 0755 953e f464 b1be 3723 093d 5302 9abe
000002b0: 5bf0 adbe 3dc8 0dbf 51ab 91be d712 893e
000002c0: b8af 28be 987f acbe a76d c0bc 2cec da3e
000002d0: d443 6ebe 43e1 013e 0295 293e 1b06 bc3e
000002e0: cf05 87be 2bd2 75be d644 cebd 7cd1 c83d
000002f0: 1a0e 06bd b25a 9a3c 4c95 443e 0d11 173d
0.19907583 0.11491805 -0.08348999 -0.23386362 0.056638394 0.046156555 0.037522413 0.028170707
-0.2510129 -0.17181091 -0.059365034 -0.07456274 0.005591398 -0.06841389 0.012786684 0.05965293
-0.35716802 0.09460627 -0.123669274 -0.15248278 0.08519182 -0.23657598 0.13470003 -0.0643538
0.10516427 -0.32075587 0.022903385 0.24901372 0.19509749 0.058394156 0.2563271 0.21406569
0.12598518 -0.023927888 0.18661422 0.17049433 0.058021277 -0.22733055 0.13058294 0.2383211
-0.2681896 0.2606474 -0.38040295 -0.107290775 0.033709075 0.07001044 -0.08844698 0.11810684
0.31400383 0.28421044 -0.42386118 -0.16897957 0.007161147 0.35339928 0.10282832 -0.17664893
0.06321416 -0.08529652 -0.13752495 0.27073166 -0.005788724 0.16662186 -0.3601828 -0.19727494
0.26063943 -0.30311915 0.18692097 -0.17031498 0.43364283 -0.32886812 -0.31153503 -0.30157557
0.09099824 -0.36127833 -0.10747224 -0.49908635 0.24334864 0.34186208 -0.56043553 0.42294365
0.25477645 0.1837641 0.29842484 -0.3367556 0.10409932 0.24687572 -0.35770053 -0.22603664
0.03681887 0.08050112 0.0038568808 -0.55613655 0.03690917 0.25316 -0.25625664 -0.36632568
0.3403512 0.4532591 -0.37251428 0.2896362 -0.41242754 -0.023876777 0.45677832 -0.33340675
0.020603066 0.053119075 0.22937612 0.2654819 0.3681645 0.61935943 0.32810885 -0.21068501
-0.22745599 0.004916229 0.21168925 -0.2023299 0.33392212 -0.35754946 -0.21812469 -0.15187788
0.20906638 0.35030106 0.13312538 -0.2189892 -0.044928245 -0.17526565 -0.09843943 0.15813152
-0.46509933 0.29996702 -0.1142781 0.31967074 -0.22063558 0.26040977 0.2546301 0.35143298
-0.040226992 0.4872669 -0.12129183 0.59596723 -0.35559368 -0.29614398 0.6288487 -0.2745069
0.0759099 -0.30191225 -0.23079182 0.431258 -0.2748919 0.120053634 0.3800002 0.3171016
-0.05790466 0.008614176 -0.10593545 0.21258804 -0.14396045 -0.41982406 0.09433373 0.16939838
-0.46923247 -0.46850437 0.24281438 -0.44249043 0.29704762 0.4042887 -0.46643865 -0.10234437
0.29166433 -0.34647334 0.03348085 -0.30079898 -0.3397244 -0.55383664 -0.28451017 0.26772186
-0.16473281 -0.33691096 -0.023489786 0.4275831 -0.23268062 0.12683587 0.16560748 0.36723408
-0.2637162 -0.24005954 -0.10071723 0.09805581 -0.032728292 0.018842075 0.19197577 0.036881495

actor.2.bias f4 [3]
00000000: 5531 d83d b5f7 6ebc 73fa f73d
0.10556284 -0.014585425 0.12108316

critic.0.weight f4 [64, 64]
00000000: 75e8 a73d dc37 a3be afac 943e 1b8b 463e
00000010: 7d55 f53e 2d39 323e f366 4d3e 5c53 a83d
00000020: 54f4 6fbe 5e63 823e ce2f 673e 04af 2a3e
00000030: f422 76ba 9dec 3e3e 8b60 19bc 9f7b 273e
00000040: d97b 2dbd 3302 ac3d 2112 88be 8c9c 40bd
00000050: 72e7 993e 68ad b73d 70e8 f13d 8287 583e
00000060: d5cc b13e 2bc4 f23d 34f4 833d a1ea a73e
00000070: 4882 a83d b5be 573e 0f28 6f3c 34be c43e
00000080: 8079 553e 72e1 50be 717f 17bd 1130 493e
00000090: f6cf 6b3e de38 e7bc c428 543e 9044 a5bd
000000a0: df51 e33d 5cfd f43d 8798 33bd c1ca a93e
000000b0: b950 973e b21f 1a3e 2bfd c9bc 69a5 8e3d
000000c0: b19c 373e 42c6 f43c 70c6 f03c 283d 4c3e
000000d0: 2cfc 9cbd fe6f 23bd dc87 2c3d a0b7 423e
000000e0: d405 6f3e e466 de3e b920 043d 415f 78be
000000f0: cfde 823e c89c 4e3e 8f05 3cbb 5f2c 86be
00000100: b606 7a3c 548d 95be ac66 9d3e 913c 0b3d
00000110: 23b1 9f3e 18aa 3c3e 91b7 a33e bba0 213d
00000120: f911 4ebe eef4 3b3e 9281 5c3e 3835 7b3e
00000130: a564 e93d b921 4d3e c480 703c d825 803e
00000140: bff8 293d e8d6 8c3e 3c87 65be ee14 bc3c
00000150: eddb a13e 24a1 553c 1867 9d3e 65ae 513e
00000160: 604f a93e 056a 913e 2bdc 043e 49ce 4a3e
00000170: 7f0b b43d 1b36 5c3e ee03 bbbd 6793 b03e
00000180: 5bcd a03e c878 9dbd fd63 023d 22cf ca3d
00000190: 68fd ab3e abb5 e2bd a7e9 2f3e 699b 8cbe
000001a0: 580e 9b3e 08d4 1e3e 107d 30bd e8c8 343e
000001b0: f9e4 973e f8f7 233e acdb 66bd 6cfc 8d3b
000001c0: 1a85 b43e 4628 c23c 10ed 473e e6b4 5dbc
000001d0: 3d32 0fbe 1a88 fcbd ef7b 883e bad3 ab3e
000001e0: 5558 8d3c 3d5f 013f a8a9 81bb 5c37 d9be
000001f0: 3513 5c3e b311 2e3e 18c5 323e d707 7fbe
00000200: 9df4 7a3e f7a9 a0be e821 943e 1100 d33d
00000210: 3402 c83e 47ed 6a3e 3e26 f63d 84f6 733e
00000220: a639 15be 8faf a13e 7805 0b3e 863b 823e
00000230: 7328 2f3e 1402 c13d 09e2 80bd 028f 953e
00000240: a246 efbb beb0 a13e 6a01 e8bd 0510 4fbd
00000250: 6f60 bd3e 31c7 ed3d 688a 373e 028f 8a3e
00000260: fae0 ab3e 9246 983e 897a 213e dc89 3a3e
00000270: ded1 253e df50 873e 2f0c 1c3c 0d06 d03e
00000280: eb37 983e d1e3 1bbe 1d34 f23d e660 0c3e
00000290: e903 a93e 30ee 9a3b 311c 263e 6487 8fbe
000002a0: c062 903e c34f ebbb 645d fe3d fc37 3e3e
000002b0: db51 0c3e 763f 7a3d faba a13d b32e d63d
000002c0: 1616 c93e 4e34 233e 967d 8c3e 2756 473e
000002d0: c959 933d e641 d63d 3150 033e 6c11 3f3e
000002e0: a4a1 3b3e 2abe 083f ea19 173d 5a7f d1be
000002f0: 83c2 a43d 38db 743d 62e4 0f3e 967b 93be
00000300: bd75 86bd 76be c2bd ad66 303e 7e66 213d
00000310: db5d 1ebf f7b5 64bd e8e7 d2bd 94fc 833d
00000320: 0019 a53b df2d 333e 571e 823d 9b79 ca3d
00000330: 1670 ccbd 05af 9f3d d613 b63b 0e3d 993d
00000340: 9712 83bd cca4 39be 3d48 ecbe 8611 aa3e
00000350: 16d1 0c3e 09c6 553d 1ed0 89ba bbc1 08be
00000360: 1fb1 30bf 28f2 dabd 1ebd f8be aaf3 2bbf
00000370: fb9e 643e 1725 68bd 3a11 af3e adce dabe
00000380: dac7 e0bd 813a 84bd af83 21bc 8e7a 81be
00000390: 9e4a 673d 1d88 793e 7e6e 40be 02f5 ba3d
000003a0: a9b4 70bd 9bcf 3fbd a4dc 9b3d bddc 67be
000003b0: cc5e bd3e 2df4 0a3d 3bff 953e a9ce 343e
000003c0: 7cfc 47be c80d 1bbd 829b 223e 45fb 473e
000003d0: c260 ad3e 838c 563e 0809 b73c a37a 4c3d
000003e0: cd37 88bb 6337 3bbe 513f 9c3c 6c2a e7bb
000003f0: bb41 cabe c13a b1bd 610b 86be c5e3 893e
0.081986345 -0.31878555 0.29037997 0.19389002 0.47916785 0.17404623 0.20058803 0.082190245
-0.23433048 0.25466436 0.2257683 0.16668326 -0.00093893637 0.18644948 -0.009361397 0.16355751
-0.04235444 0.08398857 -0.2657633 -0.047024295 0.3005939 0.089686215 0.11811912 0.21145442
0.34726587 0.11853822 0.064430624 0.32796195 0.08227974 0.21068843 0.014596953 0.38426363
0.2084713 -0.203985 -0.036986772 0.19647242 0.2302855 -0.028225359 0.20718676 -0.08069718
0.110996 0.11962387 -0.043846633 0.331625 0.29553774 0.15051153 -0.024656853 0.06965143
0.17930867 0.029879693 0.029391497 0.19945204 -0.076652855 -0.039901726 0.042121753 0.1901536
0.23342067 0.43437874 0.03225777 -0.24255086 0.25560614 0.20176995 -0.0028689837 -0.26205727
0.015260389 -0.29209387 0.30742395 0.033993308 0.31189832 0.1842426 0.31975988 0.039459925
-0.20124044 0.18355152 0.21533802 0.2453202 0.113961495 0.20032395 0.014679138 0.25028872
0.04149699 0.2750771 -0.22414869 0.022959199 0.31613103 0.013038907 0.30742717 0.20476682
0.3306837 0.284012 0.12974612 0.19805254 0.08791255 0.21505015 -0.09131609 0.3448746
0.31406674 -0.07689053 0.031833638 0.09902789 0.3359177 -0.11069807 0.17178975 -0.2746232
0.3028438 0.15510571 -0.04308802 0.17654765 0.2966688 0.16012561 -0.05636184 0.0043330695
0.35257798 0.023700844 0.19524026 -0.013531899 -0.13984008 -0.12330647 0.26657054 0.33559972
0.017254034 0.5053595 -0.003956992 -0.42425048 0.21491702 0.16998939 0.17457998 -0.24905334
0.24507375 -0.31379673 0.28932118 0.10302747 0.3906418 0.22942077 0.12019013 0.23824507
-0.14572772 0.31579253 0.13576305 0.25436038 0.17105274 0.094242245 -0.06293113 0.2921067
-0.0073021213 0.31580156 -0.11328395 -0.050552387 0.36987635 0.11610258 0.17923892 0.2706223
0.3357008 0.2974134 0.157694 0.18216652 0.16193339 0.26428887 0.009524389 0.40629616
0.29730162 -0.15223624 0.11826346 0.13708839 0.33010796 0.004728101 0.16221692 -0.28032982
0.2820034 -0.007181139 0.124201566 0.18576044 0.137031 0.061095677 0.07896991 0.10458126
0.39274663 0.15937921 0.27439564 0.19466458 0.071948595 0.10461788 0.1282356 0.1865899
0.1832338 0.5341517 0.036889948 -0.40917474 0.08044913 0.059779376 0.14051965 -0.28805226
-0.065654255 -0.09508984 0.17226668 0.039404385 -0.6186196 -0.055837598 -0.10298139 0.0644466
0.0050383806 0.17497967 0.06353443 0.09886476 -0.09982316 0.07797054 0.005556564 0.074823484
-0.0640003 -0.18129271 -0.46148863 0.33216494 0.13751635 0.052190814 -0.0010514294 -0.13355152
-0.69020265 -0.10690719 -0.48581785 -0.67168677 0.22326271 -0.056675997 0.3419283 -0.42735806
-0.10975619 -0.06456471 -0.009858056 -0.25288814 0.056467645 0.2436833 -0.1879215 0.09128763
-0.05876604 -0.046828847 0.07610443 -0.22642799 0.36986387 0.03392427 0.29296288 0.1765696
-0.19529909 -0.03785494 0.15879634 0.19529445 0.33862883 0.20952038 0.022343174 0.049921643
-0.0041570426 -0.18282847 0.01907316 -0.0070546176 -0.39503273 -0.086537845 -0.26180556 0.26931587

critic.0.bias f4 [64]
00000000: 1849 cf3e 03d6 b33e 401e b33e d732 613e
00000010: 6679 8bbe 995e ca3e 2c65 b33e 1b26 07be
00000020: c63d 8cbb b930 26bc 86b0 7c3e d799 c73e
00000030: 853d 5e3e 239b c03e 0926 2fbe be0a 8a3e
00000040: 7797 583e 5b32 27be 2595 a93e 165d c23e
00000050: 1cde c23e f1ca 223d 740b a43e 31b7 c83e
00000060: 2d39 c93d 65b4 5c3e 20de 903e d65d 663e
00000070: 78a0 013e 9726 df3e fef3 bd3e b036 a7be
00000080: e92c a03d 126c ce3e a140 83bb 73df 813e
00000090: 81d5 863c 72ac 0fbe b375 c23e 241a 993e
000000a0: c22c c63e 06cd 2f3e 97a8 5cbe 6e9c ba3e
000000b0: b626 8d3e a770 98be 44d2 173e dd91 6c3e
000000c0: 5dcd c33d c759 ffba fcc4 edbd b0fb 4abe
000000d0: 012b 883e bee4 b43e 1ce1 c03e e902 583e
000000e0: 10af ac3d c970 903e a5b3 003e 9f3b b33e
000000f0: 8970 a73e 2df7 a1be e6cc 9ebb 3c90 5d3c
0.40485454 0.35124215 0.34984016 0.2199205 -0.27241057 0.39525297 0.35038126 -0.1319813
-0.004279825 -0.010143452 0.24676713 0.38984558 0.21703155 0.3761836 -0.17104353 0.2696132
0.21151529 -0.16327803 0.331216 0.37961644 0.3806008 0.03974432 0.32039988 0.39202264
0.098253585 0.2155319 0.28294468 0.22496733 0.1265887 0.4358413 0.37100214 -0.3265891
0.07821066 0.40316826 -0.004005507 0.2536579 0.016459228 -0.14030626 0.37980422 0.29902756
0.38706023 0.17168054 -0.21548687 0.3644747 0.27568597 -0.29773447 0.14826304 0.23102517
0.09560654 -0.0019481712 -0.116098374 -0.19822574 0.2659531 0.35330766 0.37671745 0.2109486
0.08431828 0.28211048 0.12568529 0.35006425 0.32703045 -0.31633893 -0.004846203 0.013523158

critic.2.weight f4 [1, 64]
00000000: 697e cf3e 1320 cf3e 7301 913e 550d ccbe
00000010: 3cbf 29bf 0bfa 883e a00e c33e 545c b739
00000020: 0a96 86be b5d4 11bf 1b74 973e 47be b03e
00000030: 5881 993e 56d4 9a3e 625b 09bf 0aa3 b03e
00000040: 65d1 933e 6020 39bf 8fa5 b03e 64a5 d73e
00000050: 9c63 973e 6f0a ccbe 4379 cd3e 4733 d53e
00000060: b593 843e 6600 c53e e9e3 b03e 13ec a03e
00000070: 2158 863e d6b3 8a3e 8e78 af3e 4e30 36bf
00000080: dcb2 40bf 3cfa 9a3e c798 08bf 306f c13e
00000090: c3b3 91bc b9f6 06bf 5e56 9a3e 0efe 8f3e
000000a0: 8cd4 993e cab9 28bf 72ce 2abf 59c5 8c3e
000000b0: 8727 cc3e e2b3 2dbf bd0e 0ebf e501 983e
000000c0: 197e 903e 8e58 b63e 823b eebe dbd4 07bf
000000d0: f6bc 2ebf fe21 c53e 6f0c aa3e 7491 ae3e
000000e0: 19cf 59bf e8a1 e53e 43fd 1fbf 92fc 963e
000000f0: 874d a53e aa31 17bf 0ff6 34bf 5e8a a43e
0.4052613 0.40454158 0.28321418 -0.39853922 -0.66307425 0.26753268 0.38097095 0.0003497327
-0.26286346 -0.5696519 0.2958077 0.3452017 0.29981494 0.30240124 -0.53655064 0.3449939
0.28870693 -0.72315025 0.3450131 0.4211837 0.29568183 -0.3985171 0.40131578 0.41640684
0.25893942 0.38476866 0.34548882 0.3143011 0.26239112 0.2709033 0.34271663 -0.7116746
-0.7527292 0.3026904 -0.5335812 0.37780142 -0.017785912 -0.5272022 0.30144018 0.28123516
0.30044973 -0.6590849 -0.6672126 0.27494314 0.39873907 -0.67852604 -0.5549124 0.29688945
0.28221205 0.35614437 -0.46529776 -0.53059167 -0.6825708 0.38502496 0.3321261 0.34095347
-0.8508163 0.44850087 -0.6249582 0.2948957 0.3228571 -0.59060156 -0.70687956 0.32136816
